CNN-based-IoT-Device-Identification-main/cnn_lstm.pth (torch, 29275 bytes, 8 tensors)

conv1.weight f4 [128, 5, 5]
0.7915674 0.8555139 -0.033884186 -0.50739527 -0.2820087 -0.07067633 0.13049185 -0.866069
1.1139675 0.32869098 -0.026898615 0.28543654 -0.09552192 0.8455932 -0.90754354 -0.58423114
0.3528056 -0.22648516 -1.1983082 -0.4075646 -1.0740315 -0.65276796 -0.6590279 0.97865605
0.37784666 -0.39085364 -0.23771837 0.099975325 -1.545225 -0.6796949 -0.06264043 -0.8211921
-1.4157923 0.56184256 -0.120689385 0.3919726 0.21118963 0.3029901 0.77259934 -0.6259399
-1.3066168 0.4163609 0.2443968 -2.0527198 0.25985637 -1.3203619 -0.80395406 -0.7499236
-1.6687944 -1.2075149 0.15332752 0.3283454 0.12672006 -0.1987697 0.36394855 -0.07613029
-0.6052996 0.11390146 -0.057396945 -0.59662914 0.82568616 0.08288814 -0.14195243 1.1478971
0.057138927 -0.24711274 0.21163449 1.1595951 0.2457694 1.0145452 -0.43367028 -0.4639821
0.91208595 -0.021149704 0.21217844 0.24962798 0.16718209 -0.18561207 -1.2242639 -0.9953739
0.09801586 -0.7319163 -0.116192885 -0.026810357 -0.57137334 0.5850535 0.8545982 0.6860465
0.68072903 -0.6157117 -0.10889132 1.0430737 0.96885055 0.29980278 0.86167306 -1.0266194
-1.3655505 -0.16573286 -0.40886834 -0.0031084716 -0.17043558 -0.069958 0.19040257 -0.1849347
0.116456136 -0.11852558 0.5226613 -1.4956673 -0.9892003 0.44439054 -0.9744751 0.33836952
0.37800613 1.0873845 -1.5906311 -0.107911415 -0.5307966 -0.111574456 -0.27129072 -0.11598709
0.07580071 0.27002352 -0.031942036 0.33897376 0.31311223 0.3802184 -0.33762 -0.1086669
-0.20881864 -0.072269216 0.051238164 0.24606946 -1.1446999 0.38514718 0.10027366 -0.18548052
-0.24543509 -0.24953628 -0.22991511 -1.5547906 0.07134225 -0.12397275 1.1509198 -1.5157037
1.3658437 -0.52976394 -0.47692835 -0.3176611 0.6319794 0.67394215 -0.22686672 -0.255056
-0.4225691 0.2912939 0.53888345 0.17455356 0.51515687 -0.38529265 -0.11869099 0.29078636
-0.27478307 0.60006845 0.40211987 0.21625505 -1.1286144 0.08882616 0.28169885 0.18352422
-1.5662599 0.22126147 0.32900313 -0.070298016 -0.2169355 0.2264753 -0.10776041 0.3067651
-0.36281544 0.65528977 0.9074408 -0.86603266 -0.12587023 0.9619754 -0.321569 1.0399448
0.40672523 -0.36775994 -0.1270321 -0.18333133 -0.08680315 -0.2746417 -0.25017416 0.22282626
1.2413644 -0.4762651 1.5789772 0.9895007 0.80976266 0.15998413 0.40871733 0.3391189
0.10920512 -0.14082439 0.23445652 0.504936 -1.2904196 0.15405034 1.3356609 -0.8996485
2.055528 0.7496764 -0.20590645 -0.31964177 -0.14113832 1.1850224 -0.97028154 -0.58218515
0.04949813 0.54654855 -0.61973923 0.50198823 0.39835027 0.23097645 0.5580713 0.41034558
0.780932 1.3264866 0.2936393 0.81385696 0.99767756 -0.108739585 0.058918968 0.9894854
-0.0426799 1.4849935 2.2070384 -0.05420527 0.2769715 0.15953907 -0.047701415 -0.5449652
0.041068096 -1.1639215 -0.01635301 0.6934834 0.14917293 0.6849562 0.65360236 1.3788453
1.3541383 1.714994 0.8046061 0.10397129 0.53031904 0.07158435 -0.5529811 0.19311596
00000000: 29a4 4a3f f502 5b3f 25ca 0abd a8e4 01bf
00000010: 7263 90be c0be 90bd a89f 053e b3b6 5dbf
00000020: 7d96 8e3f 2f4a a83e 7c5a dcbc bd24 923e
00000030: ffa0 c3bd cc78 583f c654 68bf 2c90 15bf
00000040: f0a2 b43e baeb 67be 2a62 99bf 4fac d0be
00000050: dd79 89bf cd1b 27bf 0db6 28bf 3489 7a3f
00000060: 1e75 c13e f81d c8be 726c 73be ddbf cc3d
00000070: efc9 c5bf 7c00 2ebf a049 80bd a539 52bf
00000080: af38 b5bf ead4 0f3f ff2b f7bd a2b0 c83e
00000090: 1842 583e 8521 9b3e 12c9 453f 993d 20bf
000000a0: 383f a7bf 422d d53e 2843 7a3e c35f 03c0
000000b0: e50b 853e 9e01 a9bf efcf 4dbf fefa 3fbf
000000c0: 0e9b d5bf d98f 9abf e401 1d3e e31c a83e
000000d0: e7c2 013e 498a 4bbe 7757 ba3e 33ea 9bbd
000000e0: eaf4 1abf 2b45 e93d 0f19 6bbd b0bc 18bf
000000f0: 2b60 533f 42c1 a93d fa5b 11be 4bee 923f
00000100: 820a 6a3d 1f0b 7dbe b6b6 583e 9d6d 943f
00000110: f9aa 7b3e 9edc 813f 080a debe 108f edbe
00000120: 777e 693f 2542 adbc 4e45 593e 7a9e 7f3e
00000130: c831 2b3e 1711 3ebe aeb4 9cbf d3d0 7ebf
00000140: 8abc c83d de5e 3bbf 89f6 edbd 65a1 dbbc
00000150: 8645 12bf 11c6 153f f3c6 5a3f bea0 2f3f
00000160: 4244 2e3f 489f 1dbf 6a02 dfbd 7083 853f
00000170: 9706 783f c07f 993e 9b96 5c3f 4468 83bf
00000180: 5cca aebf e0b5 29be 3157 d1be 80b7 4bbb
00000190: aa86 2ebe 2446 8fbd e4f8 423e 865f 3dbe
000001a0: 8e80 ee3d 8abd f2bd 22cd 053f 0772 bfbf
000001b0: 3b3c 7dbf 2887 e33e 3377 79bf c53e ad3e
000001c0: 058a c13e 6a2f 8b3f cd99 cbbf a900 ddbd
000001d0: 49e2 07bf 2681 e4bd 9ee6 8abe a48a edbd
000001e0: 673d 9b3d 8640 8a3e a7d5 02bd f88d ad3e
000001f0: 3f50 a03e fcab c23e 87dc acbe c08c debd
00000200: 8ed4 55be e201 94bd 1cdf 513d a2f9 7b3e
00000210: 8785 92bf 0332 c53e 475c cd3d 9bee 3dbe
00000220: 5653 7bbe 7086 7fbe de6e 6bbe 6103 c7bf
00000230: e31b 923d 6de5 fdbd 5751 933f 9402 c2bf
00000240: f7d3 ae3f 9c9e 07bf f42f f4be 7aa4 a2be
00000250: 67c9 213f 7987 2c3f c04f 68be b396 82be
00000260: fa5a d8be 7924 953e 44f4 093f 2bbe 323e
00000270: 52e1 033f 1445 c5be 4314 f3bd f3e1 943e
00000280: 5eb0 8cbe 169e 193f a8e2 cd3e f771 5d3e
00000290: 7076 90bf 7dea b53d d53a 903e c6ed 3b3e
000002a0: 347b c8bf 5e92 623e 1973 a83e 68f8 8fbd
000002b0: 5724 5ebe 24e9 673e 7db1 dcbd 5110 9d3e
000002c0: f2c2 b9be 12c1 273f 0a4e 683f 51b4 5dbf
000002d0: 20e4 00be 0544 763f b1a4 a4be e91c 853f
000002e0: 4a3e d03e 084b bcbe b414 02be 35bb 3bbe
000002f0: dac5 b1bd d69d 8cbe d416 80be 912c 643e
00000300: 07e5 9e3f 05d9 f3be ed1b ca3f eb4f 7d3f
00000310: 9b4c 4f3f e1d2 233e 6643 d13e fea0 ad3e
00000320: efa6 df3d 4534 10be 5f15 703e 7c43 013f
00000330: 782c a5bf 5fbf 1d3e f0f6 aa3f 5d4f 66bf
00000340: c58d 0340 cbea 3f3f 24d9 52be 16a8 a3be
00000350: 9086 10be d0ae 973f 5f64 78bf 160a 15bf
00000360: 8dbe 4a3d 9bea 0b3f 3ba7 1ebf 4d82 003f
00000370: 91f4 cb3e 1785 6c3e c3dd 0e3f d118 d23e
00000380: 29eb 473f 50ca a93f e457 963e ee58 503f
00000390: cc67 7f3f dcb2 debd 0455 713d ea4e 7d3f
000003a0: 1ed1 2ebd 4414 be3f 1e40 0d40 5806 5ebd
000003b0: 35cf 8d3e 365e 233e 8f62 43bd d782 0bbf
000003c0: 0537 283d 61fb 94bf bff6 85bc 2188 313f
000003d0: cac0 183e 4a59 2f3f 7c52 273f 017e b03f
000003e0: 6754 ad3f ec84 db3f aafa 4d3f e6ee d43d
000003f0: fdc2 073f d19a 923d 2b90 0dbf 31c0 453e

conv1.bias f4 [128]
-0.64675945 -1.4426188 -0.48519322 -0.84839123 0.44792005 0.06045761 0.26947212 1.5165993
1.388053 1.7055058 0.46887812 1.4656993 1.0849595 -0.75189656 -1.0235817 -0.61114913
-2.0707455 -1.4644897 -1.413634 -1.1718625 -0.6273016 -0.24526903 0.17653449 -0.20897365
0.58130157 1.2085379 1.1371388 -0.5328953 -0.065862216 0.62854767 0.30596352 -0.049847897
1.0670667 -0.3725001 0.18752073 -1.682097 0.13832963 -1.5092266 -0.29850316 -0.39682126
-0.2175558 0.19141601 0.8518682 -0.06236207 -0.06402851 0.19446303 -0.39722282 -0.31780612
-0.28527123 0.16134205 0.30030504 -0.85668576 -1.2754983 -1.5000155 -0.69324064 -0.25809598
-0.38024125 0.32793048 0.6435703 -0.17739356 0.3257536 0.02826597 -0.09638274 -0.44038677
-0.045334533 -0.24846517 -0.3219824 -0.042398404 -0.28118768 0.5385072 1.5787404 0.3001685
0.29298854 0.50760615 0.74486524 0.95546997 1.1497412 1.0219419 1.4899629 1.8234673
2.237391 1.2001585 0.26573244 -0.71722054 -0.6316205 -1.0059017 -0.25465462 -0.007306347
-0.029219203 -0.06940437 -0.26119196 -0.37283143 -0.14642966 -0.694256 -0.2164458 -0.30603918
-0.5481674 -0.49438584 -0.4523524 -0.60009414 -0.27793166 -0.3091574 -0.337917 -0.33596936
0.008083834 0.10484007 -0.07636869 -0.13851655 0.15147908 0.23842327 0.11350077 0.03597291
-0.27859598 -0.28828642 -0.25932372 0.24687028 0.49147266 0.16658205 -0.65049195 0.19087607
-0.037623 -0.33703786 0.17943597 -0.36808068 0.22926511 0.07401727 0.081846476 -0.0890943
00000000: 0792 25bf bca7 b8bf 3f6b f8be 2b30 59bf
00000010: c755 e53e 66a2 773d 40f8 893e ed1f c23f
00000020: b9ab b13f 044e da3f cb10 f03e 099c bb3f
00000030: f4df 8a3f 4b7c 40bf ba04 83bf 4574 1cbf
00000040: 1887 04c0 6674 bbbf f5f1 b4bf 97ff 95bf
00000050: d696 20bf ce27 7bbe 75c5 343e 30fd 55be
00000060: 2ed0 143f 5fb1 9a3f c48d 913f d46b 08bf
00000070: c5e2 86bd 80e8 203f 40a7 9c3e 4f2d 4cbd
00000080: a495 883f 55b8 bebe 6f05 403e f44e d7bf
00000090: 48a6 0d3e 562e c1bf 68d5 98be 282c cbbe
000000a0: f3c6 5ebe 8f02 443e 0914 5a3f 5f6f 7fbd
000000b0: 6121 83bd 5121 473e ca60 cbbe 7cb7 a2be
000000c0: 120f 92be da36 253e 95c1 993e c24f 5bbf
000000d0: 8743 a3bf 8200 c0bf 3878 31bf 2825 84be
000000e0: fbae c2be 81e6 a73e 06c1 243f a8a6 35be
000000f0: 2dc9 a63e 098e e73c 5064 c5bd 607a e1be
00000100: b4b0 39bd a76d 7ebe e1da a4be f3a9 2dbd
00000110: d5f7 8fbe 9cdb 093f 2a14 ca3f b0af 993e
00000120: 9802 963e 7af2 013f 7daf 3e3f ae99 743f
00000130: b82a 933f fece 823f 1bb7 be3f 6067 e93f
00000140: 6a31 0f40 cb9e 993f 150e 883e c49b 37bf
00000150: e2b1 21bf 63c1 80bf 1762 82be 156a efbb
00000160: 1c5d efbc e123 8ebd f4ba 85be c3e3 bebe
00000170: a8f1 15be c3ba 31bf f8a3 5dbe 2bb1 9cbe
00000180: b354 0cbf 2420 fdbe bc9a e7be c59f 19bf
00000190: 0f4d 8ebe e149 9ebe 7503 adbe 2d04 acbe
000001a0: 0f72 043c 64b6 d63d 3067 9cbd 48d7 0dbe
000001b0: 551d 1b3e 3b25 743e 1773 e83d 5458 133d
000001c0: 22a4 8ebe 479a 93be 14c6 84be 90cb 7c3e
000001d0: 4ea2 fb3e 7c94 2a3e a486 26bf 0475 433e
000001e0: 931a 1abd 3a90 acbe 10be 373e 1275 bcbe
000001f0: 79c4 6a3e 5e96 973d 209f a73d 1377 b6bd

lstm.weight_ih_l0 f4 [100, 1]
-0.15294205 -1.0437698 -3.218337 -0.2644083 -2.9328518 -0.37074387 2.4202337 -0.58779067
1.6443545 1.706094 -1.0252867 1.3928587 0.62887084 -0.22186919 -0.56339014 -0.856992
-1.4720585 -0.9679798 -1.1964678 1.551161 -1.4933426 -1.5607784 -0.5645891 -0.22180255
-0.51953846 -0.073757455 -0.16169074 -3.1897027 -0.07697038 -2.3802464 -0.084959544 0.85054415
-1.5105935 -0.7518515 1.4781774 -1.6063302 1.6278658 0.98783654 0.031740513 -1.651913
0.13110173 -2.16288 -0.85811615 -2.3711154 -0.6047901 -0.41741607 -1.0411638 -0.52298766
-1.4130855 -0.90405893 -0.91133624 1.1262416 -0.09816653 -1.2088219 -1.0555819 1.5619091
3.745647 2.6278796 -1.2883071 1.6797239 -1.7940798 -1.4977566 1.6275859 -0.19851282
-4.0935087 -2.3641639 -3.0288641 1.2954959 -0.3008458 3.2127144 -1.4084725 -1.7716569
-0.88864565 2.8605373 -3.4922602 0.98768157 -1.498708 -3.3482785 -2.1337354 -4.2722855
-0.16288884 2.352193 1.359579 2.3742902 8.060006 -2.1502683 0.62316513 1.4983134
-0.37299752 2.1234136 -1.7132255 0.31316435 1.5005333 0.5956311 0.99752516 1.2794938
-1.5743793 -0.5002817 -0.34498787 -2.8203094
00000000: d79c 1cbe 409a 85bf 3cf9 4dc0 8660 87be
00000010: d8b3 3bc0 24d2 bdbe 1ce5 1a40 7379 16bf
00000020: 357a d23f 4a61 da3f 983c 83bf 3249 b23f
00000030: aefd 203f ad31 63be 563a 10bf d463 5bbf
00000040: 6a6c bcbf 86cd 77bf db25 99bf 728c c63f
00000050: da25 bfbf 96c7 c7bf e988 10bf 3520 63be
00000060: 7900 05bf 260e 97bd 4292 25be 1724 4cc0
00000070: a6a2 9dbd f555 18c0 45ff adbd 43bd 593f
00000080: 215b c1bf 5779 40bf eb34 bd3f 3a9c cdbf
00000090: e85d d03f dbe2 7c3f 5702 023d e371 d3bf
000000a0: 883f 063e a06c 0ac0 80ad 5bbf 5bc0 17c0
000000b0: 86d3 1abf 8fb7 d5be db44 85bf 85e2 05bf
000000c0: fcdf b4bf 6870 67bf 554d 69bf af28 903f
000000d0: 890b c9bd adba 9abf 4f1d 87bf a3ec c73f
000000e0: aeb8 6f40 2e2f 2840 3fe7 a4bf 3101 d73f
000000f0: 68a4 e5bf 7db6 bfbf bc54 d03f f246 4bbe
00000100: 06fe 82c0 764e 17c0 e9d8 41c0 cfd2 a53f
00000110: 7608 9abe 1d9d 4d40 d448 b4bf a7c5 e2bf
00000120: 487e 63bf 0b13 3740 3181 5fc0 b3d8 7c3f
00000130: aad5 bfbf 324a 56c0 1f8f 08c0 90b6 88c0
00000140: 55cc 26be 558a 1640 af06 ae3f 5ff4 1740
00000150: c9f5 0041 ff9d 09c0 c087 1f3f bcc8 bf3f
00000160: 88f9 bebe 02e6 0740 f94a dbbf 1457 a03e
00000170: 7a11 c03f 487b 183f cf5d 7f3f 74c6 a33f
00000180: 4385 c9bf 7612 00bf 40a2 b0be f37f 34c0

lstm.weight_hh_l0 f4 [100, 25]
-0.52488416 -1.1144352 -3.7475772 3.4109476 -0.5011232 1.5813 1.2380072 -0.78941596
3.5608096 0.059597194 1.3864032 0.44715726 -1.2527415 2.1527874 -0.09821655 0.42466927
-0.6010926 -1.8680235 -3.0703418 -1.2523974 -1.831219 1.1048928 2.7556708 0.9152242
-3.2175019 0.19570556 -0.24372144 0.23593278 0.59019166 0.52306473 0.55052876 -1.9110111
-3.1159797 1.0194782 -3.0698318 0.4000046 0.09741967 0.095387444 1.0935174 1.6648993
-0.20059372 0.75025564 -0.7399202 1.4962792 -0.8409971 0.51769316 0.10481329 -0.7403481
-1.6887504 -0.75780606 1.2012504 0.5859863 1.0517113 0.5759666 -2.1558402 -1.1794885
-0.12271167 0.6639454 0.051741786 0.63596016 0.2565423 -1.190644 0.49170467 1.4400116
-0.17587699 0.35225832 0.08990709 0.1469877 -0.42186984 0.41663188 0.259636 1.2680986
1.4475882 0.03632215 0.64255905 2.3365655 -1.6387184 0.5796209 1.8614053 0.74914366
-0.6135997 -1.5303721 0.2766008 -0.26926818 1.2809391 3.898167 1.6298243 -1.7835963
0.42225978 -0.4571549 0.56977004 -0.6923281 -1.3655862 -0.25877124 -0.7081806 -1.5159483
1.5605769 0.2753163 -1.6947204 -0.80152005 0.05724282 0.22314917 -1.1633582 -0.120311804
-0.38271353 0.1016352 1.7808102 1.1955104 -0.78529596 -1.2424471 0.6807494 -0.0796838
-0.05381486 -0.17134659 -1.8229078 0.09059593 -1.5792012 -0.34873015 -0.993254 0.96947694
-0.5796201 -0.07713547 -0.22766073 1.1482207 -1.2176176 -0.051209044 -0.7148799 1.7972037
4.4710507 0.7039486 -2.1144998 -0.14795573 -0.87359047 -0.11629577 -0.7316652 2.5670917
0.96659464 -0.9631196 1.1751453 0.7928245 2.5246382 0.95130783 -1.1191709 -0.36797214
-1.3328298 0.590608 -0.7245157 2.2259474 -0.95561534 -3.1149101 1.1764234 -0.55225426
-1.122192 -0.74604285 -0.5491393 -1.6598345 -3.0707467 -2.4562476 1.617496 1.2991645
-0.9694305 1.4208912 -3.5183415 0.22825985 0.7128326 1.0579106 -0.3537118 -2.3528497
-0.18918534 -1.7113156 1.6349182 -0.4572013 0.57591873 0.96874064 -1.055341 -0.40311682
2.1681743 1.3723502 0.9205316 -1.1345404 0.8883768 0.5273925 -1.343951 0.3454648
0.49324867 1.2388498 -1.5476012 0.34340468 1.4829347 -1.6868899 0.8162962 -0.5167614
1.2700976 -0.9679386 2.4473765 -0.22335131 0.693211 0.7684459 -0.7468299 3.4853323
-0.056320745 -0.022726754 1.5277727 -0.7222526 0.2722307 -0.5052647 0.79580796 -0.5209751
-0.059611194 0.32884663 1.148341 0.6158383 -0.3271444 -0.19299296 -0.3049259 0.8236625
1.6722366 0.9524881 0.55809784 0.4579273 -1.3978018 -0.006411564 -1.1754575 0.8666251
-1.8970754 -0.8306236 0.985035 -0.07253647 0.42073357 -2.751699 -0.32812405 -0.09631738
0.22013928 -0.023275478 1.8355292 1.3088794 1.7105296 0.51313466 -1.7165898 -1.1743006
-1.578448 1.361042 -2.2524605 -1.595028 2.0762446 1.8363363 1.7013369 -0.23764446
0.7017288 0.7666069 -0.8442282 0.32976487 0.019420797 0.8631869 -2.2952623 0.33692688
00000000: cf5e 06bf d0a5 8ebf 4ed8 6fc0 f74c 5a40
00000010: 9c49 00bf 0a68 ca3f 0577 9e3f 2a17 4abf
00000020: 4ee4 6340 301c 743d a975 b13f ccf1 e43e
00000030: d559 a0bf 45c7 0940 c225 c9bd 406e d93e
00000040: 34e1 19bf 651b efbf 7b80 44c0 8f4e a0bf
00000050: 6265 eabf 216d 8d3f e95c 3040 224c 6a3f
00000060: 8deb 4dc0 0a67 483e 1d92 79be 5d98 713e
00000070: cd16 173f 92e7 053f 74ef 0c3f 039c f4bf
00000080: 366c 47c0 437e 823f 2078 44c0 67cd cc3e
00000090: f783 c73d 7e5a c33d 61f8 8b3f 6c1b d53f
000000a0: 7168 4dbe c110 403f 696b 3dbf 1486 bf3f
000000b0: 964b 57bf 8a87 043f 5aa8 d63d 7487 3dbf
000000c0: f928 d8bf 94ff 41bf 93c2 993f 3303 163f
000000d0: 7a9e 863f 8c72 133f 49f9 09c0 7bf9 96bf
000000e0: 4250 fbbd 53f8 293f 32ef 533d 49ce 223f
000000f0: 8359 833e 0667 98bf b7c0 fb3e 4d52 b83f
00000100: 1919 34be 345b b43e 3521 b83d f283 163e
00000110: 53ff d7be c650 d53e 03ef 843e 0e51 a23f
00000120: 924a b93f 89c6 143d c07e 243f 4a8a 1540
00000130: 86c1 d1bf 0962 143f 8742 ee3f e1c7 3f3f
00000140: df14 1dbf 3ce3 c3bf 9f9e 8d3e 85dd 89be
00000150: d0f5 a33f 917b 7940 159e d03f e24c e4bf
00000160: 6f32 d83e 3510 eabe 73dc 113f 6a3c 31bf
00000170: 87cb aebf aa7d 84be 534b 35bf 980a c2bf
00000180: fcc0 c73f 42f6 8c3e 99ec d8bf 6b30 4dbf
00000190: 7277 6a3d 3781 643e ece8 94bf 0966 f6bd
000001a0: 07f3 c3be 1e26 d03d 97f1 e33f 7c06 993f
000001b0: 2809 49bf 8208 9fbf 9845 2e3f 4331 a3bd
000001c0: f86c 5cbd 7b75 2fbe 0b55 e9bf 5c8a b93d
000001d0: 4423 cabf c28c b2be e545 7ebf a42f 783f
000001e0: fc61 14bf 34f9 9dbd e51f 69be e5f8 923f
000001f0: e5da 9bbf 93c0 51bd 5e02 37bf c50a e63f
00000200: d912 8f40 fa35 343f f753 07c0 b581 17be
00000210: a0a3 5fbf 7a2c eebd 694e 3bbf 3b4b 2440
00000220: bf72 773f 028f 76bf 296b 963f 8cf6 4a3f
00000230: ac93 2140 e988 733f fe40 8fbf d866 bcbe
00000240: 2b9a aabf 1632 173f dc79 39bf ec75 0e40
00000250: 35a3 74bf b05a 47c0 0b95 963f 8960 0dbf
00000260: fda3 8fbf aafc 3ebf 6594 0cbf 7575 d4bf
00000270: 1d87 44c0 2933 1dc0 1c0a cf3f 064b a63f
00000280: 992c 78bf c3df b53f 822c 61c0 f3bc 693e
00000290: 337c 363f 9d69 873f b719 b5be 1795 16c0
000002a0: cdb9 41be 640c dbbf 0045 d13f 4a16 eabe
000002b0: 696f 133f 63ff 773f 6a15 87bf 5465 cebe
000002c0: 5ec3 0a40 2ca9 af3f f5a7 6b3f 9f38 91bf
000002d0: a96c 633f 3203 073f 9606 acbf c3e0 b03e
000002e0: 178b fc3e a192 9e3f cc17 c6bf bdd2 af3e
000002f0: ced0 bd3f 02ec d7bf caf8 503f 7a4a 04bf
00000300: 8f92 a23f d3ca 77bf d1a1 1c40 35b6 64be
00000310: 4776 313f dfb8 443f 3f30 3fbf af0f 5f40
00000320: 95b0 66bd 752d babc 0e8e c33f 8ce5 38bf
00000330: d361 8b3e 0759 01bf 12ba 4b3f a05e 05bf
00000340: de2a 74bd 965e a83e d6fc 923f 94a7 1d3f
00000350: 797f a7be f29f 45be 3f1f 9cbe 8cdb 523f
00000360: d90b d63f 43d6 733f 80df 0e3f 7275 ea3e
00000370: 2beb b2bf 1918 d2bb 6475 96bf 24db 5d3f
00000380: 5ed3 f2bf c0a3 54bf 412b 7c3f 008e 94bd
00000390: 646a d73e d61b 30c0 e0ff a7be 0c42 c5bd
000003a0: 316c 613e 37ac bebc 9ff2 ea3f 5c89 a73f
000003b0: a2f2 da3f cb5c 033f 37b9 dbbf 7b4f 96bf
000003c0: 960a cabf a036 ae3f 5028 10c0 e129 ccbf
000003d0: 31e1 0440 110d eb3f 68c5 d93f 1259 73be
000003e0: 80a4 333f 5a40 443f 571f 58bf f1d6 a83e
000003f0: 5d18 9f3c d1f9 5c3f 94e5 12c0 ae81 ac3e

lstm.bias_ih_l0 f4 [100]
0.44249976 -0.44576427 -0.3057299 0.39088345 -1.2531898 0.84416187 0.6148099 -0.45901027
1.2172225 -0.6309752 -0.61953217 -0.080552265 -0.043011855 0.8425742 1.0885084 1.0417707
0.018285826 0.32899567 -0.4990027 -0.8817215 -0.37713644 -0.6012799 -0.31998602 -0.01288264
1.0251585 0.6301346 0.88446975 -0.18877868 0.42002693 -0.20927519 0.88186663 -0.71866775
0.3826211 0.76053756 -0.41314453 0.9318613 0.29969266 1.0519387 1.3481402 0.5640883
1.1255099 0.3643099 1.2008014 -1.0151547 -0.8851052 0.8262171 0.6498397 -0.5251044
0.6058933 1.3126092 0.23008844 -1.7805667 -0.24805284 0.11718668 -0.296606 0.6313678
-1.016902 -0.96371806 1.2746942 -0.7341459 0.7925565 0.38921133 0.04361847 0.87819135
-0.37867662 0.2951315 0.14696953 -0.7622907 0.20018913 -0.70257646 -0.04224604 -0.17537147
0.9555435 -0.89195603 -0.5713318 0.020551126 -0.38957 -0.0631302 -0.6029796 0.20939766
-0.9069572 0.7374878 0.2677279 -0.7657962 -0.42257473 0.20369774 -0.28307673 -0.67856586
-1.9173888 0.97300905 -1.2067792 1.2507653 -0.16186915 0.60605514 -0.3959804 -0.5997489
0.09295871 -0.68501896 0.03149306 0.038870186
00000000: 548f e23e 373b e4be a188 9cbe e021 c83e
00000010: 8668 a0bf fe1a 583f 2e64 1d3f 6503 ebbe
00000020: f2cd 9b3f 9787 21bf a999 1ebf 96f8 a4bd
00000030: 332d 30bd f1b2 573f 3e54 8b3f be58 853f
00000040: 28cc 953c 1f72 a83e 487d ffbe 80b8 61bf
00000050: 0718 c1be 7bed 19bf 35d5 a3be b511 53bc
00000060: 6538 833f 8050 213f 9c6c 623f 334f 41be
00000070: c50d d73e 3c4c 56be 03c2 613f 9cfa 37bf
00000080: eae6 c33e 97b2 423f ae87 d3be 768e 6e3f
00000090: 5171 993e eda5 863f dc8f ac3f 1768 103f
000000a0: b510 903f d486 ba3e dcb3 993f 97f0 81bf
000000b0: 4196 62bf f782 533f e55b 263f 3e6d 06bf
000000c0: d31b 1b3f 9403 a83f 4e9c 6b3e 9ce9 e3bf
000000d0: 9001 7ebe 92ff ef3d bedc 97be 52a1 213f
000000e0: d829 82bf 3ab6 76bf 2e29 a33f fcf0 3bbf
000000f0: fce4 4a3f b546 c73e 48a9 323d 26d1 603f
00000100: e7e1 c1be 7a1b 973e 2e7f 163e 7c25 43bf
00000110: 61fe 4c3e 0ddc 33bf 2f0a 2dbd 9494 33be
00000120: 809e 743f 3b57 64bf cd42 12bf d65a a83c
00000130: b875 c7be 684a 81bd df5c 1abf 576c 563e
00000140: 592e 68bf 00cc 3c3f a213 893e 380b 44bf
00000150: b75b d8be 2496 503e 6fef 90be 7eb6 2dbf
00000160: ff6c f5bf 1f17 793f be77 9abf 1419 a03f
00000170: 07c1 25be 6e26 1b3f f1bd cabe 2589 19bf
00000180: 2361 be3d 675d 2fbf defe 003d 5836 1f3d

lstm.bias_hh_l0 f4 [100]
0.5182181 -0.26694787 -0.2515972 0.22625461 -1.132088 1.0230975 0.9404237 -0.38978687
1.3958654 -0.58523154 -0.7151511 -0.23881653 0.012574293 0.96476793 1.2229214 0.9547727
0.21340354 0.36334231 -0.49611288 -0.85052 -0.3012412 -0.3236313 -0.33293593 -0.039565906
1.2864412 0.4230556 0.99490905 -0.38079327 0.1468584 -0.40382478 0.7888429 -0.67285156
0.1819222 0.85132927 -0.63252306 0.9181083 0.32647374 1.1975461 1.2843193 0.4189268
1.211317 0.37221903 1.3717133 -1.2751671 -0.61445457 0.90604705 0.85005516 -0.51560396
0.53706163 0.98055154 0.2552916 -1.5595124 -0.29219425 0.41130632 -0.45273548 0.8074946
-0.8737295 -0.7516686 1.4453557 -0.56107694 0.77497333 0.61465544 0.18561618 0.7421165
-0.20877944 0.4521268 0.18299456 -0.8142999 0.22920045 -0.7310856 0.11032183 -0.0125207
0.78310734 -0.7502331 -0.35188213 -0.12077746 -0.51785046 -0.0021928775 -0.24421754 0.34818038
-0.72446704 0.86258274 -0.080804504 -0.76157415 -0.6796986 0.17302701 -0.47578156 -0.5139944
-1.7640061 0.7911694 -1.3198138 1.2622226 -0.21136066 0.56250983 -0.5158046 -0.4011904
0.0147884395 -0.85801214 -0.12977883 -0.02679317
00000000: f1a9 043f 64ad 88be 59d1 80be 4aaf 673e
00000010: 42e8 90bf dcf4 823f 9cbf 703f 2592 c7be
00000020: b8ab b23f bcd1 15bf 2414 37bf 528c 74be
00000030: 6804 4e3c 08fb 763f b088 9c3f fc6b 743f
00000040: 7586 5a3e 0108 ba3e 8202 febe aebb 59bf
00000050: 493c 9abe 00b3 a5be 9476 aabe dc0f 22bd
00000060: 1baa a43f be9a d83e 5cb2 7e3f 56f7 c2be
00000070: 0c62 163e 1fc2 cebe 9cf1 493f 0040 2cbf
00000080: d049 3a3e b7f0 593f 08ed 21bf 2509 6b3f
00000090: 9127 a73e 3149 993f 9364 a43f 937d d63e
000000a0: 6f0c 9b3f 7e93 be3e 4d94 af3f ad38 a3bf
000000b0: e54c 1dbf b3f2 673f 379d 593f 9ffe 03bf
000000c0: df7c 093f 6d05 7b3f 95b5 823e 1a9e c7bf
000000d0: 7c9a 95be be96 d23e f2cc e7be f7b7 4e3f
000000e0: bdac 5fbf 5a6d 40bf 6a01 b93f bda2 0fbf
000000f0: a764 463f 0f5a 1d3f 2b12 3e3e 59fb 3d3f
00000100: 47ca 55be 2a7d e73e ed62 3b3e f575 50bf
00000110: 86b3 6a3e 6d28 3bbf 69f0 e13d 9f23 4dbc
00000120: b979 483f 470f 40bf e529 b4be 2c5a f7bd
00000130: d991 04bf 61b6 0fbb 2a14 7abe b344 b23e
00000140: ac76 39bf 39d2 5c3f d57c a5bd 86f6 42bf
00000150: ba00 2ebf fe2d 313e a499 f3be 2395 03bf
00000160: f4ca e1bf 148a 4a3f a9ef a8bf 8390 a13f
00000170: ee6e 58be a500 103f c50b 04bf d468 cdbe
00000180: 364b 723c afa6 5bbf bee4 04be 5a7d dbbc

fc.weight f4 [27, 25]
0.2875882 -0.70833546 -0.3339534 -0.97157145 0.9018253 0.7456854 3.4751403 1.921668
-2.2610793 -4.6256967 -1.2465205 1.8840864 0.25229472 -1.708943 -3.3305376 -3.081053
-2.106748 -1.3069881 -5.006824 -2.1191328 -2.816313 1.6300341 0.9907201 0.10268703
-0.99501455 -1.2708045 2.9446712 1.142013 1.6576948 0.10320386 0.6651268 0.53558487
0.43648234 -0.7574591 -0.17512286 0.9975828 3.2390857 -0.24963221 -1.2372854 -2.8821378
0.9633065 -1.1354216 -1.0837955 1.7858748 3.9660206 1.0250181 -0.4705142 -2.6127975
1.7020731 -0.34357312 -0.73297733 4.5412707 -0.36385053 -1.852036 -0.38967654 0.32947806
2.748702 4.287111 -2.2116804 0.6670094 -2.9065363 -0.506859 0.003381277 1.1094044
0.3812821 -2.2371805 -4.159216 1.1180395 0.21062157 0.25440598 -2.0138109 0.28203064
-1.1743768 4.897688 0.23430835 -3.4967875 6.2645483 0.29460564 -1.147951 -0.92591095
2.4130235 3.0897222 0.23692924 3.5494976 -8.115934 -4.5138106 0.6582914 3.6751485
-0.2536278 2.2858417 -0.72879195 0.6213692 -5.1387415 0.61216307 2.182025 -0.011650918
1.7295439 -0.55321395 2.070875 -0.5479794 1.3193235 -1.6250912 1.8972511 2.3826675
-0.9569197 -0.94059724 0.08962337 -1.0505917 0.3842538 1.319348 1.2432398 1.0422328
0.008450431 -1.6519406 1.6674627 0.87381166 -0.7374256 -1.5344852 -0.3399944 0.189469
-0.73893994 0.73140985 0.66099536 -1.6315869 -1.3801196 1.1491268 -0.124592066 1.0787743
0.009473862 -0.16433273 0.6787641 2.6030984 -0.9142948 1.5038848 0.5624393 0.024689266
-1.3143011 -1.3658088 -0.09867031 1.5991209 0.059224177 0.3330512 -0.5331631 -0.19937854
-0.07747473 1.672069 0.7226489 -0.54829556 0.27195695 -1.971177 1.0162264 -0.4768416
1.4567089 0.13445902 0.026792444 -0.06064504 1.9294553 -0.28233975 1.2576461 0.54447293
0.45735064 -0.9881768 -1.7281195 0.6530499 1.530107 1.0159218 0.22952908 -0.062599085
-0.42797405 1.1582183 1.7320062 0.2560612 -0.6697536 0.18493828 -1.824942 1.3475153
-0.45918015 1.4962349 0.67317975 -0.23899445 -0.5088984 1.8856379 -0.44537085 0.8063352
-0.13325255 0.5871573 0.17574137 -1.7067016 2.5857205 1.5587441 1.0736251 0.17447035
-0.34757 -0.6176167 0.08026531 0.9246657 0.38835794 -0.4108368 0.044738814 -1.9990463
1.1633714 0.07930226 1.4251621 0.24792762 -0.16352361 0.8248888 2.2693224 -0.55962145
1.6058782 0.9465505 0.07133 -1.2428247 -1.5715849 -0.34325498 1.7490557 0.80433345
0.2478941 -0.018240882 0.0006443804 1.0602434 1.7680943 0.33238125 -0.34199622 0.35087416
-1.8356918 -0.41754353 3.7131338 0.1050691 -1.6270254 -3.4218855 1.2074054 1.7582264
3.9105926 -2.9496024 1.1630945 -3.1076279 -0.91164666 -0.7143186 -6.9601603 -0.32101658
-0.5395468 -5.1303797 1.668256 0.40456823 -0.68126076 -2.1371117 1.2518866 0.033088755
4.179031 0.27852926 -1.7369548 1.806319 -0.20277695 -1.7665766 -2.4433086 -0.76503754
00000000: c33e 933e 7955 35bf f1fb aabe e8b8 78bf
00000010: 06de 663f 3de5 3e3f b368 5e40 38f9 f53f
00000020: 86b5 10c0 b505 94c0 fc8d 9fbf be29 f13f
00000030: c62c 813e a5be dabf 8727 55c0 f92f 45c0
00000040: f6d4 06c0 634b a7bf e737 a0c0 df9f 07c0
00000050: 793e 34c0 f5a4 d03f d59f 7d3f 944d d23d
00000060: 46b9 7ebf b9a9 a2bf 7e75 3c40 7b2d 923f
00000070: 582f d43f 8c5c d33d c045 2a3f 171c 093f
00000080: 9d7a df3e d7e8 41bf 6853 33be 9661 7f3f
00000090: 2e4d 4f40 969f 7fbe 5e5f 9ebf f274 38c0
000000a0: 419b 763f 7f55 91bf d0b9 8abf 8c97 e43f
000000b0: 48d3 7d40 cb33 833f 3de7 f0be 1338 27c0
000000c0: 88dd d93f d1e8 afbe 67a4 3bbf 1752 9140
000000d0: 9e4a babe 840f edbf af83 c7be 59b1 a83e
000000e0: bcea 2f40 0330 8940 2c8c 0dc0 21c1 2a3f
000000f0: b104 3ac0 83c1 01bf 6a98 5d3b f700 8e3f
00000100: 6837 c33e f72d 0fc0 4c18 85c0 eb1b 8f3f
00000110: 2ead 573e 8041 823e 47e2 00c0 5266 903e
00000120: fb51 96bf dcb9 9c40 87ee 6f3e 5ecb 5fc0
00000130: 2e77 c840 8dd6 963e 0ff0 92bf 8008 6dbf
00000140: fa6e 1a40 02be 4540 949d 723e f82a 6340
00000150: deda 01c1 2371 90c0 c985 283f a235 6b40
00000160: 81db 81be 3b4b 1240 1c92 3abf 0d12 1f3f
00000170: 9270 a4c0 b8b6 1c3f 4ca6 0b40 7ee3 3ebc
00000180: b261 dd3f 6e9f 0dbf 3789 0440 6148 0cbf
00000190: 98df a83f fd02 d0bf 20d9 f23f a07d 1840
000001a0: b1f8 74bf fbca 70bf 758c b73d ca79 86bf
000001b0: eabc c43e 65e0 a83f 7b22 9f3f e267 853f
000001c0: ad73 0a3c ca72 d3bf 6b6f d53f 1fb2 5f3f
000001d0: edc7 3cbf 036a c4bf bf13 aebe 2904 423e
000001e0: 2b2b 3dbf ad3d 3b3f fe36 293f d7d7 d0bf
000001f0: c2a7 b0bf 9616 933f 202a ffbd 4715 8a3f
00000200: 4238 1b3c d746 28be 7cc3 2d3f 2a99 2640
00000210: 390f 6abf 4c7f c03f 06fc 0f3f 2541 ca3c
00000220: 053b a8bf d3d2 aebf a913 cabd feaf cc3f
00000230: 0d95 723d b085 aa3e 607d 08bf e329 4cbe
00000240: 12ab 9ebd 5b06 d63f 85ff 383f 195d 0cbf
00000250: f13d 8b3e 874f fcbf b513 823f 9524 f4be
00000260: 7075 ba3f a0af 093e d47b db3c ef66 78bd
00000270: 64f8 f63f d68e 90be 8cfa a03f 9462 0b3f
00000280: dd29 ea3e 28f9 7cbf 0533 ddbf 472e 273f
00000290: 8cda c33f ba09 823f ac09 6b3e f333 80bd
000002a0: 6a1f dbbe 7f40 943f 61b2 dd3f 741a 833e
000002b0: f974 2bbf 7660 3d3e b397 e9bf 627b ac3f
000002c0: a919 ebbe a084 bf3f 8255 2c3f f6ba 74be
000002d0: 2a47 02bf 955c f13f a607 e4be fc6b 4e3f
000002e0: 5b73 08be f14f 163f 8cf5 333e 3375 dabf
000002f0: 727c 2540 ed84 c73f 8c6c 893f 5ba8 323e
00000300: b2f4 b1be 211c 1ebf 2462 a43d e4b6 6c3f
00000310: dad6 c63e 3359 d2be 0c40 373d c0e0 ffbf
00000320: 5be9 943f 3969 a23d b66b b63f bde0 7d3e
00000330: bc72 27be ea2b 533f 943c 1140 5a43 0fbf
00000340: 6b8d cd3f 2251 723f 7715 923d e114 9fbf
00000350: b229 c9bf 1ebf afbe 0fe1 df3f cce8 4d3f
00000360: f3d7 7d3e e76d 95bc a3eb 283a 0eb6 873f
00000370: ea50 e23f e02d aa3e 211a afbe c7a5 b33e
00000380: f3f7 eabf 44c8 d5be fca3 6d40 782e d73d
00000390: 5e42 d0bf 2c00 5bc0 438c 9a3f 900d e13f
000003a0: 2647 7a40 49c6 3cc0 48e0 943f 60e3 46c0
000003b0: ad61 69bf 95dd 36bf a2b9 dec0 495c a4be
000003c0: bd1f 0abf 122c a4c0 6a89 d53f 9123 cf3e
000003d0: 1b67 2ebf 70c6 08c0 d23d a03f 1388 073d
000003e0: 9fba 8540 639b 8e3e 8954 debf 7635 e73f
000003f0: c3a4 4fbe 2f1f e2bf 2b5f 1cc0 80d9 43bf

fc.bias f4 [27]
-0.49702632 0.46475613 -1.4416517 -0.932225 0.9366358 0.858728 0.62623984 0.77459556
0.81040925 -2.1601205 0.13041374 0.51062316 -0.12566186 -0.57874197 -2.0219836 -0.24145658
-0.45602217 -1.436887 -1.1902448 -0.8855196 0.42840174 0.19007082 0.51730704 -0.013557605
0.23516017 -1.106564 -1.025068
00000000: 3c7a febe 84f4 ed3e 0b88 b8bf 4ca6 6ebf
00000010: 5dc7 6f3f 99d5 5b3f 4151 203f e54b 463f
00000020: fb76 4f3f 6a3f 0ac0 2e8b 053e 33b8 023f
00000030: 81ad 00be 6f28 14bf 2e68 01c0 6540 77be
00000040: bd7b e9be eaeb b7bf f159 98bf 6ab1 62bf
00000050: 7957 db3e eda1 423e 3c6e 043f b820 5ebc
00000060: d4cd 703e e4a3 8dbf 6e35 83bf
