CNN-based-IoT-Device-Identification-main/cnn_71.70.pth (torch, 118663 bytes, 10 tensors)

conv1.weight f4 [32, 1, 3, 3]
-0.2760847 -0.09346785 -0.23735401 -1.1331681 0.048252665 -0.42630142 0.1353369 -2.2949288
-0.62771404 -0.043008596 -3.7323236 -0.06722644 -0.20315321 -1.4307231 -5.592416 -0.0625418
-1.8148249 -14.00612 -0.090867236 -0.039037876 -0.14379212 -0.1060171 -0.07819403 -0.21578138
-0.38291493 -3.065831 0.01731778 -4.8516426 -4.0592237 -0.7606798 -0.3130437 -0.18222006
-3.6628675 -0.6402846 -0.9569789 -2.2467685 -0.79244566 0.22781447 0.23011395 0.18454951
0.1825232 -20.65762 0.4473261 -10.22121 -7.4535584 -1.249594 -0.37254626 -0.30111542
-1.9831517 -1.1109827 -0.7033477 0.21581477 -16.049585 -11.647429 -0.26679802 0.014110208
-0.038475543 -0.005954653 0.10895017 -0.09245226 -0.27133965 0.19136718 -0.26031598 -0.2549206
-0.024028435 -0.8613057 0.14550954 -0.63745445 -0.040278353 -0.3200241 -0.5662337 0.032960586
-0.19290763 -3.6991305 -0.646035 -1.8981833 -1.6596617 -0.35293594 -6.7097254 0.92043424
-14.801971 -0.21388268 -0.1963017 -0.10556826 0.11450267 0.11786823 0.08415711 -0.22028467
0.10033045 0.115194686 0.056921482 0.13463321 0.31864896 0.2944018 -0.2220316 -0.039736956
-0.123598665 -0.2468946 0.16570166 -0.05163977 -0.023019545 -1.3608854 0.06098408 -0.18198319
-0.107431814 0.09606903 -0.5099454 0.067718685 0.02661827 -0.22874649 -0.1551928 -1.7580651
-1.4086026 -1.0119071 -0.049115643 0.08173196 -0.19763896 -4.3847427 -0.15251645 -0.4527253
-1.366764 -0.25502044 -0.34229067 -2.3822572 -5.3728266 -0.59089184 -0.23588765 0.019991249
0.064677715 -0.19936053 -0.06750858 -0.16183285 0.113220006 0.2922919 -0.17469919 -0.21640731
-27.662054 -0.5417181 -23.550404 -0.056002975 -0.39089176 -5.0224357 -0.07659948 -0.042284314
-1.8203785 -0.37732193 -8.115023 -1.3435159 -0.10757044 -0.1667913 -0.005442437 -0.67722815
-0.8539759 -0.7140589 -0.058272112 -0.34817526 0.015365467 -0.027182465 -0.16627802 -0.17668423
-0.33005354 -0.27285242 0.0076952036 -0.8157753 -0.89757305 -0.520285 -0.65663964 -0.6145153
0.06284318 0.062395874 -0.30445832 0.39071319 -0.17299744 -65.86669 -16.573431 -0.30266687
0.06877619 -0.010427521 -0.15511319 -0.6073542 -0.044542804 -2.1757953 0.010758362 0.15466957
0.04363982 -0.1685625 -0.13102268 -0.25338793 -0.28672057 -0.23572716 -0.62967956 -2.5998003
-0.10009846 -0.6064778 -0.33214965 -1.2242702 -2.2872875 -1.6766511 0.24824747 -0.43896985
-1.1026752 -0.27294415 -1.4410968 -4.657311 -4.6406612 -0.26305422 -1.06205 -0.22738178
-1.5690178 -0.80768484 0.17072341 0.04735928 -0.3134618 -0.1711669 -0.2184245 -0.09853195
0.06222835 -0.19993126 -0.22262454 0.27160528 -0.24360368 -0.2723306 0.18177012 0.15583742
-0.03978443 0.47078556 0.6881541 -12.941348 0.62581146 -0.21769126 -14.988285 0.47978887
-44.0003 0.34054577 -4.492773 -0.922395 -0.092325024 -0.76950955 -0.94891626 -0.45794094
-1.6370287 -15.97333 -25.48317 0.1574423 -5.126839 0.35258448 -2.8253016 0.23979616
-7.8944545 -0.08432954 -0.5574711 -2.3964975 -1.0578676 0.09679208 -6.774946 -1.759108
00000000: f95a 8dbe 126c bfbd ee0c 73be a70b 91bf
00000010: 96a4 453d 2e44 dabe c295 0a3e 1de0 12c0
00000020: deb1 20bf c829 30bd 64de 6ec0 04ae 89bd
00000030: 6507 50be ef21 b7bf 12f5 b2c0 ea15 80bd
00000040: 2f4c e8bf 1119 60c1 9a18 babd 2ee6 1fbd
00000050: 3e3e 13be 7e1f d9bd 3124 a0bd cbf5 5cbe
00000060: 6d0d c4be 9336 44c0 04de 8d3c a840 9bc0
00000070: 29e5 81c0 e9bb 42bf 4447 a0be e597 3abe
00000080: 6c6c 6ac0 b1e9 23bf 92fc 74bf 0ecb 0fc0
00000090: b8dd 4abf 3248 693e fea2 6b3e 8cfa 3c3e
000000a0: 5de7 3a3e ce42 a5c1 ed07 e53e 138a 23c1
000000b0: 8d83 eec0 b2f2 9fbf 62be bebe cd2b 9abe
000000c0: ead7 fdbf ae34 8ebf 980e 34bf 8cfe 5c3e
000000d0: 8d65 80c1 df5b 3ac1 c099 88be 802e 673c
000000e0: 8898 1dbd 401f c3bb 4421 df3d 9c57 bdbd
000000f0: 08ed 8abe c2f5 433e 2348 85be f484 82be
00000100: 48d7 c4bc 887e 5cbf 7400 153e 3730 23bf
00000110: eafa 24bd 33da a3be b1f4 10bf ae01 073d
00000120: 9489 45be 8ebe 6cc0 8d62 25bf acf7 f2bf
00000130: cb6f d4bf 05b4 b4be 12b6 d6c0 94a1 6b3f
00000140: e0d4 6cc1 1004 5bbe 5003 49be 2c34 d8bd
00000150: 6080 ea3d e664 f13d 905a ac3d 4e92 61be
00000160: 0d7a cd3d 31eb eb3d 8026 693d 4add 093e
00000170: f525 a33e d5bb 963e 405c 63be 38c3 22bd
00000180: 4c21 fdbd f0d1 7cbe b2ad 293e 3984 53bd
00000190: 7c93 bcbc 7e31 aebf 71ca 793d cd59 3abe
000001a0: 3605 dcbd d7bf c43d c88b 02bf 18b0 8a3d
000001b0: 8f0e da3c 853c 6abe ddea 1ebe 4708 e1bf
000001c0: 174d b4bf 2c86 81bf 7c2d 49bd 1663 a73d
000001d0: de61 4abe d04f 8cc0 462d 1cbe 9ccb e7be
000001e0: 1ff2 aebf 0a92 82be b940 afbe e776 18c0
000001f0: 32ee abc0 b044 17bf 888c 71be b0c4 a33c
00000200: c075 843d 2b25 4cbe f041 8abd 83b7 25be
00000210: e4df e73d 49a7 953e 58e4 32be e199 5dbe
00000220: e34b ddc1 0aae 0abf 3a67 bcc1 6063 65bd
00000230: f722 c8be cbb7 a0c0 30e0 9cbd 5132 2dbd
00000240: 2a02 e9bf 5730 c1be 22d7 01c1 54f8 abbf
00000250: e44d dcbd 57cb 2abe 7856 b2bb d35e 2dbf
00000260: 2a9e 5abf 90cc 36bf bdae 6ebd 0744 b2be
00000270: 71bf 7b3c c3ad debc c944 2abe b6ec 34be
00000280: c7fc a8be 50b3 8bbe 0c28 fc3b a6d6 50bf
00000290: 59c7 65bf 6631 05bf 8919 28bf e050 1dbf
000002a0: edb3 803d d192 7f3d f6e1 9bbe 8f0b c83e
000002b0: 3e26 31be bfbb 83c2 6396 84c1 27f7 9abe
000002c0: 88da 8c3d 31d8 2abc fed5 1ebe 917b 1bbf
000002d0: 8472 36bd 3b40 0bc0 d743 303c b361 1e3e
000002e0: abbf 323d a69b 2cbe cf2a 06be 10bc 81be
000002f0: 0acd 92be 7662 71be ae32 21bf 2163 26c0
00000300: 6c00 cdbd 2142 1bbf 850f aabe e3b4 9cbf
00000310: eb62 12c0 819c d6bf 9634 7e3e a8c0 e0be
00000320: 7624 8dbf 56bf 8bbe dc75 b8bf b108 95c0
00000330: 4c80 94c0 0baf 86be 41f1 87bf c5d6 68be
00000340: 93d5 c8bf 6fc4 4ebf 1ed2 2e3e cefb 413d
00000350: 117e a0be 6046 2fbe acaa 5fbe 1ecb c9bd
00000360: 28e3 7e3d c8ba 4cbe b0f7 63be d90f 8b3e
00000370: 3e73 79be eb6e 8bbe f221 3a3e d893 1f3e
00000380: 00f5 22bd ce0a f13e de2a 303f c30f 4fc1
00000390: 2e35 203f 75ea 5ebe 04d0 6fc1 e3a6 f53e
000003a0: 4f00 30c2 045c ae3e ccc4 8fc0 1422 6cbf
000003b0: e714 bdbd 94fe 44bf 2dec 72bf 3c77 eabe
000003c0: 288a d1bf c292 7fc1 88dd cbc1 8e38 213e
000003d0: 110f a4c0 f485 b43e bed1 34c0 208d 753e
000003e0: 5f9f fcc0 f7b4 acbd 6db6 0ebf 3760 19c0
000003f0: 3568 87bf ed3a c63d 5ccc d8c0 732a e1bf

conv1.bias f4 [32]
-0.13543873 -0.0027642674 -0.029278468 -0.016088778 -0.44939432 0.17534283 -0.24668011 -0.14873178
-0.28980622 -0.15933923 -0.32582518 -0.10683221 -0.08577835 0.14117134 -0.2934698 0.23605172
0.15191539 -0.032142397 -0.067532055 0.22796081 -0.1558477 -0.002053204 0.22173846 -0.17137128
-0.31690392 -0.36178738 0.2403175 -0.35483724 0.16189863 -0.04725766 -0.116362765 -0.064144924
00000000: 73b0 0abe b628 35bb 66d9 efbc 9dcc 83bc
00000010: 0317 e6be 128d 333e b699 7cbe 254d 18be
00000020: 7b61 94be d329 23be 8fd2 a6be d9ca dabd
00000030: 8fac afbd 388f 103e ac41 96be 8bb7 713e
00000040: b58f 1b3e bfa7 03bd 3f4e 8abd 8f6e 693e
00000050: 8a96 1fbe 0c8f 06bb 680f 633e f47b 2fbe
00000060: 3b41 a2be 323c b9be ca15 763e 3aad b5be
00000070: c1c8 253e 4091 41bd 9a4f eebd 6a5e 83bd

conv2.weight f4 [32, 32, 3, 3]
-0.009797309 0.016663458 -0.057201006 0.008932505 -0.02806386 0.039095778 0.005223822 0.028773326
-0.008527867 -0.08057766 -0.01433772 0.016332917 -0.052606933 0.014795707 -0.010493522 -0.051927965
-0.04863383 0.01595505 -0.017399842 -0.060482122 0.012680109 0.004613194 -0.035497144 0.022623789
0.020832097 -0.057533246 -0.07462528 -0.049088813 -0.067078635 -0.077759646 0.011887104 -0.04711419
0.022986274 -0.055679016 -0.01315979 -0.053020515 -0.0017080717 -0.0526862 -0.07134718 -0.029679818
-0.06320188 0.047693025 -0.012088567 -0.014470544 -0.02513631 0.021383617 0.022252303 -0.03777018
-0.034169864 -0.117118746 0.015713567 -0.061085057 0.026702046 -0.14398246 0.032280672 -0.024671458
-0.051679004 -0.048799217 0.05013073 0.02783202 0.043649744 -0.027412787 0.008756626 -0.05332149
-0.045776386 0.0027309216 -0.04626589 -0.021796701 -0.038779955 -0.06288017 0.018434167 -0.028225522
0.01785009 -0.0969475 0.011341896 -0.065351374 -0.0072557963 -0.018894225 0.018723233 0.012108317
0.024032377 -0.002385933 -0.007887732 -0.057807516 0.012322929 0.043566663 0.0068272017 -0.02832698
-0.049706258 -0.043470554 0.010532197 -0.01681136 0.028203811 -0.041877575 0.012603994 -0.0408227
0.010800663 0.02152672 0.009073723 -0.013408482 -0.07207038 -0.055537082 -0.039901365 0.0011252789
-0.035443086 -0.058963273 -0.044843256 -0.07423081 -0.021210743 -0.021678742 -0.022109037 0.010633165
-0.07073598 -0.014056795 0.005097728 0.027174763 -0.0641111 -0.1640982 -0.030738601 -0.08438829
0.010375151 -0.08206175 -0.113839164 0.027106522 0.097237505 -0.05206231 0.007438693 -0.021753822
0.032449458 0.028822634 0.008138303 0.03287304 -0.014932185 0.010990683 -0.04381824 -0.13121386
-0.077074595 -0.0069778776 -0.15776055 -0.04463947 -0.025605105 -0.03549638 0.008571501 -0.14168
-0.15659665 -0.14852692 -0.05554615 -0.042522136 -0.13646851 -0.13305517 -0.055588905 0.017726017
-0.012881979 -0.016852846 0.023791885 0.006454665 0.025997538 -0.016047724 -0.035999324 0.022514958
0.020664252 -0.06840392 -0.00091476494 -0.06841033 -0.0817953 -0.008774651 -0.04457688 -0.056650013
-0.05351502 -0.061314054 -0.07459849 -0.055112373 -0.11060025 -0.13021106 -0.05365703 -0.0855537
-0.043865163 0.01086669 -0.11718244 -0.03687737 -0.037182618 -0.07684377 -0.053050652 -0.0074302484
-0.07787191 -0.04814116 -0.02930983 0.0052161952 0.01243697 -0.062091324 -0.02293873 -0.076827064
0.020011203 -0.05615489 0.004971999 -0.053171925 0.024819026 -0.07868737 -0.13286479 -0.08351045
-0.05229252 0.020514658 -0.059012037 -0.10472113 0.019522851 -0.07624396 -0.042978793 -0.056764673
-0.027594995 0.011661739 -0.06074356 -0.06460499 -0.05445667 -0.027707422 0.022699067 0.012926297
-0.05394496 -0.01391729 -0.02997984 0.046055835 0.034662727 -0.023297999 -0.008511189 0.033080313
-0.018342666 -0.037136137 -0.051448103 -0.053310625 -0.004109759 -0.014514467 -0.0011553912 -0.011799235
-0.005833767 -0.029398836 0.03673849 0.020051878 -0.1427745 0.015726622 -0.060763665 -0.09397858
-0.08723224 -0.08640379 -0.0168764 -0.052127313 0.051002767 -0.02870936 -0.042657353 -0.054077674
-0.04156865 -0.06599232 -0.052894175 -0.0596161 -0.11559756 -0.0061392724 -0.1008036 0.0062170555
00000000: e484 20bc ce81 883c 9a4b 6abd a459 123c
00000010: 2ee6 e5bc e522 203d 982c ab3b 0ab6 eb3c
00000020: 77b8 0bbc e605 a5bd c2e8 6abc 9ccc 853c
00000030: 5e7a 57bd b169 723c 05ed 2bbc 6bb2 54bd
00000040: 4434 47bd 2ab4 823c 1d8a 8ebc 1abc 77bd
00000050: 3bc0 4f3c 472a 973b 7465 11bd 8655 b93c
00000060: 13a8 aa3c fba7 6bbd 24d5 98bd 5a11 49bd
00000070: 8660 89bd 7340 9fbd 21c2 423c cffa 40bd
00000080: b64d bc3c ae0f 64bd 299c 57bc 0a2c 59bd
00000090: 60e1 dfba 7ccd 57bd 781e 92bd 1723 f3bc
000000a0: fd6f 81bd c359 433d 200f 46bc dc15 6dbc
000000b0: aaea cdbc b22c af3c 764a b63c e7b4 1abd
000000c0: b3f5 0bbd f4db efbd bdb9 803c 5334 7abd
000000d0: 40be da3c 2370 13be bd38 043d cc1b cabc
000000e0: 5dad 53bd b0e1 47bd e155 4d3d faff e33c
000000f0: 13ca 323d c890 e0bc f477 0f3c a267 5abd
00000100: 0580 3bbd 43f9 323b 4d81 3dbd ff8e b2bc
00000110: bbd7 1ebd 52c7 80bd 4003 973c 3639 e7bc
00000120: 5a3a 923c 698c c6bd 5cd3 393c f1d6 85bd
00000130: 08c2 edbb 10c8 9abc 7761 993c f661 463c
00000140: 8cdf c43c 505d 1cbb 8c3b 01bc 93c7 6cbd
00000150: 1ce6 493c f572 323d b8b6 df3b fc0d e8bc
00000160: ca98 4bbd 2e0e 32bd 3c8f 2c3c fab7 89bc
00000170: ae0b e73c d287 2bbd fc80 4e3c b435 27bd
00000180: 44f5 303c ce58 b03c f4a9 143c 40af 5bbc
00000190: a399 93bd da7a 63bd 9d6f 23bd 187e 933a
000001a0: c52c 11bd 7983 71bd 90ad 37bd 5306 98bd
000001b0: 27c2 adbc 9e97 b1bc 031e b5bc ba36 2e3c
000001c0: 07de 90bd 794e 66bc d80a a73b 9c9d de3c
000001d0: ae4c 83bd 5c09 28be 85cf fbbc c5d3 acbd
000001e0: 8afc 293c fe0f a8bd 8224 e9bd 7f0e de3c
000001f0: 7524 c73d 4a3f 55bd 48c0 f33b 1235 b2bc
00000200: b9e9 043d 721d ec3c 8456 053c e1a5 063d
00000210: 20a6 74bc 4412 343c c17a 33bd ed5c 06be
00000220: 49d9 9dbd aea6 e4bb fb8b 21be e0d7 36bd
00000230: ccc1 d1bc a764 11bd 7b6f 0c3c 9014 11be
00000240: df5a 20be 7117 18be 5c84 63bd b12b 2ebd
00000250: 67be 0bbe 9d3f 08be 31b1 63bd 2736 913c
00000260: f00e 53bc fb0e 8abc 33e7 c23c a881 d33b
00000270: caf8 d43c 8476 83bc 0774 13bd 4a71 b83c
00000280: 1448 a93c 5b17 8cbd d6cc 6fba b71a 8cbd
00000290: 4b84 a7bd 8ec3 0fbc 3f96 36bd d809 68bd
000002a0: 9132 5bbd 7224 7bbd 18c7 98bd 83bd 61bd
000002b0: 6282 e2bd 0c56 05be 79c7 5bbd c736 afbd
000002c0: f5ab 33bd 340a 323c 59fd efbd ba0c 17bd
000002d0: cd4c 18bd 4460 9dbd a44b 59bd 7179 f3bb
000002e0: 4f7b 9fbd aa2f 45bd 2b1b f0bc 9eec aa3b
000002f0: 6fc4 4b3c 7953 7ebd 01ea bbbc 8257 9dbd
00000300: 89ee a33c ac02 66bd 27ec a23b ceca 59bd
00000310: 4551 cb3c d826 a1bd b50d 08be 8707 abbd
00000320: ae30 56bd 5b0e a83c 9bb6 71bd 0878 d6bd
00000330: 63ee 9f3c cb25 9cbd 880a 30bd 1382 68bd
00000340: e60e e2bc e110 3f3c 3dce 78bd 9f4f 84bd
00000350: f50d 5fbd adfa e2bc 65f3 b93c d2c8 533c
00000360: 64f5 5cbd 5805 64bc 4898 f5bc 0ba5 3c3d
00000370: 81fa 0d3d 72db bebc 8472 0bbc 397f 073d
00000380: 5c43 96bc 101c 18bd 3fbb 52bd 3e5c 5abd
00000390: 28ab 86bb 16ce 6dbc 7f70 97ba 9451 41bc
000003a0: 2f29 bfbb d4d5 f0bc 197b 163d d643 a43c
000003b0: 7b33 12be 1ed5 803c 52e3 78bd d777 c0bd
000003c0: d1a6 b2bd 78f4 b0bd 6040 8abc 7383 55bd
000003d0: 47e8 503d e42f ebbc 7ab9 2ebd 8d80 5dbd
000003e0: e443 2abd fb26 87bd 90a7 58bd 0330 74bd
000003f0: 6abe ecbd f32b c9bb 1e72 cebd 71b8 cb3b

conv2.bias f4 [32]
-0.08017687 -0.16302727 -0.08785544 -0.17496239 -0.013179138 -0.17467935 -0.02012426 -0.059775915
-0.07085216 -0.029665504 -0.007407206 -0.04964279 -0.043829363 0.027651483 -0.018400392 -0.08562324
-0.037851784 -0.022785904 0.9424164 0.2750338 -0.11273091 -0.08158559 -0.10711166 -0.16461277
-0.07983945 0.2092961 -0.3411609 -0.046220414 -0.026839858 0.2769095 -0.124479644 0.19461164
00000000: c533 a4bd 9ff0 26be 8eed b3bd 5729 33be
00000010: 50ed 57bc 25df 32be a2db a4bc 97d7 74bd
00000020: f01a 91bd 1205 f3bc 26b8 f2bb 3d56 4bbd
00000030: 6b86 33bd 5d85 e23c 6bbc 96bc 3d5b afbd
00000040: 790a 1bbd 81a9 babc 3442 713f 3bd1 8c3e
00000050: 77df e6bd 5916 a7bd 5c5d dbbd 4090 28be
00000060: de82 a3bd b851 563e a4ac aebe 9e51 3dbd
00000070: 43df dbbc 15c7 8d3e 2fef febd 4648 473e

conv3.weight f4 [32, 32, 3, 3]
0.1324293 -0.15096045 0.058783535 0.047913816 -0.02625091 -0.04097916 -0.05746843 0.13921839
-0.05467393 0.054128997 0.026409011 -0.058367282 -0.013988789 -0.07640329 -0.050498635 0.05730112
-0.072690316 -0.045696177 0.03806586 0.024510218 -0.07104502 -0.09782651 -0.008881964 -0.008462341
-0.037851058 -0.084553964 -0.04558138 0.020326752 0.018357832 -0.030222796 0.027378555 0.056048807
-0.027067907 -0.015883602 -0.031545244 0.02451427 0.0430204 0.07850519 0.051947724 -0.018917844
-0.05694725 -0.04035244 -0.0056634136 0.052758705 -0.034501806 -0.034905855 -0.052750155 0.03135084
-0.041666117 -0.060922645 -0.03466451 -0.06953087 -0.06831147 -0.048749644 0.030168349 0.018241733
-0.06579578 -0.06307615 -0.048914604 -0.04111903 -0.037706275 0.0019220336 -0.013564136 0.009043781
-0.06751859 -0.018467506 -0.08065801 -0.08956471 0.0040033017 -0.04038633 -0.042517617 -0.06519239
0.53489625 2.2056017 0.056066148 2.3754256 1.2115787 0.8043249 -1.8448933 -3.8496382
-2.3071976 -0.08267988 -0.038261395 -0.047864113 -0.06755222 0.027185548 -0.03979216 0.072059385
0.07224429 0.013986107 0.06799915 0.01703251 -0.03452021 0.05608534 0.10010683 -0.05686252
-0.02765613 -0.031778753 0.05555932 -0.056830503 0.041548338 -0.03272154 -0.01688629 0.030081492
-0.026996877 -0.055399995 -0.036681578 -0.05635531 -0.015584521 -0.046301883 -0.051065296 0.036795575
-0.017218709 0.049626317 -0.04686491 -0.022388 -0.047509227 -0.03376078 -0.011533391 0.01298218
-0.004193876 -0.017035767 -0.09347267 0.0014175996 -0.015243853 -0.033764403 0.0672475 0.07956313
-0.03327755 0.009745099 0.010030933 -0.0137662925 0.019173067 0.046398353 0.020688374 0.07896653
0.0031072423 0.03509688 0.053006902 0.05202734 -0.007252425 0.005598236 0.030372929 0.021830615
-0.0028965846 -0.012978554 -0.028860357 -0.012155369 0.021221243 -0.037242122 0.02179997 -0.039412342
0.038049754 -0.04527373 0.08417094 0.09330365 -0.028617367 -0.0811458 -0.028232668 0.14342557
-7.411447e-05 -0.011066327 0.4821749 -0.8698163 -0.3713609 -4.939727 -2.3270743 -0.38606474
-0.15941037 2.168827 3.4374416 2.67347 0.050484903 -2.2581394 -1.2450855 -1.7200475
-18.488035 2.247903 -0.49513832 -1.3827065 -0.0024239663 -0.031816002 -0.0074817874 -0.08512395
0.020020317 0.037844796 0.048405375 0.0038720183 -0.0510295 0.30164427 0.0160449 -0.16975792
-0.1540885 -0.1885372 -0.25953165 -0.31546384 -0.37374827 -0.16456605 0.003596317 0.047019202
0.004904274 -0.05109907 0.004620335 -0.0053930394 -0.0216652 0.015971165 -0.031768665 0.32560766
0.17611681 0.17569748 0.2626729 0.22944707 0.17926566 0.077113144 0.17267878 0.2569799
-0.012906671 -0.02421811 0.0083848955 0.033794694 -0.2751937 0.06465441 -0.05054749 -0.31367338
-0.19680898 1.5073644 -0.2990229 -2.5034819 -4.3723435 -1.864508 -0.7612631 -0.06166375
1.4557197 1.6992164 1.0316962 -0.33794054 -1.9781196 2.4964452 -0.2740763 -0.03402201
0.81379205 -0.6395269 -5.1641154 -0.035462014 -0.053957954 -0.07720988 -0.02473926 0.009631793
0.023179505 -0.052582048 -0.08899568 0.035449486 0.025454016 0.019473333 0.018016292 -0.08126246
00000000: 8c9b 073e 6095 1abe 01c7 703d 4741 443d
00000010: 260c d7bc c4d9 27bd 0464 6bbd 448f 0e3e
00000020: c5f1 5fbd 5eb6 5d3d b657 d83c 8812 6fbd
00000030: 3c31 65bc 5479 9cbd a8d7 4ebd 94b4 6a3d
00000040: a9de 94bd ea2b 3bbd f2ea 1b3d a7c9 c83c
00000050: 0d80 91bd 4459 c8bd a885 11bc a1a5 0abc
00000060: b609 1bbd a12a adbd 8bb3 3abd 4a84 a63c
00000070: 2a63 963c cc95 f7bc fe48 e03c 6f93 653d
00000080: 84bd ddbc 541e 82bc 9635 01bd 26d2 c83c
00000090: 2936 303d 54c7 a03d 23c7 543d 98f9 9abc
000000a0: 8541 69bd 9a48 25bd 2894 b9bb 8319 583d
000000b0: c451 0dbd 71f9 0ebd 8c10 58bd bd69 003d
000000c0: 17aa 2abd 068a 79bd 60fc 0dbd 3366 8ebd
000000d0: e2e6 8bbd b5ad 47bd 9d23 f73c b06f 953c
000000e0: f0bf 86bd 122e 81bd ae5a 48bd 6e6c 28bd
000000f0: e571 1abd bfec fb3a 1c3c 5ebc 5e2c 143c
00000100: 3047 8abd 2b49 97bc 0730 a5bd b46d b7bd
00000110: 212e 833b 236c 25bd f426 2ebd 9683 85bd
00000120: f6ee 083f 9428 0d40 9ea5 653d f906 1840
00000130: 0315 9b3f 3de8 4d3f 7725 ecbf 7960 76c0
00000140: 20a9 13c0 1254 a9bd fbb7 1cbd 290d 44bd
00000150: d158 8abd 3ab4 de3c 1bfd 22bd df93 933d
00000160: d0f4 933d fc25 653c 2343 8b3d c387 8b3c
00000170: 1065 0dbd beb9 653d cf04 cd3d ace8 68bd
00000180: 1c8f e2bc 702a 02bd 2b92 633d 1ac7 68bd
00000190: 972e 2a3d 0607 06bd 1e55 8abc 766d f63c
000001a0: 8e28 ddbc 1beb 62bd 6c3f 16bd d3d4 66bd
000001b0: 3856 7fbc 0ba7 3dbd d829 51bd f5b6 163d
000001c0: 400e 8dbc f744 4b3d 6bf5 3fbd 0a67 b7bc
000001d0: 0999 42bd be48 0abd 8cf6 3cbc 36b3 543c
000001e0: c86c 89bb 988e 8bbc 996e bfbd c0ce b93a
000001f0: 5bc1 79bc 8b4c 0abd 0fb9 893d fff1 a23d
00000200: 0a4e 08bd e8a9 1f3c c858 243c 048c 61bc
00000210: d610 9d3c 330c 3e3d aa7a a93c 34b9 a13d
00000220: e0a2 4b3b bfc1 0f3d c41d 593d 9f1a 553d
00000230: c0a5 edbb 6871 b73b a6d0 f83c 1ed6 b23c
00000240: a0d4 3dbb 00a4 54bc 8e6c ecbc 5027 47bc
00000250: 2cd8 ad3c 328b 18bd da95 b23c d66e 21bd
00000260: 0fda 1b3d f270 39bd d061 ac3d fc15 bf3d
00000270: f86e eabc c52f a6bd 3248 e7bc 27de 123e
00000280: e76d 9bb8 8a4f 35bc a1df f63e 48ac 5ebf
00000290: 0423 bebe 3e12 9ec0 c9ee 14c0 47aa c5be
000002a0: 793c 23be 10ce 0a40 0bff 5b40 221a 2b40
000002b0: 42c9 4e3d 5b85 10c0 f65e 9fbf 842a dcbf
000002c0: 7fe7 93c1 a5dd 0f40 c582 fdbe 87fc b0bf
000002d0: 68db 1ebb 7f51 02bd c829 f5bb 7755 aebd
000002e0: a601 a43c 2503 1b3d b744 463d b0c1 7d3b
000002f0: 4f04 51bd 1e71 9a3e 9870 833c 05d5 2dbe
00000300: 60c9 1dbe e50f 41be 55e1 84be 7a84 a1be
00000310: ef5b bfbe 0184 28be 30b0 6b3b 3597 403d
00000320: 08b4 a03b 424d 51bd 2e66 973b 18b8 b0bb
00000330: 387b b1bc f6d5 823c dc1f 02bd 0cb6 a63e
00000340: f757 343e 0aea 333e 107d 863e 2cf4 6a3e
00000350: 6b91 373e 7fed 9d3d b5d2 303e df92 833e
00000360: 8076 53bc 0f65 c6bc cd60 093c 4e6c 0a3d
00000370: 30e6 8cbe 8869 843d e30a 4fbd cc99 a0be
00000380: 4b88 49be 51f1 c03f 8819 99be 0c39 20c0
00000390: 3dea 8bc0 33a8 eebf 23e2 42bf 2193 7cbd
000003a0: 0655 ba3f ec7f d93f 9f0e 843f 8b06 adbe
000003b0: 0633 fdbf c2c5 1f40 bb53 8cbe aa5a 0bbd
000003c0: ad54 503f 09b8 23bf 6f40 a5c0 9e40 11bd
000003d0: 0403 5dbd 3720 9ebd fda9 cabc abce 1d3c
000003e0: f2e2 bd3c 4660 57bd 5e43 b6bd 7b33 113d
000003f0: f184 d03c 8a86 9f3c e796 933c ef6c a6bd

conv3.bias f4 [32]
1.1807683 -1.0626482 -2.299811 1.0419029 -0.8979977 -0.48175347 1.9345353 -1.0951426
-2.6583374 2.105373 -1.0093882 -0.16041583 0.0036391781 -0.68474287 -0.09379377 -2.3380597
0.17735747 -0.69652396 0.468847 -0.29140252 0.6071537 -1.3993288 -0.28127754 -1.7423172
-2.5900095 -0.037069164 -1.744598 -2.7244043 -1.3201284 -1.9047565 1.1260248 -1.9448942
00000000: 6a23 973f db04 88bf 1a30 13c0 135d 853f
00000010: 2de3 65bf 64a8 f6be da9e f73f a22d 8cbf
00000020: 3322 2ac0 6ebe 0640 a233 81bf 0c44 24be
00000030: 477f 6e3b 4f4b 2fbf f316 c0bd c5a2 15c0
00000040: 329d 353e 654f 32bf b70c f03e b632 95be
00000050: 6d6e 1b3f 351d b3bf 9c03 90be 4004 dfbf
00000060: b7c2 25c0 d6d5 17bd fd4e dfbf a45c 2ec0
00000070: f8f9 a8bf 10cf f3bf 9521 903f 4bf2 f8bf

conv4.weight f4 [32, 32, 3, 3]
1.3183637 0.23438674 -0.77312505 -2.4143784 -0.60432065 -1.4215981 -0.12845623 0.40394443
-2.3764184 0.57392704 -1.9097905 -0.26523253 -2.158498 0.5791819 -0.26897997 -0.16065863
-0.26361448 -3.0242364 1.7103909 -6.090486 3.0559177 -1.1828444 0.3861067 1.0217875
-0.2330914 -0.14802909 0.35676116 -0.69365835 1.3267372 -4.0626187 -0.61830467 0.123846956
-2.743817 0.80132586 0.93285555 1.5782995 0.36538887 -0.19148333 0.17984273 -0.120326094
-0.07604035 -0.055968225 0.05864933 0.013591276 0.14364606 -0.057662535 -0.21301502 -0.09125705
-0.01159908 0.23726416 0.23151913 -0.038346916 0.057248153 0.019432155 -0.012078707 -1.4266269
3.1831496 -2.799769 1.6437608 -4.020377 -3.5889914 -5.450562 -1.815689 0.31656504
-2.2709556 -1.2442756 2.430177 0.96840596 0.6972068 -1.645689 0.3607518 0.03524359
-0.088907845 -0.68192935 -1.0286174 -1.9293932 2.0417988 -1.6804079 -1.2345515 0.33780313
0.26997057 0.89707905 0.03250591 -4.5731077 -0.055068605 -0.9978706 -1.048562 -13.695323
1.4777893 -9.129955 0.01344634 1.7387435 0.16303524 0.56023264 -5.2245398 0.26904953
0.6574313 1.0621997 0.14178096 -0.001974301 -0.01752269 0.02801304 0.032576334 0.1248947
-0.03594332 -0.03668482 -0.00018019229 0.050556708 -0.7577954 -0.8713272 0.0204992 0.253888
0.5403364 0.5038059 -1.4379295 0.34915203 -1.4733785 3.2401986 -0.1160409 -0.24512707
2.3421261 -0.03508562 -0.06575285 -2.1805387 0.10827808 -1.1014612 -0.03204228 -0.032082133
0.020929705 0.026803773 -0.025388565 0.046707425 -0.056911264 0.026751641 -0.024529893 0.1524328
2.1375184 -2.1555145 1.2958378 0.74603266 -0.36525354 -4.5616856 0.50967467 -4.9871416
1.830924 0.19925319 -7.33418 -1.0106846 -0.5321689 -1.0230068 0.66605365 -0.6172788
0.6881878 -2.2422905 -0.14439373 -0.20967452 0.72468686 0.33295754 -1.5411569 -1.1839079
-3.6047904 0.17108867 -0.1872363 -2.66978 2.0054235 -0.12690914 0.0122757545 -2.8872721
1.7274503 -0.055404674 -0.9459515 -0.05292807 0.015998526 -0.019659214 0.06429298 0.016324703
-0.022339102 -0.13218127 -0.038725596 -0.037246723 -0.6559111 0.5063163 -4.799546 -1.3227127
0.80262566 0.2607165 1.5334082 2.005322 -4.43873 -2.9237661 0.3690063 0.95301294
-1.165808 1.8489765 -0.3619888 -0.3848395 -0.29056412 1.7674518 0.21155562 -0.1994824
0.029323813 0.010474884 0.015912421 -0.04199781 -0.057881355 -0.054123145 -0.025569474 0.9795386
1.0079623 1.1374214 -0.26069543 -2.0437727 -0.9769399 0.4166079 1.0825481 -0.4329813
1.7728603 1.1719635 -1.4559996 0.6727509 -0.5846205 -0.31924954 1.0803176 0.30479613
0.80793226 0.11750241 0.1190095 -0.053217407 0.059288923 0.016549623 -0.051819906 0.03444245
-0.03287268 -0.061246403 -2.5344367 -1.108179 -0.15997414 0.8400267 -0.98149055 -2.4228687
1.7311009 0.28293896 -2.9537067 -1.1114632 0.37396598 -1.6471118 -0.5954905 0.05221013
1.5691884 1.6735821 1.2666311 2.5948856 1.0494057 0.080060214 -1.4046451 -1.6111178
00000000: 24c0 a83f 1403 703e 86eb 45bf 2d85 1ac0
00000010: c2b4 1abf edf6 b5bf 088a 03be ced1 ce3e
00000020: 3d17 18c0 e2ec 123f 0474 f4bf 8fcc 87be
00000030: d524 0ac0 4445 143f beb7 89be b283 24be
00000040: 7af8 86be 178d 41c0 17ee da3f 43e5 c2c0
00000050: 2894 4340 7267 97bf c7af c53e efc9 823f
00000060: 83af 6ebe f094 17be 66a9 b63e 9893 31bf
00000070: 86d2 a93f f900 82c0 3749 1ebf 79a3 fd3d
00000080: b39a 2fc0 b123 4d3f 9fcf 6e3f b805 ca3f
00000090: 4014 bb3e 3514 44be b128 383e 876d f6bd
000000a0: 0bbb 9bbd f03e 65bd 483a 703d f1ad 5e3c
000000b0: f417 133e 8d2f 6cbd 9c20 5abe fae4 babd
000000c0: 110a 3ebc 60f5 723e 5a13 6d3e a811 1dbd
000000d0: 0a7d 6a3d 2f30 9f3c c5e5 45bc b69b b6bf
000000e0: b9b8 4b40 6a2f 33c0 c166 d23f eea6 80c0
000000f0: 09b2 65c0 016b aec0 7f68 e8bf d014 a23e
00000100: 5657 11c0 6c44 9fbf 0588 1b40 74e9 773f
00000110: 257c 323f f0a5 d2bf 76b4 b83e 955b 103d
00000120: 5115 b6bd ec92 2ebf bca9 83bf 5bf6 f6bf
00000130: d5ac 0240 9b17 d7bf c905 9ebf 88f4 ac3e
00000140: 9539 8a3e f9a6 653f eb24 053d e656 92c0
00000150: 9e8f 61bd 7374 7fbf 4837 86bf 0b20 5bc1
00000160: 3328 bd3f 4c14 12c1 0a4e 5c3c 268f de3f
00000170: b6f2 263e 686b 0f3f 6e2f a7c0 dcc0 893e
00000180: 6b4d 283f 29f6 873f 072f 113e 4663 01bb
00000190: bf8b 8fbc 9a7b e53c c36e 053d cbc8 ff3d
000001a0: 4d39 13bd d242 16bd 00f2 3cb9 8d14 4f3d
000001b0: e1fe 41bf 4d0f 5fbf f0ed a73c 9cfd 813e
000001c0: 7c53 0a3f 6cf9 003f 130e b8bf 0ec4 b23e
000001d0: ab97 bcbf 6a5f 4f40 daa6 edbd 9702 7bbe
000001e0: 65e5 1540 f0b5 0fbd 6ea9 86bd f28d 0bc0
000001f0: e6c0 dd3d aefc 8cbf c43e 03bd 8e68 03bd
00000200: c674 ab3c 9693 db3c aefb cfbc 4950 3f3d
00000210: c91b 69bd 4226 db3c eaf2 c8bc 5817 1c3e
00000220: 1acd 0840 f3f3 09c0 03de a53f fffb 3e3f
00000230: 8302 bbbe 54f9 91c0 0a7a 023f aa96 9fc0
00000240: b85b ea3f 0709 4c3e 9ab1 eac0 1d5e 81bf
00000250: 393c 08bf e3f1 82bf 7e82 2a3f fc05 1ebf
00000260: 132d 303f b081 0fc0 f3db 13be ebb4 56be
00000270: 1485 393f 6979 aa3e a144 c5bf 4b8a 97bf
00000280: e3b4 66c0 de31 2f3e dfba 3fbe addd 2ac0
00000290: dc58 0040 78f4 01be 3f20 493c 11c9 38c0
000002a0: 171d dd3f 03f0 62bd e129 72bf 1bcb 58bd
000002b0: 570f 833c 5c0c a1bc 0aac 833d 62bb 853c
000002c0: 7e00 b7bc 875a 07be bb9e 1ebd 0590 18bd
000002d0: cae9 27bf f29d 013f e195 99c0 a64e a9bf
000002e0: e078 4d3f a27c 853e b846 c43f 3257 0040
000002f0: 130a 8ec0 fc1e 3bc0 65ee bc3e a8f8 733f
00000300: 3239 95bf 43ab ec3f 9956 b9be af09 c5be
00000310: d2c4 94be dc3b e23f 09a2 583e 1d45 4cbe
00000320: 7e38 f03c d99e 2b3c c45a 823c e505 2cbd
00000330: 0015 6dbd 3bb0 5dbd 1377 d1bc 0bc3 7a3f
00000340: e904 813f 0697 913f df79 85be 2ccd 02c0
00000350: bc18 7abf a14d d53e f090 8a3f baaf ddbe
00000360: 16ed e23f e602 963f 325e babf 6739 2c3f
00000370: b0a9 15bf ad74 a3be d947 8a3f 3d0e 9c3e
00000380: a6d4 4e3f 1ba5 f03d 41bb f33d 7ffa 59bd
00000390: f1d8 723d 1393 873c 1c41 54bd 8713 0d3d
000003a0: 81a5 06bd 82dd 7abd 3634 22c0 cfd8 8dbf
000003b0: 43d0 23be fd0b 573f f742 7bbf 4810 1bc0
000003c0: b794 dd3f 60dd 903e 8809 3dc0 6d44 8ebf
000003d0: 7878 bf3e 8fd4 d2bf 1172 18bf 4ada 553d
000003e0: 2adb c83f f037 d63f f820 a23f 9b12 2640
000003f0: ed52 863f 9cf6 a33d 69cb b3bf 1c39 cebf

conv4.bias f4 [32]
-0.8133272 -0.70287305 -3.7746098 -2.53777 -1.531162 -2.2933874 -1.0866418 -0.5848491
-0.23125453 -2.9146287 -2.4102871 -0.405937 -0.30333582 -0.8839916 -1.1084821 -0.1299043
-2.600372 -0.64899397 -2.062429 -4.3401203 -2.2281158 -2.6555328 -4.9082494 -1.6468321
-1.5236803 -2.618154 0.7435119 -0.77100337 0.1341869 -2.3237948 0.21798922 0.3154293
00000000: 3636 50bf 7def 33bf 3593 71c0 d36a 22c0
00000010: 1efd c3bf dcc6 12c0 1417 8bbf acb8 15bf
00000020: fdcd 6cbe 4789 3ac0 2542 1ac0 f9d6 cfbe
00000030: d54e 9bbe 464d 62bf bee2 8dbf a205 05be
00000040: 7f6c 26c0 7824 26bf d6fe 03c0 44e2 8ac0
00000050: 7399 0ec0 40f4 29c0 6110 9dc0 65cb d2bf
00000060: f507 c3bf d68f 27c0 cc56 3e3f 7a60 45bf
00000070: 4a68 093e 0eb9 14c0 9138 5f3e f37f a13e

fc1.weight f4 [27, 32]
-0.7846606 0.91638833 -9.806551 -6.6214457 -11.284469 0.025691552 -3.5421572 -0.23218438
0.20948936 -2.3504825 -1.0746762 -1.1210271 -0.40335426 -24.508106 1.548713 -2.4267433
-8.718051 -0.5796145 -16.578178 -9.237758 0.91667634 0.8876968 -5.0196214 -2.7401023
-26.414476 -6.279027 -2.635511 -0.5370025 -0.19919467 -0.8829114 -2.0434165 1.6911068
0.79428667 0.06633961 -2.8701758 -11.033677 -1.0666772 0.37008443 -0.15759292 0.18130273
-0.41634253 -4.4665403 -0.82955086 0.422002 -0.02919037 -1.0836065 -8.941069 0.71410275
-9.896946 -0.47616175 -0.4215004 -1.4292597 -1.1493247 -0.67556256 -4.871626 -2.7151732
1.0584304 -19.428383 -0.39079365 -0.9646088 -2.4211435 -0.17075682 -0.4691127 -1.4345942
-1.5566785 0.03995099 -8.03088 2.7933345 -15.887695 1.1434896 -18.003983 -0.23075964
-0.34332174 -18.739283 -5.103171 -11.441842 0.12170474 -24.287252 -0.23909998 -18.274048
-1.6394491 0.1620945 -10.51043 -8.907521 -5.2517967 -8.181316 -0.21389289 -3.1821384
1.475357 -1.5501028 -2.1071062 -0.07496213 -22.14042 -10.478834 -0.6964366 -10.762897
-3.9206867 -2.6634 -2.0208743 -2.8339741 -0.43955326 -0.67345124 1.8018563 0.10036122
-0.20320064 -0.25147676 -16.178026 1.687026 0.14818302 -5.7115216 -0.3530871 -1.6573088
-3.2621264 -0.14820255 -12.831245 -0.45105878 1.364682 -1.6205093 -5.618449 1.4450169
-1.4214294 -11.536629 -0.7600928 -0.091594286 -2.6858985 1.2462305 -7.3078094 -0.58374
0.65159893 -1.0840403 -2.1165683 -2.4215739 -0.12448315 -1.6912271 -1.6402112 0.10062002
-0.056239408 -4.4728866 -1.229737 0.19359386 -0.045949724 -0.7665967 -0.84324986 1.1800553
-0.20984486 -0.20555878 0.59842914 -0.19087292 -0.9781959 0.34532416 -6.7909193 -1.0655464
0.42606646 0.09276057 -0.2019826 -0.7991906 0.2636222 0.8062742 -0.5232266 -1.6219237
-0.5868315 -3.3963737 -4.103192 -5.2558775 -1.5383542 -1.4239173 -0.14366408 -0.014602972
-0.19387838 0.46221113 -2.866788 0.21433832 0.076039225 0.87344426 -1.3711636 0.6485381
-1.3511258 0.18483448 -1.0484394 -6.3874545 -0.3048662 0.4027677 -1.791016 0.51512384
0.037982393 -0.6620667 -0.22949341 -0.5026476 0.25529778 -1.9246008 0.4922605 -0.30722368
-0.5724702 -4.818067 -5.4451165 -7.003641 -0.8594896 -1.3712709 -0.19107004 -0.12032349
-0.32235286 0.009497669 -3.0057013 0.11366562 -0.03937978 0.8702208 -1.659859 0.61408424
-9.0139065 -0.08885656 -0.9798357 -5.1688547 -0.296075 0.3085352 -6.732721 0.53985345
0.18946658 -0.5292583 -0.17513038 -0.5990895 0.22478943 -1.8949802 0.5041966 0.05726826
-0.599409 -3.1620328 -6.121633 -8.229175 0.082685694 -1.9988059 -0.20027211 0.04775508
0.009230622 -0.03674063 -2.0679717 -0.043619193 0.030358475 0.77828836 -1.6842331 0.6338751
-4.04325 -0.5322126 0.005261865 -1.4608204 -0.39298233 0.33627033 -1.7199515 0.44648826
0.20118465 -0.4727667 -0.119133495 -0.9394054 0.33434373 -5.33606 0.43271357 -0.01476121
00000000: 84df 48bf 6d98 6a3f a2e7 1cc1 e2e2 d3c0
00000010: 2f8d 34c1 1777 d23c b4b2 62c0 bec1 6dbe
00000020: 6184 563e 4e6e 16c0 fd8e 89bf d17d 8fbf
00000030: 7384 cebe 9a10 c4c1 3a3c c63f c34f 1bc0
00000040: 237d 0bc1 9e61 14bf 1ca0 84c1 dbcd 13c1
00000050: 4dab 6a3f 1940 633f bda0 a0c0 d65d 2fc0
00000060: d950 d3c1 caed c8c0 36ac 28c0 ff78 09bf
00000070: b0f9 4bbe 7b06 62bf 56c7 02c0 3076 d83f
00000080: 5f56 4b3f 10dd 873d f6b0 37c0 f189 30c1
00000090: e188 88bf b57b bd3e 0a60 21be 6ca7 393e
000000a0: d92a d5be e6ed 8ec0 725d 54bf a510 d83e
000000b0: a520 efbc 9eb3 8abf 9e0e 0fc1 70cf 363f
000000c0: e459 1ec1 79cb f3be e7ce d7be fbf1 b6bf
000000d0: 121d 93bf abf1 2cbf 5ce4 9bc0 66c5 2dc0
000000e0: a67a 873f 546d 9bc1 1b16 c8be 9af0 76bf
000000f0: 04f4 1ac0 e0da 2ebe 8a2f f0be c8a0 b7bf
00000100: 3e41 c7bf a6a3 233d 7c7e 00c1 fec5 3240
00000110: 0034 7ec1 de5d 923f 2808 90c1 414c 6cbe
00000120: dec7 afbe 0dea 95c1 2d4d a3c0 c911 37c1
00000130: 5640 f93d 4b4c c2c1 a0d6 74be 4031 92c1
00000140: 78d9 d1bf 1afc 253e b92a 28c1 3585 0ec1
00000150: b80e a8c0 ace6 02c1 bd06 5bbe 28a8 4bc0
00000160: 80d8 bc3f c569 c6bf d4da 06c0 bf85 99bd
00000170: 951f b1c1 4ea9 27c1 ab49 32bf d334 2cc1
00000180: 88ec 7ac0 2575 2ac0 0156 01c0 d55f 35c0
00000190: 200d e1be 4d67 2cbf 3aa3 e63f 2f8a cd3d
000001a0: d413 50be 90c1 80be 996c 81c1 78f0 d73f
000001b0: 4abd 173e c9c4 b6c0 d5c7 b4be b222 d4bf
000001c0: aec6 50c0 69c2 17be c84c 4dc1 2df1 e6be
000001d0: e6ad ae3f d96c cfbf 56ca b3c0 50f6 b83f
000001e0: 66f1 b5bf 0896 38c1 7195 42bf c995 bbbd
000001f0: c3e5 2bc0 7b84 9f3f 93d9 e9c0 fc6f 15bf
00000200: 30cf 263f d5c1 8abf db75 07c0 11fb 1ac0
00000210: 06f1 febd 217a d8bf 71f2 d1bf de11 ce3d
00000220: 4b5b 66bd e321 8fc0 0668 9dbf 783d 463e
00000230: c735 3cbd ae3f 44bf 39df 57bf 0d0c 973f
00000240: 92e1 56be 007e 52be a732 193f 3174 43be
00000250: 0c6b 7abf 54ce b03e 364f d9c0 d363 88bf
00000260: 6225 da3e 41f9 bd3d 87d4 4ebe c197 4cbf
00000270: 7df9 863e fc67 4e3f 2ef2 05bf 329b cfbf
00000280: 973a 16bf 305e 59c0 594d 83c0 2630 a8c0
00000290: cae8 c4bf ec42 b6bf ad1c 13be 4e41 6fbc
000002a0: 0e88 46be f0a6 ec3e 7479 37c0 817b 5b3e
000002b0: 74ba 9b3d 0b9a 5f3f 4a82 afbf 9806 263f
000002c0: b1f1 acbf 4045 3d3e 4333 86bf 0766 ccc0
000002d0: 6c17 9cbe 9137 ce3e 0340 e5bf 28df 033f
000002e0: 6d93 1b3d 347d 29bf 5200 6bbe 83ad 00bf
000002f0: 64b6 823e 5259 f6bf 9109 fc3e 6c4c 9dbe
00000300: 688d 12bf 9b2d 9ac0 653e aec0 d41d e0c0
00000310: 8307 5cbf ce85 afbf dda7 43be 296c f6bd
00000320: 6f0b a5be 1c9c 1b3c 695d 40c0 85c9 e83d
00000330: b14c 21bd cac6 5e3f 4276 d4bf a034 1d3f
00000340: f638 10c1 6efa b5bd 83d6 7abf 4267 a5c0
00000350: 2497 97be 53f8 9d3e 7372 d7c0 d633 0a3f
00000360: 8703 423e 797d 07bf 6155 33be ee5d 19bf
00000370: 332f 663e b68e f2bf 0713 013f 1f92 6a3d
00000380: de72 19bf bf5e 4ac0 6be4 c3c0 b3aa 03c1
00000390: 1e57 a93d dfd8 ffbf 2214 4dbe d59a 433d
000003a0: 093c 173c 587d 16bd a659 04c0 0aaa 32bd
000003b0: 56b2 f83c e83d 473f f394 d7bf a345 223f
000003c0: 4e62 81c0 163f 08bf b96b ac3b 2afc babf
000003d0: fb34 c9be a02b ac3e 5f27 dcbf 1c9a e43e
000003e0: 5903 4e3e 7a0e f2be 43fc f3bd df7c 70bf
000003f0: 1a2f ab3e 01c1 aac0 a28c dd3e 01d9 71bc

fc1.bias f4 [27]
1.0030912 0.021320758 0.7213824 0.37773833 -0.8231591 -0.446312 -0.37598673 -0.29722866
-0.43263307 -0.33615857 -0.24637939 -0.08193242 0.23669471 0.70474446 0.058904126 0.77739483
-2.6957583 0.56965023 0.36817375 0.77494776 0.19949475 -0.0023480938 0.16969451 0.49257922
0.8899489 1.2973812 0.6320827
00000000: 4b65 803f dfa8 ae3c 84ac 383f eb66 c13e
00000010: 8eba 52bf 0283 e4be 5581 c0be 5b2e 98be
00000020: 1582 ddbe fa1c acbe e14a 7cbe 2fcc a7bd
00000030: 1960 723e 226a 343f 7445 713d 5903 473f
00000040: 4e87 2cc0 99d4 113f 4581 bc3e fa62 463f
00000050: 5a48 4c3e 7ae2 19bb 66c4 2d3e 5833 fc3e
00000060: b1d3 633f 9610 a63f 2cd0 213f
