CNN-based-IoT-Device-Identification-main/cnn_lstm_69.01.pth (torch, 29275 bytes, 8 tensors)

conv1.weight f4 [128, 5, 5]
-0.5994002 0.45551956 0.045555566 -0.10588948 -0.43837276 0.019759685 -0.085255265 -0.20114097
1.5450299 -0.08090869 -0.4339638 0.47677878 0.47347623 0.38916343 -1.011177 0.73121303
0.9835344 -0.25979257 0.4965705 -0.33033222 -0.33394477 0.028024474 0.47243536 0.016559307
0.05532298 -0.8225211 0.023334015 -0.47532338 -0.050447058 0.12669805 0.081378266 0.33235085
-0.2243386 0.11146973 0.077021025 -0.15990256 0.027572837 -0.22266132 -0.15034623 -0.040934738
0.4881603 0.7726707 -0.5369304 -1.1144677 -0.71703 0.14158235 0.99133795 0.4258449
-1.96702 -1.954568 0.7569675 -0.60989684 0.15721875 0.8701719 -0.6610321 -0.11243563
-0.027281689 0.44397372 2.221012 -0.48352823 0.41674542 0.024475792 0.23366734 0.08000027
-0.20233375 0.07531607 -0.043158863 -0.362702 1.326352 -0.2944304 1.194294 1.1320518
1.4547381 -0.86379313 -0.22282414 -0.751777 -1.0059484 0.17935412 0.968029 -0.2681302
-0.0074752867 -0.24205945 2.1403728 -0.5472548 0.4934106 -1.0950896 0.016954614 -0.0003123362
-0.26912674 2.3342803 1.4520239 -0.61353683 -0.87132865 2.6650627 -0.68853784 1.9039443
0.37857088 0.078938164 -0.5903878 -0.454172 2.3181636 -0.43516117 0.5070596 0.60003287
-0.29745582 -0.1727842 0.18860571 0.1687229 -2.0338218 0.96692777 -0.5874013 -0.15659596
-0.4032904 0.3207532 0.7929572 0.6198267 -1.046291 -0.38882464 1.500067 -0.35333043
0.87226933 0.28156057 0.23992094 -0.35413826 -0.2538999 -0.80075526 0.48982796 0.5635616
0.11737942 -0.1265275 -0.08631845 -0.715248 0.7144807 -2.0851352 -0.32263157 -0.2867187
0.2825975 -0.08490885 -0.093572535 1.5820355 -0.010807332 0.41963446 0.084167846 -1.0052452
-0.0003111864 -0.6541536 -0.8734196 -1.2422186 -0.18949112 -0.94883335 1.1357312 0.5665477
1.0388354 -1.3268527 1.2575023 0.021923333 -1.9269735 1.1228852 -1.9626236 -1.186996
-1.323029 -0.19893889 -0.05658473 0.22487877 0.99121034 0.13261452 0.80598 -0.8091664
-0.13341972 -0.9968591 -0.40078053 -0.8688576 -0.5891826 -0.44509578 -1.258062 -0.43877143
1.2972128 0.27976325 -0.5021137 -0.12201475 0.042100146 -1.8431917 0.07694628 -2.0002742
-0.80763 -0.77261686 -0.21922196 -0.16171348 0.37021834 -0.47820693 0.19685191 0.9946825
1.4461586 -1.92609 1.3909587 -0.9560023 -1.8822658 -2.3624003 1.6445342 1.164692
1.0966197 1.6636906 -0.044664156 0.37942973 0.4021684 -0.17877498 -0.60621625 0.9414712
-1.9152385 -1.132654 -0.6775371 -0.35951316 -0.069195114 0.10799026 0.9010717 0.17606354
0.54719716 0.8188314 0.75077 0.9938728 0.02294274 -0.5789451 -0.61652946 1.6627891
0.88394594 -1.0176873 -0.6017103 -0.9302301 -0.6339993 -0.120281644 -0.010746315 -1.1801275
1.8573858 -2.6345134 0.6863464 -0.8908897 -0.19582677 -0.49927008 0.5216844 1.283385
1.1971759 0.8668842 0.98250926 -1.092878 1.2990463 -0.53370965 -0.9898849 -1.7360576
-0.573059 -0.9059754 -0.8044498 -0.35578433 0.04674862 1.011635 0.2264047 0.11753182
00000000: 4b72 19bf dc39 e93e 7998 3a3d 95dc d8bd
00000010: 6572 e0be 10df a13c 509a aebd e6f7 4dbe
00000020: 8ac3 c53f 75b3 a5bd 8130 debe 591c f43e
00000030: 7a6b f23e 6e40 c73e 3f6e 81bf c730 3b3f
00000040: e9c8 7b3f 8803 85be 7d3e fe3e 4e21 a9be
00000050: cffa aabe 9593 e53c 0ce3 f13e 62a7 873c
00000060: 599a 623d be90 52bf fa26 bf3c 965d f3be
00000070: 93a1 4ebd 22bd 013e a6a9 a63d e429 aa3e
00000080: 05b9 65be 3e4a e43d 33bd 9d3d 7fbd 23be
00000090: 6ee0 e13c 5401 64be 5df4 19be 2fab 27bd
000000a0: 26f0 f93e bfcd 453f 4574 09bf e1a6 8ebf
000000b0: 478f 37bf f7fa 103e 53c8 7d3f 5808 da3e
000000c0: 50c7 fbbf 492f fabf 9fc8 413f 3322 1cbf
000000d0: f4fd 203e 96c3 5e3f 6639 29bf a744 e6bd
000000e0: d97d dfbc 8650 e33e 1025 0e40 0391 f7be
000000f0: a85f d53e 7581 c83c 7e46 6f3e 2ed7 a33d
00000100: 9430 4fbe 503f 9a3d 59c7 30bd 14b4 b9be
00000110: e7c5 a93f 95bf 96be a0de 983f 13e7 903f
00000120: dc34 ba3f 8c21 5dbf 032c 64be 7574 40bf
00000130: ebc2 80bf 9ba8 373e c0d0 773f 5d48 89be
00000140: 40f3 f4bb 6fde 77be defb 0840 e418 0cbf
00000150: 50a0 fc3e e52b 8cbf 67e4 8a3c 0ec1 a3b9
00000160: fbca 89be d964 1540 ebdb b93f c010 1dbf
00000170: 650f 5fbf 6390 2a40 0444 30bf 72b4 f33f
00000180: 0bd4 c13e 55aa a13d a823 17bf 3b89 e8be
00000190: cb5c 1440 72cd debe a8ce 013f c19b 193f
000001a0: 214c 98be 57ee 30be db21 413e b2c5 2c3e
000001b0: 232a 02c0 9488 773f ee5f 16bf b15a 20be
000001c0: 147c cebe c339 a43e 3eff 4a3f f6ac 1e3f
000001d0: ddec 85bf 0614 c7be 3202 c03f bae7 b4be
000001e0: 0b4d 5f3f b528 903e d6ad 753e 9c51 b5be
000001f0: 2bff 81be 4cfe 4cbf bbca fa3e 9345 103f
00000200: 9f64 f03d 6d90 01be bac7 b0bd 7e1a 37bf
00000210: 35e8 363f db72 05c0 f72f a5be cbcc 92be
00000220: 9fb0 903e b1e4 adbd f5a2 bfbd 2480 ca3f
00000230: 3c11 31bc 54da d63e 3160 ac3d e0ab 80bf
00000240: bb26 a3b9 9c76 27bf 6d98 5fbf 0501 9fbf
00000250: f609 42be bee6 72bf a45f 913f 4509 113f
00000260: 8ff8 843f 4fd6 a9bf d6f5 a03f 9098 b33c
00000270: 11a7 f6bf b4ba 8f3f 4037 fbbf 7cef 97bf
00000280: 0459 a9bf a3b6 4bbe 64c5 67bd 9f46 663e
00000290: f6bf 7d3f 1acc 073e b554 4e3f 8725 4fbf
000002a0: 2e9f 08be 2832 7fbf 1b33 cdbe 746d 5ebf
000002b0: acd4 16bf 98e3 e3be 2d08 a1bf a6a6 e0be
000002c0: 120b a63f 213d 8f3e 868a 00bf dfe2 f9bd
000002d0: 3471 2c3d b5ed ebbf 0396 9d3d 7e04 00c0
000002e0: d7c0 4ebf 38ca 45bf b97b 60be 3898 25be
000002f0: 428d bd3e 8ad7 f4be 8c93 493e 83a3 7e3f
00000300: ba1b b93f 1e8a f6bf ef0a b23f 91bc 74bf
00000310: 16ee f0bf 9131 17c0 1980 d23f a114 953f
00000320: 095e 8c3f d0f3 d43f c3f1 36bd 9d44 c23e
00000330: 04e9 cd3e ca10 37be fd30 1bbf 4204 713f
00000340: 8926 f5bf cefa 90bf 1273 2dbf 1c12 b8be
00000350: 2bb6 8dbd ff29 dd3d a3ac 663f 004a 343e
00000360: 1d15 0c3f ef9e 513f 7632 403f 736e 7e3f
00000370: 6af2 bb3c bf35 14bf e0d4 1dbf 46d6 d43f
00000380: 484a 623f 9443 82bf b009 1abf 8f23 6ebf
00000390: c74d 22bf 3956 f6bd 5011 30bc 6b0e 97bf
000003a0: d1be ed3f de9b 28c0 66b4 2f3f 5911 64bf
000003b0: d086 48be 54a0 ffbe 1c8d 053f f645 a43f
000003c0: 0f3d 993f 1fec 5d3f ba85 7b3f 6de3 8bbf
000003d0: 2647 a63f 32a1 08bf 1969 7dbf 2337 debf
000003e0: ffb3 12bf 01ee 67bf 6cf0 4dbf 5d29 b6be
000003f0: 7b7b 3f3d 417d 813f a2d6 673e 86b4 f03d

conv1.bias f4 [128]
1.8431057 -0.5006651 1.1049935 0.9537293 0.7591915 -2.0552368 -0.068643264 -2.7892542
-0.60549545 -0.09606389 -0.28324822 -1.176454 0.94007516 -0.3797881 0.7329255 -1.3645718
0.5302894 1.4390174 1.4494009 -0.8836739 -0.37002966 -1.4052798 -0.4240118 -1.6667824
-1.2270839 0.32598507 0.7853711 0.2662992 -0.33355322 -0.0017063589 1.7216021 0.58544475
1.4024076 -0.6280622 0.7239242 -0.8802945 0.9355517 0.98997915 0.7088892 0.09833057
0.15768854 -0.70404047 0.9832168 0.28923225 2.0716152 0.21594232 1.6733456 1.3609768
0.88314605 1.4070464 3.4645603 1.8533876 1.8222581 2.6965609 3.4653146 2.57365
4.150012 1.8759289 -0.40808603 3.622466 2.7625659 1.3672289 1.3428066 3.6593282
2.678668 0.057651386 3.3483357 2.147521 -3.210276 0.9186384 2.0835764 1.6340802
3.0985117 0.4254811 0.39783978 1.9094883 -0.056932636 2.5960648 -1.8377901 -0.8237484
-1.4054717 0.070392326 -0.5236645 -3.692587 -0.9544978 -2.4089568 -0.37215793 0.35206255
0.91551316 0.897502 -2.57086 -0.13019153 0.70066535 0.06640121 -0.183755 0.5642885
-2.140661 0.315095 -2.6678739 0.46677342 -0.54605556 -0.19360821 -0.16233872 0.76364994
1.9334912 -1.0936787 -0.633357 -0.18682268 -0.20097898 -2.4161642 -1.2568988 -1.1633807
-0.4728955 0.23717277 0.67742044 -0.21996555 -0.11414039 -0.17964005 0.30675322 0.26979032
0.15129918 -0.0068735317 -0.38139936 -0.84325796 -0.16011599 0.0030066334 -0.008938448 0.24192283
00000000: e3ea eb3f 972b 00bf 6d70 8d3f 9a27 743f
00000010: 605a 423f 0089 03c0 d794 8cbd 2483 32c0
00000020: c001 1bbf 25bd c4bd e905 91be 0b96 96bf
00000030: c4a8 703f 9673 c2be 01a1 3b3f 4aaa aebf
00000040: 0cc1 073f b931 b83f f885 b93f 7438 62bf
00000050: 8774 bdbe 35e0 b3bf 1318 d9be 2059 d5bf
00000060: 1611 9dbf 84e7 a63e 150e 493f 5e58 883e
00000070: 7dc7 aabe e7a7 dfba 755d dc3f b5df 153f
00000080: 1882 b33f afc8 20bf 1953 393f fb5a 61bf
00000090: 5180 6f3f 466f 7d3f c379 353f 8a61 c93d
000000a0: 1b79 213e ff3b 34bf 19b4 7b3f 4016 943e
000000b0: 5895 0440 fc1f 5d3e 3030 d63f 7d34 ae3f
000000c0: dc15 623f 191a b43f 5bbb 5d40 ce3b ed3f
000000d0: c13f e93f 7494 2c40 b7c7 5d40 aeb6 2440
000000e0: e6cc 8440 701e f03f a7f0 d0be 7cd6 6740
000000f0: e1cd 3040 5b01 af3f 16e1 ab3f 6f32 6a40
00000100: 4c6f 2b40 dc23 6c3d 224b 5640 fc70 0940
00000110: 2975 4dc0 e32b 6b3f 5159 0540 8a29 d13f
00000120: 044e 4640 a9d8 d93e a8b1 cb3e 1d6a f43f
00000130: 3232 69bd ed25 2640 b53c ebbf 2de1 52bf
00000140: 7fe6 b3bf da29 903d e00e 06bf 5853 6cc0
00000150: f859 74bf 592c 1ac0 7c8b bebe 8b41 b43e
00000160: 125f 6a3f b1c2 653f f888 24c0 ee50 05be
00000170: ce5e 333f 5cfd 873d 452a 3cbe 3675 103f
00000180: 9700 09c0 2254 a13e 72be 2ac0 edfc ee3e
00000190: 4cca 0bbf 3b41 46be 1f3c 26be 907e 433f
000001a0: a47c f73f aafd 8bbf af23 22bf 724e 3fbe
000001b0: 6fcd 4dbe 6fa2 1ac0 0fe2 a0bf a9e9 94bf
000001c0: 5c1f f2be 6bdd 723e 6d6b 2d3f a63e 61be
000001d0: 70c2 e9bd 90f3 37be c20e 9d3e f521 8a3e
000001e0: 2cee 1a3e 5d3b e1bb c746 c3be c1df 57bf
000001f0: 72f5 23be f00a 453b 9172 12bc 9eba 773e

lstm.weight_ih_l0 f4 [100, 1]
0.9846082 3.8208773 5.7464037 1.5666127 1.5355656 0.5271722 0.10000019 4.983595
0.16946103 1.787633 -1.4880248 3.0182664 0.018231824 -1.6651201 -0.7882648 6.052368
1.5651304 7.875077 2.1216574 -0.8928816 1.7539905 -8.287816 6.0587373 -0.72770286
-1.4885443 0.17314507 2.2498307 5.419709 -2.5023773 0.02461977 -0.905974 -2.1257355
-0.50035065 -2.2898843 -1.1776632 -1.0132838 -1.4227296 -2.1888587 0.07814774 -2.714478
-0.4150411 -2.6949675 1.0374694 -1.1895773 -3.8585823 -0.08547587 -5.0409374 1.7334061
-1.9561553 -0.50117433 -1.1454464 0.69686437 -6.7014575 0.036863793 6.8555293 0.6778542
5.6812873 -1.0670097 1.9400755 1.0410128 -2.4345875 -1.1162193 -1.2708993 -2.8078747
0.9776564 -0.4829771 0.20509526 -0.35234204 -1.6419182 5.136564 0.7984711 1.1543174
-5.4411163 3.6225417 2.2719388 0.059457563 9.660397 1.8509982 0.3171943 5.441292
1.5101981 0.19234885 -0.89366096 -2.4770546 -2.0506427 1.9030379 -5.3559914 -4.6979074
2.1013641 -2.5338693 5.2602954 -3.7782688 9.832168 4.910179 3.6203463 -0.32704404
-0.59264153 3.9154015 4.8227935 4.859115
00000000: 480f 7c3f 4189 7440 8ae2 b740 c486 c83f
00000010: 6a8d c43f c2f4 063f e6cc cc3d 9c79 9f40
00000020: 3187 2d3e 28d1 e43f 9977 bebf 472b 4140
00000030: e85a 953c a822 d5bf b9cb 49bf 00ad c140
00000040: 3156 c83f a100 fc40 3cc9 0740 e393 64bf
00000050: c382 e03f e59a 04c1 2de1 c140 bc4a 3abf
00000060: 9f88 bebf f14c 313e 3afd 0f40 426e ad40
00000070: f326 20c0 66af c93c e9ed 67bf 0d0c 08c0
00000080: fb16 00bf 778d 12c0 abbd 96bf 49b3 81bf
00000090: 011c b6bf 4316 0cc0 ec0b a03d 02ba 2dc0
000000a0: 4480 d4be 597a 2cc0 cccb 843f 1244 98bf
000000b0: 03f3 76c0 f90d afbd 5c4f a1c0 40e0 dd3f
000000c0: 4c63 fabf f64c 00bf fd9d 92bf b465 323f
000000d0: 5772 d6c0 7dfe 163d 7f60 db40 da87 2d3f
000000e0: 1bcd b540 c693 88bf 6554 f83f e83f 853f
000000f0: 48d0 1bc0 46e0 8ebf d4ac a2bf 38b4 33c0
00000100: b147 7a3f c648 f7be 7e04 523e 2d66 b4be
00000110: 602a d2bf bb5e a440 9a68 4c3f acc0 933f
00000120: a01d aec0 b9d7 6740 7267 1140 c689 733d
00000130: fc90 1a41 82ed ec3f 4b67 a23e 101f ae40
00000140: 2c4e c13f 19f7 443e f7c6 64bf 1088 1ec0
00000150: bb3d 03c0 bf96 f33f 4864 abc0 4255 96c0
00000160: c07c 0640 ea2a 22c0 5754 a840 28cf 71c0
00000170: 8f50 1d41 3020 9d40 c1b3 6740 5172 a7be
00000180: 5bb7 17bf f095 7a40 5354 9a40 df7d 9b40

lstm.weight_hh_l0 f4 [100, 25]
-1.0077325 3.9545827 -0.6420111 1.2483245 -1.3519235 -3.1588547 -4.530479 -1.3586041
1.5301951 -2.7627878 -3.4388614 -1.6508068 3.1353142 -0.9528553 -0.34740362 -1.5159831
-1.0523251 -3.955631 -2.338311 -0.8615087 1.3921909 1.0053778 3.837777 -0.06435466
-6.8683686 1.1075314 -0.7501063 2.3790336 1.6491919 -0.64793116 -2.13327 1.4143863
-0.11384277 -0.19381738 4.7150044 -0.2860861 1.3866031 2.7688527 0.112402886 2.1411378
0.83148074 -1.8249453 0.5493615 1.5877895 2.259773 -1.8600428 1.184011 -0.3780524
-2.136116 -0.5882361 -1.013086 -5.4322743 -1.1477143 5.7403846 0.8578326 0.47445118
1.1318673 0.55805 -2.465446 1.6093296 1.7142892 -1.3147243 2.1442611 -0.7739509
-1.5492817 2.2287261 1.2753712 -7.920662 2.5333438 -2.080713 0.69104266 1.1277077
-0.40902868 2.4642293 -0.9518222 -0.59910315 2.4319782 2.7411916 1.0949345 -0.47515225
0.008509634 -0.9764687 2.3192453 0.05831187 -0.226515 0.7277431 3.1413548 -1.8362116
1.8308293 0.34881803 3.7284546 -0.2444745 -4.44422 1.7811462 -4.229955 2.3323343
3.6298482 1.8257276 1.2021648 0.6797062 -0.57501405 -0.46297368 1.801935 -1.105344
-2.617677 -3.1254537 -0.7922158 -1.023835 -1.473535 0.31426522 -0.66516477 -2.240945
-1.5158473 0.08956727 -0.34900433 -2.134076 0.11495551 4.9223156 1.6502868 -5.2989373
1.5817338 -2.793578 2.0795834 -0.77883077 4.5265923 -0.71705246 0.8223539 1.307244
0.6769143 -4.1842613 -2.0054166 2.4994946 -0.29166988 -2.3722646 0.5391602 -0.07144683
-2.9492917 -0.23532805 -1.7037951 3.0901341 2.9970653 1.5493823 1.7454584 1.0049479
1.3484141 -0.651919 1.6448004 -0.056199294 -0.21642825 -1.1756375 0.011007055 -2.0150535
0.23574702 -2.1530995 0.9865622 -0.7172442 -1.1772646 0.241419 2.603853 0.89306295
2.616363 -0.9158767 -0.86568886 0.70763195 -1.6574655 0.85862875 -0.950155 -4.35418
-0.72453 -1.9062756 2.7910318 0.62861764 -1.9314421 1.5663183 1.4346118 0.7938187
0.82811594 -2.5532424 0.58816814 -0.4938352 1.0863668 3.1553044 -0.69781274 1.237123
1.9924895 1.0089581 -2.158127 -2.0707045 1.4598323 0.7789245 0.64454603 -1.2707722
-0.713184 1.1678406 0.6861846 -3.7112534 0.51912063 -1.5183935 0.8441597 4.5075374
0.042656843 2.717756 1.731964 -1.4522451 -1.0225528 -3.3733134 -0.2976269 -1.1772041
3.7581177 -1.0853245 -1.7224596 -4.736503 -0.7182168 -0.9802277 -0.73902774 -1.2651201
1.5898186 -1.3375276 1.1517086 -0.5396814 2.4400463 1.822523 -0.90767324 3.227253
5.2243876 2.3565826 4.029049 -5.8520927 0.10807265 -0.09545902 1.3714136 -1.6955973
-0.31132245 -0.35274473 0.06512126 -1.3116958 -0.28062218 1.8292801 -1.3079778 1.1724031
0.62762314 2.7599227 0.34180185 1.7936002 -1.3417214 0.010211082 4.38359 0.29542705
-2.388998 -2.6622233 -0.8434544 2.8485456 -1.1407812 -5.791415 -1.1188565 1.7377375
00000000: 61fd 80bf e217 7d40 d75a 24bf 19c9 9f3f
00000010: d40b adbf ad2a 4ac0 aff9 90c0 bde6 adbf
00000020: 6fdd c33f 84d1 30c0 4e16 5cc0 a34d d3bf
00000030: fda8 4840 53ee 73bf e3de b1be bc0b c2bf
00000040: 97b2 86bf 0f29 7dc0 e3a6 15c0 d68b 5cbf
00000050: 5033 b23f 38b0 803f 239e 7540 60cc 83bd
00000060: adc9 dbc0 97c3 8d3f f706 40bf 1642 1840
00000070: b818 d33f d1de 25bf 7f87 08c0 9c0a b53f
00000080: 6626 e9bd 1078 46be 51e1 9640 e179 92be
00000090: 367c b13f e234 3140 7c33 e63d 6708 0940
000000a0: ecdb 543f cf97 e9bf f5a2 0c3f b03c cb3f
000000b0: 1fa0 1040 e215 eebf ac8d 973f 1690 c1be
000000c0: 20b6 08c0 a496 16bf cdac 81bf 31d5 adc0
000000d0: 4de8 92bf 3bb1 b740 eb9a 5b3f 44eb f23e
000000e0: 07e1 903f 5ddc 0e3f dec9 1dc0 83fe cd3f
000000f0: d46d db3f e348 a8bf 933b 0940 a521 46bf
00000100: dd4e c6bf 73a3 0e40 5d3f a33f 1076 fdc0
00000110: 4e22 2240 672a 05c0 2ce8 303f ba58 903f
00000120: 356c d1be efb5 1d40 9faa 73bf d35e 19bf
00000130: 88a5 1b40 af6f 2f40 d026 8c3f 2847 f3be
00000140: fe6b 0b3c daf9 79bf 846e 1440 6dd8 6e3d
00000150: 8cf3 67be 5f4d 3a3f f50b 4940 fb08 ebbf
00000160: 9d58 ea3f 4798 b23e 009f 6e40 8657 7abe
00000170: 0d37 8ec0 99fc e33f cb5b 87c0 f744 1540
00000180: 6f4f 6840 71b1 e93f 89e0 993f 3a01 2e3f
00000190: 1f34 13bf e30a edbe cea5 e63f ea7b 8dbf
000001a0: 0588 27c0 6f07 48c0 a8ce 4abf 060d 83bf
000001b0: cb9c bcbf 5fe7 a03e 3d48 2abf a56b 0fc0
000001c0: 4907 c2bf 0b6f b73d b2b0 b2be b494 08c0
000001d0: cb6d eb3d 9c83 9d40 993c d33f e590 a9c0
000001e0: 4176 ca3f fbc9 32c0 e517 0540 7461 47bf
000001f0: d8d9 9040 c090 37bf c985 523f c553 a73f
00000200: 414a 2d3f 78e5 85c0 bf58 00c0 b8f7 1f40
00000210: c155 95be 2fd3 17c0 6706 0a3f b752 92bd
00000220: 32c1 3cc0 d6f9 70be f515 dabf c2c4 4540
00000230: ebcf 3f40 2952 c63f 2e6b df3f 22a2 803f
00000240: d598 ac3f 2ae4 26bf d288 d23f 3b31 66bd
00000250: 5e9f 5dbe 4a7b 96bf ef56 343c a3f6 00c0
00000260: ab67 713e 62cc 09c0 578f 7c3f 519d 37bf
00000270: 9bb0 96bf 8b36 773e 87a5 2640 c69f 643f
00000280: 7e72 2740 e576 6abf c99d 5dbf 5e27 353f
00000290: d427 d4bf 18cf 5b3f 5c3d 73bf 7155 8bc0
000002a0: cc7a 39bf d700 f4bf 44a0 3240 16ed 203f
000002b0: 7f39 f7bf 1e7d c83f 5ca1 b73f b437 4b3f
000002c0: 68ff 533f 5368 23c0 3092 163f f8d7 fcbe
000002d0: 110e 8b3f 82f0 4940 dba3 32bf 0c5a 9e3f
000002e0: e509 ff3f 8a25 813f c11e 0ac0 6c86 04c0
000002f0: c9db ba3f 9967 473f f800 253f aaa8 a2bf
00000300: 3a93 36bf cd7b 953f cba9 2f3f 2d85 6dc0
00000310: 17e5 043f b85a c2bf da1a 583f bf3d 9040
00000320: f1b8 2e3d b7ef 2d40 ffb0 dd3f 2be3 b9bf
00000330: 03e3 82bf 5ee4 57c0 8e62 98be a0ae 96bf
00000340: 0085 7040 eaeb 8abf 8e79 dcbf 6f91 97c0
00000350: 0edd 37bf 34f0 7abf ec30 3dbf 75ef a1bf
00000360: 2d7f cb3f 1b34 abbf 306b 933f 8f28 0abf
00000370: b829 1c40 6f48 e93f 465d 68bf 508b 4e40
00000380: 2f2e a740 40d2 1640 f8ed 8040 5844 bbc0
00000390: 3255 dd3d 0580 c3bd 7b8a af3f 5509 d9bf
000003a0: a865 9fbe f59a b4be 4c5e 853d a6e5 a7bf
000003b0: b6ad 8fbe da25 ea3f d16b a7bf 4e11 963f
000003c0: e9ab 203f 93a2 3040 a700 af3e b194 e53f
000003d0: 87bd abbf 624c 273c 5f46 8c40 3742 973e
000003e0: 58e5 18c0 de61 2ac0 a1ec 57bf 924e 3640
000003f0: 1e05 92bf 4653 b9c0 b136 8fbf 2f6e de3f

lstm.bias_ih_l0 f4 [100]
-0.50499433 -0.6842701 -0.31305042 1.4065021 1.2253863 -0.22308868 2.1578567 0.17924286
0.48355824 -0.3682944 0.9622712 0.95365787 0.10668323 0.3823112 1.4247776 1.0406079
2.3181999 -1.2582935 0.7263681 1.8983241 -1.0903256 -0.3021743 0.29862458 0.20693776
0.42711788 -0.2233998 -0.5132487 -0.28731567 0.6805381 0.8024806 0.89327747 -0.62725216
1.2311755 1.1310548 1.4684591 -0.7571113 0.78846836 -0.42119315 -1.2315197 0.3114559
-0.099640556 0.4578015 0.921631 -0.48252907 0.34170914 0.8081254 -0.41060078 -0.79790884
-0.13828786 1.2330298 1.1283895 -0.711692 -0.8010988 -0.2300985 -0.44795343 1.3194355
-0.22049814 0.17384677 1.8656592 -0.19115543 0.19410689 -0.61349833 1.0793506 0.7397015
0.6969493 -0.23760848 -0.9068468 -1.6114794 0.46452683 -0.47018218 0.7198535 -1.4825332
1.0450225 1.8184825 -0.54888415 1.3592682 0.0025055741 0.3554352 -0.2134566 0.7752515
-0.7629709 2.1207137 0.80471194 -1.2048193 -1.258833 -0.15255064 -0.21336584 0.5198585
0.66420776 -0.47642404 0.89270693 0.49802 -1.9653015 1.0492672 0.24294828 0.59551686
-0.3760396 1.2137743 1.586112 0.10037776
00000000: 4f47 01bf 532c 2fbf 2548 a0be 4308 b43f
00000010: 75d9 9c3f 5c71 64be 531a 0a40 718b 373e
00000020: f294 f73e 1591 bcbe 6857 763f ec22 743f
00000030: bd7c da3d 4bbe c33e 1d5f b63f a432 853f
00000040: 635d 1440 c30f a1bf 43f3 393f 49fc f23f
00000050: ca8f 8bbf 97b6 9abe 52e5 983e 7ee7 533e
00000060: 32af da3e ebc2 64be 4464 03bf 0a1b 93be
00000070: bf37 2e3f 5e6f 4d3f d5ad 643f 9993 20bf
00000080: 2997 9d3f 67c6 903f 78f6 bb3f 0cd2 41bf
00000090: 10d9 493f a1a6 d7be 70a2 9dbf 2677 9f3e
000000a0: 5910 ccbd f564 ea3e 02f0 6b3f 0d0e f7be
000000b0: 80f4 ae3e 4ee1 4e3f 443a d2be c143 4cbf
000000c0: 559b 0dbe ecd3 9d3f 116f 903f 7231 36bf
000000d0: d014 4dbf f19e 6bbe 275a e5be 43e3 a83f
000000e0: 44ca 61be e304 323e eccd ee3f 40be 43be
000000f0: f5c3 463e 3a0e 1dbf 2928 8a3f 145d 3d3f
00000100: 456b 323f a34f 73be 1d27 68bf f544 cebf
00000110: 76d6 ed3e b8bb f0be 5248 383f a6c3 bdbf
00000120: 4cc3 853f 09c4 e83f ac83 0cbf 80fc ad3f
00000130: 8f34 243b 9afb b53e 5e94 5abe e276 463f
00000140: 1052 43bf c6b9 0740 9a01 4e3f 8537 9abf
00000150: 7121 a1bf 3c36 1cbe 937c 5abe 7215 053f
00000160: 8509 2a3f daed f3be 7188 643f 7afc fe3e
00000170: 008f fbbf 634e 863f 6fc7 783e cb73 183f
00000180: 4388 c0be f55c 9b3f b805 cb3f db92 cd3d

lstm.bias_hh_l0 f4 [100]
-0.46731842 -0.7141074 -0.59035486 1.4155313 1.2613976 -0.20898676 2.1332767 0.030314907
0.42645183 -0.34595206 0.8211043 0.98511976 0.15621938 0.16305058 1.4249331 1.1479037
2.2203364 -1.4745545 0.7250253 1.6239945 -0.86214274 -0.062422965 0.5038531 0.19661053
0.43419138 -0.16102439 -0.3555701 -0.40014294 0.9067474 0.8142034 1.002214 -0.73523676
1.0103315 1.356137 1.2224792 -0.6279835 0.7704472 -0.44844067 -1.1105161 0.4416725
-0.12160404 0.67620444 1.1465064 -0.55530477 0.34213355 0.49793425 -0.3901421 -0.730467
-0.39635623 1.1672919 1.162692 -0.8356554 -0.72439617 -0.2791316 -0.28738454 1.4527864
-0.15568073 0.061638776 1.7345623 -0.4874452 0.2457224 -0.6375051 1.1156179 0.40390328
0.6111487 -0.19535215 -0.67730063 -1.7587402 0.67166066 -0.32931337 0.4140058 -1.2182345
1.1353667 1.7855887 -0.6830472 1.4604031 -0.011963637 0.7129739 -0.2505964 0.7797977
-0.7018373 2.1129947 0.6829261 -1.0690937 -0.97862655 0.037947893 -0.48358732 0.36611602
0.9018455 -0.20602065 0.7684492 0.537745 -1.6001916 1.1821095 0.29730862 0.67452985
-0.17863388 1.1900067 1.4986819 0.05674247
00000000: 5c44 efbe becf 36bf 7f21 17bf 2130 b53f
00000010: 7a75 a13f a000 56be 9b87 0840 f856 f83c
00000020: e557 da3e a120 b1be e433 523f cf30 7c3f
00000030: f9f7 1f3e bbf6 263e 3564 b63f 82ee 923f
00000040: fe19 0e40 34be bcbf 429b 393f 0ddf cf3f
00000050: 63b5 5cbf 39af 7fbd 84fc 003f 4554 493e
00000060: 554e de3e 94e3 24be 490d b6be 89df ccbe
00000070: 9920 683f a26f 503f 8c48 803f 7a38 3cbf
00000080: 8b52 813f e695 ad3f 337a 9c3f 87c3 20bf
00000090: 073c 453f 049a e5be 6425 8ebf e622 e23e
000000a0: 8a0b f9bd bc1b 2d3f b9c0 923f 7428 0ebf
000000b0: 212c af3e 3df1 fe3e b5c0 c7be e3ff 3abf
000000c0: 34ef cabe d269 953f 17d3 943f 83ed 55bf
000000d0: 0772 39bf 56ea 8ebe 1124 93be e8f4 b93f
000000e0: c56a 1fbe f178 7c3d 2306 de3f 6b92 f9be
000000f0: a79e 7b3e 8933 23bf 91cc 8e3f 69cc ce3e
00000100: 3e74 1c3f 650a 48be 9363 2dbf 661e e1bf
00000110: f4f1 2b3f c39b a8be 91f8 d33e 1cef 9bbf
00000120: b253 913f 2c8e e43f 2edc 2ebf 7dee ba3f
00000130: 2103 44bc 7585 363f 2c4e 80be d2a0 473f
00000140: 9cab 33bf 4e3b 0740 3fd4 2e3f 10d8 88bf
00000150: 4587 7abf 406f 1b3d c298 f7be 8f73 bb3e
00000160: 59df 663f 14f7 52be 16b9 443f a8a9 093f
00000170: 14d3 ccbf 5d4f 973f d638 983e fdad 2c3f
00000180: cdeb 36be 2452 983f cfd4 bf3f cb6a 683d

fc.weight f4 [27, 25]
5.360602 3.6909559 2.7284374 3.1815617 -0.19531278 -8.875898 -1.2806823 -0.3993219
-7.4269443 1.4289697 9.652383 0.5381545 15.88474 -2.3686697 -1.0675976 -2.9435089
-2.909477 -5.3544855 -4.1488013 -1.1181455 3.292261 8.596794 0.17883629 -10.353768
-0.35563177 -2.4410775 -3.3577867 1.4429673 4.290879 -0.7843835 1.5729834 -5.2084203
1.6986476 5.5632343 -0.06896424 4.637725 -0.29263705 0.21123603 0.29194248 4.9466186
-0.7953715 -2.3329713 -1.294624 -0.18018572 3.960735 -1.4426982 -4.864084 -3.3131719
0.28176883 -1.754936 -6.021492 3.658918 1.6629215 2.4628394 -0.75726867 -6.790406
-5.188277 0.7636326 3.7573078 -22.889498 -1.737857 -0.997068 -1.4830229 -0.5285143
7.738411 1.3067999 -3.053638 -1.7176806 -1.5405936 0.08418684 -2.2980516 18.571026
-4.0785723 5.482763 -0.5552944 2.5815072 6.691503 3.0471697 3.4056017 -2.5866442
-0.6318642 -9.42851 -2.9303002 -5.4210205 -9.156797 7.956574 3.1955614 8.4197235
-7.8765655 0.92731756 -3.4404361 -0.9941244 11.164431 -1.53259 -5.432276 -4.4467635
-2.0024536 -8.0885725 -16.491116 12.505147 -1.7104071 -1.2513785 -2.0091317 -5.0185065
1.5239094 3.813158 0.102093615 0.8390966 -0.05293583 0.04920671 0.2802715 -4.72824
1.3684812 4.3028913 -0.27969873 1.5816015 3.19787 -4.5481887 8.793673 6.7544775
1.6179242 -2.3958533 0.8318662 8.307723 4.0667334 1.7543417 2.5019987 -4.2796707
-0.06780511 2.3553095 3.1383638 -1.2245427 0.0067014224 -3.9103642 0.97159827 5.770574
1.9441886 -1.3560314 -0.9170806 0.16171908 0.5590564 0.79719806 1.8675349 -1.2469563
2.7728171 -2.5937922 3.176738 -2.614512 3.272811 1.558112 1.0773481 2.0278971
-3.3733547 0.4952361 2.4908912 4.1197476 0.26780495 -0.48527545 -3.1350148 1.3333417
5.431543 2.246024 -1.2160949 -1.0637752 0.42195788 0.9510001 0.17968033 1.6587828
-1.4781344 0.45201504 -2.735228 3.2332525 -2.7330909 3.3003058 1.789302 0.27223077
2.603044 -4.818972 0.80443317 3.1813035 2.8603618 -0.1576672 -0.30150795 -3.0031283
1.961383 5.4178824 1.5799081 -0.3309312 -0.6579391 0.51077104 0.92124695 -0.52409595
1.8929715 0.19631773 -0.26466513 -2.9335716 2.0024488 -2.3072474 5.0415134 2.14912
1.5813365 1.6598774 -3.3990104 0.74323153 2.0991473 4.1203 -0.478081 -0.21460967
-3.303195 1.3948361 5.7433143 2.236233 -1.9160008 -1.0182245 0.16992399 0.6787891
-0.05899931 1.7803985 -1.983448 2.3738334 -2.6424394 3.2823625 -2.7033288 3.030916
1.5608153 -3.7986956 1.7134776 3.382871 0.18695508 -2.8358912 -7.426679 -1.2435107
1.8654029 3.5873735 -17.171309 -4.5769734 1.1634734 -1.6648071 -1.4147213 1.2794931
-1.1075994 -2.5612729 -2.703706 0.7499578 -0.15778223 -3.269495 20.450779 -1.5980406
4.620414 -1.877429 -6.0880966 -4.1849604 2.4363706 -0.74337816 -1.7864014 -3.1617548
00000000: 0d8a ab40 9f38 6c40 b89e 2e40 b59e 4b40
00000010: 1300 48be ae03 0ec1 66ed a3bf ec73 ccbe
00000020: 87a9 edc0 7be8 b63f 2970 1a41 7ec4 093f
00000030: e527 7e41 4998 17c0 0aa7 88bf 7362 3cc0
00000040: df34 3ac0 f257 abc0 fbc2 84c0 641f 8fbf
00000050: 67b4 5240 788c 0941 dc20 373e 09a9 25c1
00000060: 5e15 b6be 9d3a 1cc0 fae5 56c0 27b3 b83f
00000070: e14e 8940 5bcd 48bf 8557 c93f 61ab a6c0
00000080: 496d d93f 0406 b240 203d 8dbd 3e68 9440
00000090: 86d4 95be 424e 583e 7c79 953e b34a 9e40
000000a0: 779d 4bbf 674f 15c0 3db6 a5bf 9b82 38be
000000b0: af7c 7d40 56aa b8bf 93a6 9bc0 020b 54c0
000000c0: 0144 903e bea1 e0bf 10b0 c0c0 b62b 6a40
000000d0: 9dda d43f 299f 1d40 5cdc 41bf 024b d9c0
000000e0: 5d06 a6c0 6d7d 433f bb77 7040 b11d b7c1
000000f0: 1972 debf d93f 7fbf b2d3 bdbf b74c 07bf
00000100: 10a1 f740 3845 a73f ce6e 43c0 f5dc dbbf
00000110: 2c32 c5bf 266a ac3d 4713 13c0 7691 9441
00000120: aa83 82c0 cb72 af40 c627 0ebf 6a37 2540
00000130: cb20 d640 d404 4340 61f5 5940 948b 25c0
00000140: dac1 21bf 2ddb 16c1 0a8a 3bc0 0079 adc0
00000150: 3e82 12c1 419c fe40 1484 4c40 30b7 0641
00000160: d30c fcc0 af64 6d3f 1b30 5cc0 f07e 7ebf
00000170: 82a1 3241 e92b c4bf 34d5 adc0 e34b 8ec0
00000180: 3328 00c0 cb6a 01c1 ceed 83c1 1515 4841
00000190: 9fee dabf 2c2d a0bf 9d95 00c0 9b97 a0c0
000001a0: 770f c33f c80a 7440 7516 d13d 09cf 563f
000001b0: 3ed3 58bd fa8c 493d bf7f 8f3e be4d 97c0
000001c0: 642a af3f 49b1 8940 ac34 8fbe eb71 ca3f
000001d0: e7a9 4c40 c38a 91c0 e2b2 0c41 ae24 d840
000001e0: 2418 cf3f a955 19c0 2ff5 543f 6fec 0441
000001f0: ae22 8240 458e e03f bf20 2040 10f3 88c0
00000200: 68dd 8abd 64bd 1640 f4da 4840 d1bd 9cbf
00000210: 9b97 db3b 6843 7ac0 aaba 783f 8ba8 b840
00000220: 2cdb f83f 7092 adbf cbc5 6abf b099 253e
00000230: 521e 0f3f 2c15 4c3f 620b ef3f 449c 9fbf
00000240: d675 3140 b100 26c0 ad4f 4b40 2a54 27c0
00000250: bc75 5140 3770 c73f 8be6 893f 11c9 0140
00000260: 0be5 57c0 968f fd3e c36a 1f40 f9d4 8340
00000270: bb1d 893e 0676 f8be 15a4 48c0 f1aa aa3f
00000280: 33cf ad40 dbbe 0f40 ffa8 9bbf c929 88bf
00000290: dd0a d83e be74 733f 1ffe 373e ff52 d43f
000002a0: 8233 bdbf 846e e73e fa0d 2fc0 9ced 4e40
000002b0: f6ea 2ec0 3638 5340 d907 e53f d561 8b3e
000002c0: 4698 2640 0535 9ac0 55ef 4d3f 7a9a 4b40
000002d0: 2b10 3740 8373 21be 405f 9abe 4133 40c0
000002e0: 990e fb3f 4b5f ad40 6e3a ca3f d06f a9be
000002f0: b26e 28bf e4c1 023f d7d6 6b3f 272b 06bf
00000300: e44c f23f 8407 493e 3082 87be a3bf 3bc0
00000310: 1f28 0040 f1a9 13c0 1454 a140 2f8b 0940
00000320: 3c69 ca3f dd76 d43f 6389 59c0 6c44 3e3f
00000330: 6e58 0640 7fd9 8340 08c7 f4be a3c2 5bbe
00000340: 8c67 53c0 fd89 b23f 3bc9 b740 711e 0f40
00000350: 843f f5bf 2e55 82bf 8e00 2e3e 1fc5 2d3f
00000360: 43a9 71bd 19e4 e33f a0e1 fdbf e3ec 1740
00000370: ba1d 29c0 3a12 5240 5703 2dc0 87fa 4140
00000380: ccc8 c73f d41d 73c0 3c53 db3f f580 5840
00000390: 2771 3f3e 3e7f 35c0 5ba7 edc0 5c2b 9fbf
000003a0: 86c5 ee3f 8797 6540 d75e 89c1 9176 92c0
000003b0: b2ec 943f 6618 d5bf 9615 b5bf 6ec6 a33f
000003c0: d1c5 8dbf e5eb 23c0 8509 2dc0 3cfd 3f3f
000003d0: aa91 21be 683f 51c0 329b a341 988c ccbf
000003e0: 6eda 9340 984f f0bf b0d1 c2c0 32eb 85c0
000003f0: 7fed 1b40 084e 3ebf cda8 e4bf 315a 4ac0

fc.bias f4 [27]
-2.00663 -1.3442637 -2.5373173 1.0530995 0.6703609 1.1237054 0.40599215 0.51690847
0.2686087 -1.7480584 0.36316463 0.30251884 -2.7085876 -0.1917513 -1.2899246 -0.8631738
-1.7595689 -1.9408859 0.11806943 -1.1400965 2.4202929 1.987923 2.1719604 -0.14315124
1.9427799 -1.8669124 -2.3742404
00000000: a06c 00c0 d510 acbf 6863 22c0 f7cb 863f
00000010: c69c 2b3f 94d5 8f3f 34de cf3e 1d54 043f
00000020: 1487 893e 61c0 dfbf b7f0 b93e c0e3 9a3e
00000030: 8059 2dc0 745a 44be 401c a5bf f5f8 5cbf
00000040: 8e39 e1bf f36e f8bf 63ce f13d afee 91bf
00000050: 14e6 1a40 4374 fe3f 6601 0b40 3d96 12be
00000060: 03ad f83f fcf6 eebf 8ef3 17c0
