CNN-based-IoT-Device-Identification-main/cnn_gru_66.74.pth (torch, 26523 bytes, 8 tensors)

conv1.weight f4 [128, 5, 5]
000000 d6 27 8f bd b5 e8 37 bd 5d e5 a9 40 6a e3 c2 41
       -0.0699002 -0.04489966 5.3092484 24.361042
000010 52 32 11 c1 a0 21 18 3e 6c 4e 1b 42 3b b5 28 40
       -9.074785 0.14856577 38.826584 2.6360614
000020 f4 bf e6 bc 9e bd 51 42 0d 1e f6 3f bc 7e cc 41
       -0.028167702 52.435173 1.9227921 25.561882
000030 d8 3e ce 41 e1 1e 2e c1 06 0f 69 3f ff 61 e5 40
       25.780685 -10.882539 0.9103855 7.1682124
000040 fb dc 98 c0 68 79 6f 41 16 b3 ad c1 cd e5 70 41
       -4.776975 14.96714 -21.712444 15.056104
000050 83 77 75 41 9f a7 a0 41 0d 12 88 3d 04 6e 1c 41
       15.341678 20.081846 0.06644068 9.776859
000060 5d 2b a2 bf 0a a8 4f bf 14 6c e4 3e bd 73 c5 40
       -1.2669483 -0.8111578 0.44613707 6.170378
000070 fb 22 46 41 7d 35 be bf da 81 46 3e d4 0e f5 40
       12.38354 -1.4860073 0.19385472 7.65806
000080 01 32 12 41 49 df 35 3d 37 4b f5 41 2b a7 24 c0
       9.137208 0.044402394 30.661726 -2.5727031
000090 f5 e0 a0 41 5e 25 a1 41 fd 08 13 c1 d7 bf 50 40
       20.109842 20.143246 -9.189694 3.261709
0000a0 14 22 18 41 74 b1 80 c0 e7 8f 69 40 06 16 87 c0
       9.50832 -4.0216618 3.649408 -4.2214384
0000b0 a8 9b 5d 40 7e 63 39 40 98 95 ad 3f cb be 14 bf
       3.4626255 2.8966975 1.3561277 -0.58103627
0000c0 c6 70 4d 40 bf a1 47 bf 71 5b b8 3f 87 31 03 3f
       3.2100081 -0.7798118 1.4402906 0.5124745
0000d0 3d 4f 60 40 99 c1 37 41 a3 9c 96 3f cd 34 d3 3c
       3.5048363 11.484765 1.1766552 0.025782013
0000e0 45 8a 2b 41 f8 3d d3 40 58 f9 e3 bf 03 61 2b 42
       10.721257 6.6013145 -1.7810469 42.844738
0000f0 e4 e0 e9 40 8a 27 52 be fe 2a b8 be 0d d1 3b c1
       7.3087025 -0.20522895 -0.359703 -11.738538
000100 6b ca 5b 40 c0 1e 12 41 dc bd f2 c0 53 63 91 40
       3.4342296 9.132507 -7.585676 4.5433745
000110 56 b5 9a be 09 03 98 40 d0 09 11 c0 7c 81 d1 40
       -0.30216473 4.7503705 -2.266224 6.547056
000120 b5 1c 19 bf 2a d6 0b 40 d2 5d c7 bf 12 f8 a1 3f
       -0.5980943 2.1849465 -1.5575507 1.265383
000130 dc 9e 61 bf 0e e9 a7 40 c6 5e 1c 40 44 ff 8d 3f
       -0.88133025 5.247199 2.4432845 1.1093526
000140 87 8c 42 be d8 a9 70 3f 1f 1b 80 40 25 56 3e 40
       -0.1899892 0.9400916 4.0033107 2.9740078
000150 fd f6 60 c0 c4 43 ef 3f 8f 86 6c c0 6c 0a 65 c0
       -3.515075 1.8692555 -3.6957128 -3.578761
000160 da 1e 1c c1 5e b1 01 3f 37 99 9f 40 45 fb 90 c0
       -9.757532 0.50661266 4.987453 -4.5306726
000170 28 b5 ab 3f 9e 81 8e c0 b2 92 86 3f 19 fe a9 40
       1.341466 -4.4533224 1.0513518 5.312268
000180 6a 06 a6 c0 3d 23 ab 3d 79 59 25 40 98 03 35 40
       -5.188283 0.083563305 2.583586 2.8283443
000190 d9 bf 97 bf 1c 32 db bf 15 f6 c2 3f 92 8d a8 3f
       -1.1855422 -1.7124667 1.5231348 1.3168204
0001a0 60 ac 36 3f f8 ee 4b 3e 65 0c 94 bf 3d b2 c3 3e
       0.71356773 0.19915378 -1.1566283 0.38221923
0001b0 87 71 31 bf 03 74 6a 40 ff 86 aa c0 d4 55 67 40
       -0.69313854 3.6633308 -5.328979 3.6146135
0001c0 c6 5c 50 40 3f 37 ad 3e b2 2d b0 3f d4 6e cc 3f
       3.2556624 0.33831212 1.3763945 1.5971322
0001d0 3a c1 e7 c0 97 ca 22 3f f4 46 84 c0 62 18 eb 3e
       -7.242337 0.6359038 -4.1336613 0.4591704
0001e0 11 11 da 3f 81 2b 15 c0 8f d1 f7 3f 6c c9 21 3d
       1.7036458 -2.3307803 1.9360827 0.03949873
0001f0 91 bb 46 bf 4b 8d dc bf 2c ce d1 bf d5 d5 c6 be
       -0.77629954 -1.7230619 -1.6391044 -0.38835016
000200 c1 a6 3e 40 49 25 a9 3f 65 22 07 3e 2f ff f1 3f
       2.9789279 1.3214504 0.13196714 1.8906001
000210 91 ed 1f 40 f4 e9 ed be 2d 54 f6 40 ce 82 27 c0
       2.498875 -0.46467555 7.6977754 -2.6173587
000220 79 05 da 3f d5 8f ee 3f 8b 33 12 c0 e3 b5 ef 3f
       1.703292 1.8637644 -2.284396 1.8727382
000230 af 52 1b 40 5b 57 aa c0 2e d5 b5 3d 6a f6 34 c0
       2.4269216 -5.3231635 0.088785514 -2.82754
000240 05 6e 33 3d 62 73 8b 40 83 f9 28 bf 16 81 90 3f
       0.043806095 4.357835 -0.66005725 1.1289394
000250 77 c5 be bd f2 78 a1 bf c7 9f 17 bd 7b e6 36 c0
       -0.09315007 -1.2615035 -0.03701761 -2.8578174
000260 3a 6a aa 3f b7 83 93 3f 7e df 0f 40 7d 05 1c 3e
       1.3313668 1.1524571 2.2480159 0.15236469
000270 35 ad a6 3f f2 0b 3a bb 02 a7 97 3f 11 05 c7 40
       1.3021609 -0.0028388468 1.1847842 6.2193685
000280 e8 30 b5 3e 83 fe b7 40 b9 fe b4 40 8f fa 05 41
       0.35388875 5.7498183 5.656094 8.373672
000290 f8 ea ab bf 02 f4 9a c0 ff 3e 0b c1 1b e1 42 3f
       -1.3431082 -4.842286 -8.70288 0.76124734
0002a0 2e f0 42 c0 ee 4c 5a 3f 45 e8 c4 3f af e4 96 bf
       -3.0459094 0.85273635 1.5383383 -1.1788539
0002b0 98 9f 2e bf dc ca 91 bf 73 ca a3 bf 97 96 07 bf
       -0.6821227 -1.1390033 -1.2796158 -0.52964157
0002c0 31 e9 15 c0 de 2f eb 3f 36 d1 25 40 e8 2e 9b bf
       -2.3423579 1.8373983 2.5908942 -1.212369
0002d0 a3 b8 d4 bd b0 bd 07 bf 6f 0f 95 40 2e 7b 3c bf
       -0.10386779 -0.53023815 4.658134 -0.7362546
0002e0 45 30 9a 40 01 60 bc be 6f f5 d2 40 6a 1e d9 40
       4.8183923 -0.36791995 6.59246 6.7849627
0002f0 a1 4d b6 bf 0a 4a 98 3f 85 b4 00 41 b9 17 40 c0
       -1.424244 1.1897595 8.044072 -3.001448
000300 cf b6 0b c0 bc 4d d5 bf 36 66 06 c0 f8 f0 44 40
       -2.1830328 -1.6664348 -2.0999885 3.0772076
000310 06 34 06 40 3a 34 0e 40 86 f4 99 bf 8d 71 d3 bf
       2.0969253 2.2219377 -1.2027748 -1.6519028
000320 ee f3 61 bf 96 05 32 c0 b9 21 c0 3f 03 f9 2c 40
       -0.8826283 -2.781591 1.5010291 2.7026985
000330 49 0c 40 c0 fa a5 a0 3d 30 32 0d 40 3c 82 f0 3e
       -3.0007498 0.078441575 2.2061882 0.4697436
000340 fe ac 18 40 77 20 0f 41 48 f9 6a c0 a1 81 dc 40
       2.3855586 8.945426 -3.671465 6.890824
000350 b5 87 d7 40 62 73 0d 40 1e 20 13 c0 17 8a 00 c0
       6.735316 2.2101674 -2.2988353 -2.0084283
000360 bf 89 96 c0 93 b4 34 be 2e 4a 7e c0 a1 bc ab be
       -4.7043147 -0.17647009 -3.9732776 -0.3354235
000370 3e c4 9c 40 70 b4 6e 40 92 eb 03 bf d0 46 1f c0
       4.8989553 3.729763 -0.51531327 -2.488697
000380 8c b9 53 c0 1b 06 15 40 fa 23 8b 3e 49 f0 26 bd
       -3.3082 2.3284976 0.27175885 -0.040756498
000390 21 09 14 bf 66 22 14 bf c3 f9 9b bd 08 ad 10 c0
       -0.5782643 -0.5786499 -0.07615998 -2.260561
0003a0 3b cc 4c bf ec 56 b7 bf 80 80 c8 40 6a 01 9c c0
       -0.7999913 -1.4323401 6.265686 -4.8751726
0003b0 75 7c e1 40 9c ea e2 40 e1 9e 9d 3f c3 0e 4b c0
       7.0464425 7.091139 1.2314111 -3.172776
0003c0 ae bb 3b 40 91 9b d5 c0 4e 41 1d bf 45 88 ab be
       2.93333 -6.67524 -0.6142777 -0.33502403
0003d0 da 29 0a bf 7c 1b a9 be 7b 52 a4 bf 4e b3 b3 3f
       -0.5397011 -0.3302878 -1.2837671 1.4039094
0003e0 26 df 9f bf 1f ba db bf 00 34 16 3f 1c 4e 8e 3e
       -1.2489974 -1.7166175 0.58673096 0.27793968
0003f0 b6 f5 0e 3f c0 20 47 3f 1a 00 2e c0 0d dd a3 3d
       0.55843675 0.7778435 -2.7187562 0.080011465

conv1.bias f4 [128]
000000 04 11 b3 bd 88 46 20 3f 53 0b fe 3d ef bf 79 3f
       -0.0874348 0.6260762 0.12404504 0.9755849
000010 da f8 84 3f e4 33 6d 3f 18 28 1c 3e ef d7 eb 3f
       1.0388443 0.92657304 0.1524967 1.8425273
000020 0c 4a 36 bf 4a a7 fd 3f 7d 7e 61 3c aa 37 0d 3f
       -0.71206737 1.9816678 0.013763067 0.5516306
000030 67 8f 0f 40 64 cf c2 bd 9a a0 e7 3e 90 8f 1e bf
       2.2431276 -0.09512213 0.45239717 -0.6193781
000040 af 89 22 3f de 5e b9 3f 39 bb ad 3f d6 e1 8e 3f
       0.6349134 1.4482076 1.3572761 1.116267
000050 32 bc cf 3f 0d 23 19 3e ff 3d 54 3f d8 cb c6 3e
       1.6229308 0.14954777 0.829071 0.38827395
000060 11 5b 23 40 88 e3 08 40 73 b0 5e 3f 2a 75 7c be
       2.5524333 2.1388874 0.8698799 -0.2465407
000070 a8 88 ae 3f f1 21 f0 bf ce 00 5d 3f c5 9d ff 3e
       1.3635454 -1.8760358 0.8632935 0.49925056
000080 37 49 34 3f 10 c3 88 bf f2 3b 0d 40 d5 33 22 40
       0.70424217 -1.0684528 2.2067838 2.5344136
000090 1b 36 ba 3f 65 86 0c 3d 78 22 11 3f f4 b6 1f 3e
       1.4547762 0.034307856 0.5669322 0.15597135
0000a0 7a f2 7a 3e d1 f4 ba 3e b9 e2 b5 bd 0c 41 7f 3f
       0.2450656 0.36514905 -0.088811345 0.9970863
0000b0 36 54 74 3f 50 8b 19 3f d7 47 8a 3f 1f f8 35 3f
       0.95440996 0.599782 1.0803174 0.7108173
0000c0 e6 b6 d8 3f 15 3c ce 3e 82 30 c7 3f ef b1 03 3f
       1.6930816 0.40280214 1.5561678 0.5144338
0000d0 e1 e8 54 3f 4b d6 1c 40 44 b0 05 40 28 e1 87 3f
       0.83167845 2.4505794 2.0888834 1.0615587
0000e0 93 99 21 40 f0 0a 15 3e d0 42 06 40 5f 3a 67 3f
       2.5249984 0.14554954 2.097828 0.9032344
0000f0 20 14 6e 3e 2e 25 43 40 3a 15 23 3e a6 67 cb 3e
       0.23249865 3.0491443 0.15926066 0.39727515
000100 d8 c1 07 40 93 9c 87 bf fa 2f 2e bf e2 95 98 3f
       2.1212063 -1.0594658 -0.68041956 1.1920741
000110 c4 12 59 3e e7 ee 0a be f1 1a 63 3f d2 77 85 3f
       0.21198565 -0.13567697 0.88712984 1.0427191
000120 80 77 9b bf a1 53 ee 3e 0b 00 1a 3f 73 db 2c 3d
       -1.2145844 0.4654818 0.60156316 0.04220147
000130 ec 39 da 3f 3d 90 d1 3f ea 37 16 40 67 38 3f bf
       1.7048926 1.6372143 2.3471627 -0.7469544
000140 d4 8f 0d 3f 94 00 44 40 70 2a 7f be af eb b6 3f
       0.5529759 3.0625353 -0.24918532 1.4290675
000150 bb 40 c1 3f be 20 c5 3e 4f 4a b1 3f b1 e6 72 40
       1.5097879 0.38501543 1.3850802 3.7953303
000160 91 36 91 3f 60 76 97 bf c6 37 60 40 26 3b 3d bf
       1.1344777 -1.1833 3.5034041 -0.7391838
000170 6b 00 85 3f de c7 be 3f ee 4c 7d bd 6d cf 3f 3e
       1.0390753 1.4904745 -0.061840944 0.1873147
000180 8c 15 e7 3e 37 c5 90 3f ca 0f 93 bd 78 98 9c 3e
       0.45133626 1.1310185 -0.07180746 0.30585074
000190 32 96 4a 3f fe b2 50 bd ed 9a bf bc 36 e0 bd be
       0.7913543 -0.05095195 -0.023389304 -0.37085122
0001a0 1f bc a2 3e ea ee e3 3f 02 e9 84 bf 75 95 45 be
       0.3178415 1.7807286 -1.0383608 -0.19295295
0001b0 ac 9c b0 3e e1 12 85 3f 4d 93 d9 3f 49 86 4f be
       0.3449453 1.0396386 1.6998078 -0.2026607
0001c0 05 c0 3c 3d a4 d3 ab 3e d7 de 7d 3d 3d 88 c3 be
       0.04608156 0.33559906 0.061980095 -0.3818988
0001d0 ae 8a 1f 3e 36 2f 08 bf df 99 73 3e 4b 1e 67 3e
       0.15580246 -0.5319704 0.23789166 0.2257015
0001e0 63 4a ec bd 70 4d 6a be 63 69 eb bd 1c 61 9e 3d
       -0.11537626 -0.22881103 -0.1149471 0.07733366
0001f0 13 04 2d be 14 74 58 bd 80 29 c0 be 64 0b 03 bd
       -0.16896085 -0.052845076 -0.37531662 -0.031993285

gru.weight_ih_l0 f4 [75, 1]
000000 73 ab fb 3f c2 02 21 40 cb 9e 8b 40 a3 8e 97 3f
       1.9661697 2.5157933 4.363134 1.1840404
000010 9d 2c 29 c0 fe 05 00 be cc 1d 36 c0 6e f7 29 40
       -2.643348 -0.12502286 -2.8455687 2.655727
000020 91 d3 1a 40 93 8d f6 bf a7 6d 97 40 c8 12 e5 3f
       2.419163 -1.9261955 4.7321353 1.7896357
000030 fb 7a 31 bf fe 19 08 40 f4 10 9a be 0a 71 b9 bf
       -0.6932828 2.1265864 -0.3009106 -1.4487622
000040 b6 03 d2 3f 0c 3e b4 3f 93 54 41 bf 82 b7 b0 bf
       1.6407382 1.4081435 -0.75519675 -1.3806002
000050 ba e0 3e 3f bf 7f 99 40 37 e0 c8 3f 22 db 38 c0
       0.74561656 4.796844 1.5693425 -2.8883748
000060 92 00 31 3f 9d 22 76 40 57 ac 08 c0 1e 6d 12 bf
       0.69141495 3.8458626 -2.1355188 -0.5719775
000070 98 de fc 3c 81 3a 32 40 30 56 fb bf 0f 9d 3e 40
       0.03086786 2.7848208 -1.9635677 2.978336
000080 43 c8 eb be d4 5a 49 3f 8d 91 c0 bf 96 45 ea 3b
       -0.46051225 0.7865422 -1.5044419 0.0071494086
000090 72 29 c3 be 77 f6 aa 3f 25 f3 9f bf 93 24 1c 40
       -0.38117558 1.3356465 -1.2496077 2.4397323
0000a0 9a a2 e0 bf 14 d4 01 40 b5 95 54 c0 4e 73 20 bf
       -1.7549622 2.0285692 -3.3216374 -0.6267594
0000b0 76 d8 55 bf 94 42 03 3f 58 11 8a 3f 6d 50 e5 bf
       -0.8353342 0.51273465 1.0786543 -1.7915169
0000c0 19 2a ab bf 04 fe af bf dd 16 b5 3e 5a f0 0d 40
       -1.3372222 -1.3749394 0.35369006 2.217795
0000d0 d1 e4 4c be 49 45 f9 bf 7d c4 85 3f de e9 af bf
       -0.20009162 -1.9474269 1.0450588 -1.3743246
0000e0 69 65 4b bf 70 07 25 c0 37 12 d3 bf af a6 5a bf
       -0.79451615 -2.578579 -1.6489934 -0.8541059
0000f0 a9 04 c8 c0 b1 bc c8 bf 80 cf 33 bf 40 f5 d5 3f
       -6.250569 -1.5682584 -0.70238495 1.6715469
000100 9b d4 0c 3e fe 54 0f c0 d3 0b 2f 3f 17 3a 69 40
       0.13752978 -2.2395625 0.6837742 3.6441705
000110 dc e4 69 40 d8 9c b2 be 1b d0 38 41 28 09 90 be
       3.6545935 -0.34885287 11.550807 -0.28131986
000120 60 88 59 c0 bc 7c 51 c0 3d 1f 91 bf
       -3.3989487 -3.2732382 -1.1337658

gru.weight_hh_l0 f4 [75, 25]
000000 2e ec 51 bf 44 ad 4b bf 86 d0 e3 3e 3c d3 4f 40
       -0.82001007 -0.7956126 0.44495028 3.2472677
000010 8c bb 88 bf 5c c5 ae 3e ce 73 34 bf 86 28 f9 3f
       -1.0682235 0.34134948 -0.70489204 1.9465492
000020 53 ec 82 bd b6 4b a5 3f ed 13 21 3e 90 1e db 3f
       -0.063927315 1.291373 0.15730257 1.7118702
000030 d8 31 d0 3f 11 a4 12 bf 1f 57 2b c0 7b dd 22 40
       1.6265211 -0.57281595 -2.6771924 2.544768
000040 85 c3 87 3e bc 9b 4a 3e b0 f5 3e 40 5e ff 12 bf
       0.26516357 0.1978597 2.9837456 -0.5742091
000050 39 c7 57 c0 68 bb 99 bf 7f 97 84 bf ba 1e 71 3f
       -3.3715346 -1.2010317 -1.0358733 0.9418751
000060 79 65 b3 3f 34 1e be be 18 21 21 3f 41 57 91 3f
       1.4015342 -0.37132418 0.6294112 1.1354753
000070 00 68 8a bf 98 f8 88 3f 2a 44 9d bf 90 00 2c 3f
       -1.0812988 1.0700865 -1.2286427 0.6718836
000080 ab 49 24 bf 70 ac 83 bd 2f 6e ef bf 3e 5a 57 bf
       -0.6417491 -0.06429374 -1.87055 -0.84122074
000090 c2 5c 2d c0 1f 89 b6 3e 7b 85 d5 40 a3 94 39 be
       -2.7087865 0.3565149 6.672544 -0.18123107
0000a0 e7 70 91 c0 2f a8 5f 3f c9 33 9a be 10 2a 2d be
       -4.545032 0.87366 -0.30117634 -0.16910577
0000b0 0c 05 e8 3e 90 f9 34 3f ff f1 98 3d e1 ed 5e 3f
       0.4531635 0.706933 0.07468032 0.87081724
0000c0 a9 f0 b3 3d de d6 03 bf 23 31 8e be 43 4f 85 bf
       0.08786137 -0.51499736 -0.27771863 -1.0414814
0000d0 a6 d5 c6 be 41 68 e3 bf b7 78 9f bf 0e bb 60 3f
       -0.38834876 -1.7766191 -1.2458714 0.8778542
0000e0 3c fb b0 3e 5f 87 e7 be 67 a7 93 3e c6 5d cf bf
       0.34566677 -0.45220467 0.28838655 -1.6200492
0000f0 d0 30 aa 3e f4 9f e2 bf f0 1a 28 bf 4e 4e fb 3f
       0.33240366 -1.7705064 -0.65666103 1.9633272
000100 de 0d 8e be 14 04 72 3f b1 6a 56 3f cd ae 86 bf
       -0.27744955 0.9453747 0.8375655 -1.0522095
000110 1f b9 c2 40 84 86 00 c0 de ed 84 3f 19 4a a6 c0
       6.085098 -2.0082102 1.0385091 -5.196545
000120 5f b1 53 3e bc 22 97 3f 85 87 29 be f7 7b 4f 40
       0.2067313 1.1807475 -0.16555603 3.2419412
000130 90 78 4d 3e 99 51 3c bf f2 d0 88 be c2 12 fc 3f
       0.20065522 -0.7356201 -0.26721913 1.9693224
000140 a1 3e 91 3d 1b 5f cf 3f 7f be 26 bf 95 91 fa 3e
       0.07092024 1.6200899 -0.65134424 0.48939195
000150 4d 44 28 40 c3 0b 04 c0 b9 ce 8e bf c5 29 28 bf
       2.6291687 -2.0632179 -1.1156837 -0.65688735
000160 f2 ec 7d 3f 6e e2 d4 3f e8 14 b7 bf 4d b2 8a bf
       0.99189675 1.6631601 -1.4303255 -1.0835663
000170 52 1b 93 3e 2a d7 e6 bf ac a8 73 3f 95 0b 5d 40
       0.2873178 -1.8034413 0.9517925 3.453832
000180 e8 c4 5d bf 96 4b c1 be 87 8d 96 bf e3 16 df 3d
       -0.8662858 -0.3775298 -1.1761941 0.10893037
000190 c7 21 16 bf 3c cf 88 3e 2c 54 19 3e 27 a0 ba bf
       -0.5864529 0.26720607 0.14973515 -1.4580125
0001a0 e9 c8 c6 3f db 31 70 3e 1e 72 32 40 24 b3 30 bf
       1.5530063 0.23456518 2.7882152 -0.69023347
0001b0 38 3f 03 c0 09 05 26 c0 f6 73 b0 bf a7 bf 00 be
       -2.0507336 -2.5940573 -1.3785388 -0.1257311
0001c0 7c b8 c3 bf 88 16 10 3d 16 71 18 3e 37 3d a6 bf
       -1.5290675 0.035177737 0.14886889 -1.2987431
0001d0 1f e5 0f 3f 06 3e 58 3f 98 83 25 c0 29 50 19 3f
       0.56208986 0.8446964 -2.5861568 0.5988794
0001e0 e1 3d 48 40 d4 1a 93 bf 30 d2 ee bd 84 4f 8e 3f
       3.1287768 -1.1492562 -0.11661184 1.1118016
0001f0 75 e5 df 3f 3d a6 3a c0 3c e4 82 bf cd 4e 5d c0
       1.74919 -2.9163964 -1.0225902 -3.4579346
000200 16 bb 4d bf b1 a4 9f bf d6 b7 08 3e 2b a7 d4 bd
       -0.80363595 -1.2472135 0.13351378 -0.10383447
000210 f9 a8 a6 bf 9b c7 01 bf ff 04 d7 bf 27 c7 62 3f
       -1.3020316 -0.506952 -1.67984 0.8858513
000220 57 b9 27 3e 9c 7a a5 3f 61 0f 09 3e f7 cf 12 bf
       0.16379295 1.2928042 0.13384773 -0.5734858
000230 76 e9 28 3d f3 df c1 3f fa d6 a5 bb f4 81 7e 40
       0.04123827 1.5146469 -0.0050610276 3.9766817
000240 a1 1e b9 bf 28 55 8c 3f 46 85 4b c0 8c ff 43 3c
       -1.4462472 1.0963488 -3.1800094 0.011962783
000250 23 70 53 3e 60 97 ae 3f 04 6c 23 3f 46 f8 b8 3f
       0.20648246 1.3639946 0.63836694 1.4450767
000260 79 38 90 bf 2f dc b3 bf fb db 9d bf df 21 de bf
       -1.1267234 -1.405157 -1.2332758 -1.7354087
000270 b2 cd 2b c0 8d 8c 31 bf 53 4a cd 3f 80 54 d3 be
       -2.6844296 -0.6935509 1.6038307 -0.41275406
000280 d2 57 c9 bf e7 be c7 bf 0b 23 43 3f 5a 39 85 3f
       -1.5729926 -1.5605134 0.76225346 1.0408127
000290 5c 6b 01 40 0e 81 0c c0 88 db 5e bf 64 c3 98 3f
       2.0221777 -2.1953769 -0.8705373 1.1934628
0002a0 d4 79 81 3f ef ef 81 bf f5 92 1a 3f d0 46 7d 3e
       1.0115304 -1.0151347 0.6038049 0.24734044
0002b0 5f 83 27 c0 6f c6 70 3f 6a 5d 89 bf 92 ab a3 bf
       -2.6173933 0.94052786 -1.0731633 -1.2786734
0002c0 79 6e 36 3f 34 21 05 bf 34 38 e7 3e 25 72 b1 3e
       0.7126232 -0.5200379 0.45160067 0.34657398
0002d0 b3 7a 26 bc 7e 45 8b bf 4c db 8c be 38 0b 05 bf
       -0.01016109 -1.0880582 -0.2751106 -0.51970243
0002e0 22 db 64 3c a7 24 71 bc 1d ef 35 c0 8c d3 8c 3f
       0.013968261 -0.014718211 -2.8427193 1.1002059
0002f0 e9 cf 20 40 82 f6 de 3e 4c 19 03 c0 7d a8 e4 bf
       2.5126898 0.43547446 -2.048419 -1.7863919
000300 9b b8 1e 3f cc c1 cd 3e f1 b9 97 3e 68 c2 1d 40
       0.62000436 0.40186918 0.2963405 2.4649906
000310 fc e0 38 3f bf c8 ab 3e 5e 1a de bf 6d 4a eb bd
       0.722183 0.33551595 -1.7351797 -0.11488805
000320 c4 1e 94 3f 61 d8 95 3f 0a 17 98 bf ec 38 d1 3d
       1.1571889 1.1706659 -1.1882031 0.10215935
000330 d8 63 bf 3d 36 cc c8 bf 49 04 cd bc 4a 53 5b be
       0.093452156 -1.568732 -0.025026457 -0.21418491
000340 89 67 35 bf 07 49 ca 3f ac b8 fc 3f fa cb 38 bf
       -0.7086111 1.5803536 1.9743857 -0.72186244
000350 e8 83 ae 3f 80 14 46 3e b4 d4 ac 3e 3c e8 65 3f
       1.3634005 0.19343758 0.3375603 0.89807487
000360 f3 6f 8b bf 92 db 0f 3f 43 44 d5 c0 05 4c 85 3f
       -1.0893539 0.5619441 -6.6645827 1.0413824
000370 86 88 0c c0 6d 9e 00 c0 b6 6a b6 bf 8b b7 38 40
       -2.1958327 -2.0096695 -1.4251316 2.8862026
000380 18 b8 7e bf 45 65 53 3f e5 97 a9 be 68 17 19 40
       -0.99499655 0.825764 -0.331237 2.3920536
000390 06 ca fc bf b0 e5 ed 3f 38 58 25 40 64 ea 24 c0
       -1.9749153 1.858572 2.5835094 -2.576806
0003a0 98 82 fa bd 65 d0 28 c0 99 97 d9 3e 30 09 85 bd
       -0.1223194 -2.6377194 0.42498472 -0.06495893
0003b0 c1 e9 50 bf ef fa 83 be 51 af c9 bd 7d ec 4b bf
       -0.8160668 -0.25777385 -0.09847892 -0.7965773
0003c0 4c 12 9b 3f f7 72 8d be d0 b3 32 bf 2a 64 e0 bf
       1.2114959 -0.27626774 -0.6980562 -1.7530568
0003d0 6a f3 0f c0 6f 81 83 3e 52 02 73 40 05 77 58 bf
       -2.2492318 0.25684687 3.7970166 -0.8455661
0003e0 04 bc ef 3f a9 d7 f6 bd 75 0f 13 40 23 78 62 bf
       1.8729253 -0.12052853 2.2978184 -0.88464564
0003f0 bf 9c 4d bf 7f 67 8d 3f 8c 68 7f 3f 35 40 07 40
       -0.803173 1.104721 0.997689 2.113294

gru.bias_ih_l0 f4 [75]
000000 66 c0 eb 3e ef aa 35 3e f5 b2 4e be b5 9b 05 bf
       0.46045226 0.17740987 -0.20185454 -0.52190715
000010 84 8d f9 bf d7 77 7a bf 45 4e 52 3f 6a 95 0d bf
       -1.9496312 -0.9783911 0.8215068 -0.5530611
000020 51 00 bb 3f fe 3f d6 bf f9 8e 11 bf 71 35 d2 bf
       1.4609472 -1.6738279 -0.56858784 -1.6422559
000030 64 96 04 bf 33 67 b6 be 70 5b 73 3e 55 fc e0 bf
       -0.5179198 -0.3562561 0.2376535 -1.7577006
000040 b1 7b c6 3e 41 b0 bf 3f ce 72 99 3f 30 1e df be
       0.38766244 1.4975663 1.1988161 -0.4357772
000050 9a 0b 70 bf 21 d3 0d 3e 01 fe 52 bf 1c ad 91 bf
       -0.937677 0.1385007 -0.8241883 -1.1380954
000060 9d 3b 8f bf 1f 30 a2 bf 9d 67 a7 3d 8a 06 73 3f
       -1.1190068 -1.2670935 0.081740595 0.9493185
000070 d5 3c 7b bf 6f 0f e0 bf a5 c0 d8 3d 72 6f 9f bf
       -0.981397 -1.750471 0.10583619 -1.2455885
000080 ec dd 71 bf a9 7c a1 3f e3 bc 66 bd 71 44 b5 bf
       -0.9447925 1.2616168 -0.05633248 -1.4161512
000090 9c 3b 78 bf 8a 82 4b bf 23 10 99 3e d3 e5 cf 3e
       -0.96965957 -0.7949606 0.29895124 0.4060503
0000a0 11 68 d3 3d 99 27 03 bf 2f 1c 8e 3f 5f 34 59 be
       0.103225835 -0.51232296 1.1102351 -0.21211384
0000b0 3b 0a b9 3f e7 aa 2a c0 a5 15 b9 3f ed e7 79 be
       1.4456247 -2.666681 1.445973 -0.24404879
0000c0 02 13 b6 bf 84 e3 6b 3f 51 68 50 bf b1 13 8b 3f
       -1.4224551 0.92144036 -0.81409174 1.0865384
0000d0 f4 76 8f 3d e0 13 d0 be a9 57 13 3d f7 28 1b bf
       0.070051104 -0.40640163 0.03597227 -0.6060938
0000e0 fc b8 7b 3f 62 e2 28 be 49 1b 6b bf 19 49 e6 3e
       0.9832914 -0.16492608 -0.9183851 0.44977644
0000f0 43 c9 db be b2 08 42 3d 1a 82 b1 bc 68 20 b4 3f
       -0.42926988 0.047371574 -0.021668483 1.407239
000100 93 bf 01 bf a8 10 8b bf 24 f6 4e 3f 3f 62 79 bc
       -0.50682944 -1.0864458 0.8084433 -0.015221178
000110 3a d3 06 3f 85 7f 74 3f ee 7e 76 3f a9 c3 bb be
       0.52666056 0.9550708 0.9628743 -0.36672714
000120 f0 e1 d4 3d ae a0 4a bd 23 30 bf bd
       0.10394657 -0.049469642 -0.09335353

gru.bias_hh_l0 f4 [75]
000000 9f cf 42 3e 1c 1f ea bd d5 e6 6d 3c 89 34 f8 be
       0.19024514 -0.11431715 0.014520367 -0.4847758
000010 ec f6 f5 bf 3f 93 64 bf 96 9e 31 3f 2e 7d 1f bf
       -1.921598 -0.8928718 0.6938261 -0.62300384
000020 2a ff 9b 3f 73 25 df bf db c8 0a bf ba 9f b9 bf
       1.2187245 -1.7433304 -0.5421273 -1.450187
000030 9e 41 0c bf 0d ce ef be 78 de a1 3e 3f 40 d3 bf
       -0.54787624 -0.46836892 0.31615043 -1.6503981
000040 7c 22 c9 3e eb c4 dc 3f ca 13 8d 3f 55 b4 60 be
       0.39284122 1.7247595 1.1021664 -0.21943791
000050 77 75 87 bf d4 e8 e9 3e aa b4 67 bf ac 79 8a bf
       -1.0582722 0.45685446 -0.90510046 -1.0818381
000060 d7 d3 4b bf 95 9e bc bf 58 ae 0a be 2f 2a 88 3f
       -0.79620117 -1.4735895 -0.1354307 1.0637873
000070 71 23 39 bf 33 9d de bf e8 5c 4f 3e 8e 33 ad bf
       -0.72319704 -1.7391723 0.20250285 -1.3531358
000080 50 53 5d bf ed d3 9c 3f 39 90 0a 3e b6 87 d1 bf
       -0.8645525 1.2252175 0.13531579 -1.6369541
000090 f1 cb 58 bf f6 99 21 bf 44 7e 28 3e f7 3b 8f 3e
       -0.8468619 -0.6312555 0.16454417 0.27975437
0000a0 8b 92 10 3e 93 7d 2f bf cb 97 8f 3f 6c ad e1 3d
       0.14118402 -0.68550986 1.1218199 0.11019406
0000b0 13 a5 c3 3f 6a 3a 2a c0 df 88 c3 3f 06 63 ba bd
       1.5284752 -2.6598153 1.5276145 -0.091009185
0000c0 98 7c dc bf ce 35 5b 3f 14 2a 14 40 8f 48 a3 3f
       -1.7225523 0.85628974 2.3150682 1.2756518
0000d0 15 eb ed 3f 72 46 2a be c5 1c 81 bf 1c 45 55 bf
       1.8587366 -0.16628435 -1.0086905 -0.8330858
0000e0 11 1b 0e 40 67 40 29 bd 58 2b 0f 40 38 1a 89 3e
       2.220402 -0.041321184 2.2370205 0.26777816
0000f0 3e 3d 44 bf aa 62 80 bd 9c 4f 01 3e 95 8d bf be
       -0.7665595 -0.06268819 0.12628025 -0.37412706
000100 04 c2 12 3f b1 e1 2a 3e 2f 3e 46 3f 17 fa 1b 40
       0.57327294 0.16687657 0.77438635 2.4371393
000110 98 42 ca 3e 5f e5 08 c0 bf 08 ee bc a6 8f d8 be
       0.39503932 -2.1389997 -0.029056905 -0.42297095
000120 c6 60 a4 bf 64 b8 f7 be c2 8f 6b bf
       -1.2842033 -0.48382866 -0.9201623

fc.weight f4 [27, 25]
000000 42 48 54 40 fd 24 06 40 84 4a c0 be 68 7c fb 3f
       3.3169103 2.0960076 -0.3755685 1.9647341
000010 a2 2b cf bf 48 27 39 3e 51 47 f5 bf 0a 7e 1b c0
       -1.6185191 0.18081391 -1.9162389 -2.4295678
000020 fc b3 78 c0 8f d9 82 be 9f 23 04 bd f4 bc 72 40
       -3.8859854 -0.2555661 -0.032260533 3.7927828
000030 5a 06 f1 bf a5 68 66 bf e4 9c fb be d1 34 3d 40
       -1.8830063 -0.90003425 -0.49143136 2.9563487
000040 de b9 c7 3e 5e af 6f be 89 41 a0 40 0e 28 f7 bf
       0.39008993 -0.23406741 5.008 -1.9309099
000050 77 4d f2 bf 64 8a 12 c0 c6 5d 8c 3e ee 31 a8 bf
       -1.892989 -2.2896967 0.27415293 -1.3140237
000060 e7 f9 18 c0 18 9a a0 c0 09 dd 34 c0 16 13 31 c0
       -2.3902528 -5.0188103 -2.825991 -2.76679
000070 d1 58 28 c0 53 ac 64 40 1b ab ad 3e 10 ec d6 bd
       -2.630421 3.5730178 0.33919606 -0.10494244
000080 2d be 46 3f 3f db 20 40 f8 a5 29 40 17 66 b2 3f
       0.77633935 2.5133817 2.650755 1.3937405
000090 0d 37 8c 40 16 fb c5 3f 5c b9 df 3f 62 ba eb 3e
       4.38172 1.546725 1.7478442 0.46040636
0000a0 37 df 5a bf c3 02 02 3f ac e5 e1 3e 43 84 be bf
       -0.8549685 0.50785464 0.44120538 -1.4884113
0000b0 9e 41 34 bf c6 2a 40 40 b3 05 20 3f 57 e7 2b 40
       -0.70412624 3.0026107 0.62508696 2.6859949
0000c0 19 68 1a c0 62 41 04 40 d6 45 cf bf 55 41 87 be
       -2.4126036 2.0664907 -1.6193187 -0.26417032
0000d0 ce 6a 30 40 28 12 55 bf d1 da 17 3f c1 80 91 40
       2.7565188 -0.8323083 0.5931826 4.546967
0000e0 f6 1e 61 bf c5 64 52 40 4f ab 90 bf 8b fc 6e 3e
       -0.8793787 3.2874005 -1.1302279 0.23338525
0000f0 63 75 c4 3f b7 05 b7 3e d0 5d 90 c0 a0 f9 c6 3c
       1.5348324 0.35746548 -4.5114517 0.024288952
000100 45 42 ed bf bd 7c 95 3f 06 74 0c 40 02 43 2b bf
       -1.8535849 1.1678692 2.1945815 -0.6689912
000110 dc 24 d9 3e ac 1a ef 3e 1f 42 28 be ca 5b b9 c0
       0.42410934 0.46700037 -0.16431473 -5.7924547
000120 ee cc 4e 3f 08 c5 ec bf ef 98 ff 3f a8 3c 64 c0
       0.8078145 -1.8497629 1.9968547 -3.5662022
000130 cc af 1b c0 85 56 11 bf 2e 5a 8e bf a7 66 a2 bf
       -2.4326048 -0.56772643 -1.1121271 -1.2687577
000140 7b 4c 2d c0 c6 ef 18 c0 f3 31 40 c0 c4 d4 9f bd
       -2.707793 -2.3896346 -3.0030487 -0.07804254
000150 1d 63 56 c0 e8 4a 2c 40 20 b6 34 41 f3 ca 7f 3f
       -3.3497994 2.692072 11.294464 0.9991905
000160 eb db 03 bf 13 5c 03 40 bc 90 8b 40 8f 0b ca 3f
       -0.51507443 2.0524948 4.361418 1.5784777
000170 b2 e1 d5 bf 0a 55 95 40 e0 1f d7 be b7 9a fd c0
       -1.6709502 4.6666307 -0.42016506 -7.925136
000180 1d dc d6 c0 93 18 9b 3e 80 26 47 c0 ee 8b 00 c0
       -6.7143693 0.30292186 -3.1117249 -2.0085406
000190 7f fb b4 bf a1 11 07 3f ac 00 80 3f 72 a0 90 bf
       -1.413925 0.52761275 1.0000205 -1.1298964
0001a0 a2 da b1 3f c9 29 03 3e b8 1b bd be 20 58 58 3f
       1.3894846 0.12808909 -0.3693521 0.8450947
0001b0 05 9a aa 3f 78 b2 8a 40 1e c8 6f 3f 6e 42 c1 3f
       1.3328253 4.3342857 0.9366473 1.5098398
0001c0 b8 28 01 c0 35 c1 26 bf 3c cb ac 3e a5 03 cd bf
       -2.0181103 -0.6513856 0.33748806 -1.6016737
0001d0 bd 49 be bf bb 20 a1 3f d5 fc 21 c0 35 3b d9 3e
       -1.4866253 1.2588114 -2.5310566 0.42427984
0001e0 46 a2 5e 40 56 83 a2 3f 6e 03 55 be cc 6b 4c 3f
       3.4786544 1.269633 -0.2080209 0.79851985
0001f0 2f b0 0c 3f 89 04 2b 3f f3 e6 be be 23 b1 16 3f
       0.54956335 0.66803795 -0.37285575 0.5886404
000200 4d c5 90 3e 0d 96 a0 bf 5b 87 de bf 01 8b 36 3f
       0.2827553 -1.2545792 -1.7385057 0.71305853
000210 01 33 17 bf a9 6a 48 3f 66 5a 60 bf b5 bd 13 40
       -0.590622 0.7828775 -0.8763794 2.3084538
000220 78 db 75 40 2c e9 9e 3f 8d 5f f5 bd aa a5 73 3f
       3.8415203 1.2414908 -0.119811155 0.9517466
000230 eb 87 e0 bf 4d 74 2a c0 3b 0f 69 3f 9c b0 ac bf
       -1.7541479 -2.6633484 0.91038865 -1.3491397
000240 4d 47 ca 3e 7b d8 43 3f 24 22 dc bf 14 f1 dd 3d
       0.39507523 0.765022 -1.7197919 0.10836998
000250 39 10 de 3d 83 d8 16 40 22 b0 cc 3e 15 18 f0 be
       0.10842938 2.3569648 0.3997813 -0.46893373
000260 f9 1d 30 3f 4d 8c 40 3f 7d 1b 7f bf ce d7 c2 bf
       0.68795735 0.7521408 -0.9965132 -1.5222108
000270 1c b2 54 3f 8b 5b 27 bf 08 9b 4c 3f 1d 78 8e bf
       0.83084273 -0.6537406 0.7992406 -1.1130406
000280 e4 60 19 40 1b 71 71 40 78 fa 31 3f 5f ac 82 3e
       2.3965387 3.7725284 0.6952281 0.25522134
000290 81 19 8d 3f 6c f6 dd bf 67 5e 30 c0 25 e0 7a 3f
       1.1023408 -1.7340827 -2.7557619 0.9799827
0002a0 ae c5 a8 bf e6 04 62 3e 4e ed d9 3e 4a 4b d7 bf
       -1.3185327 0.22072181 0.42563862 -1.6819851
0002b0 63 04 92 3e bf f2 dc bb 7e fc 39 40 e2 b9 f0 3e
       0.28518972 -0.006742805 2.906036 0.47016817
0002c0 e4 c2 40 be ce 1b 40 3f 9d 82 df 3d 78 5d 12 bf
       -0.18824345 0.75042427 0.109135844 -0.5717387
0002d0 a1 eb d9 bf 9b de 23 3f 9c 56 e0 bd 69 df d7 3e
       -1.7025033 0.64011544 -0.109540194 0.42162636
0002e0 14 23 db be a4 7f c5 3f f2 e2 4f 40 67 c0 ee 3e
       -0.428002 1.5429578 3.2482266 0.46631166
0002f0 af 89 b3 3e c4 87 50 3f 22 9e d1 bf 2f dd 41 c0
       0.35065982 0.8145716 -1.6376383 -3.029125
000300 9b 79 10 3f fb 69 c4 bf 6e 11 dd 3e 81 e0 4b be
       0.56435555 -1.5344843 0.4317736 -0.1990986
000310 49 c2 99 bf 0a ac cf be d8 1c ab 3e ce d7 2c 40
       -1.2012416 -0.40560943 0.33420444 2.7006717
000320 01 75 f9 3e 7f 95 f5 be 07 07 d8 3e 6f 48 38 3f
       0.4872208 -0.4796562 0.4219286 0.71985525
000330 02 e6 99 bf 25 0b c6 bf 1f 02 88 3f e3 23 0e bf
       -1.2023318 -1.5472151 1.0625647 -0.5552351
000340 06 fb 4d 3f 9c f9 92 bf cf bb 22 40 0b 79 68 40
       0.80461156 -1.1482425 2.542713 3.6323879
000350 63 e8 3f 3f 5e fa 59 3e d9 70 72 3f 32 9b f6 bf
       0.7496397 0.21286914 0.9470344 -1.9266112
000360 46 7a 31 c0 4f 5a 8e 3f a0 72 af bf 18 46 27 3e
       -2.773088 1.112131 -1.3706856 0.16335332
000370 d2 96 31 3e 83 20 da bf 68 31 e1 3e 1f 86 78 3e
       0.1734269 -1.7041172 0.43983006 0.24269913
000380 de 13 34 40 24 4c ad bf d9 5e 9c bf 43 fa 0a 40
       2.8137126 -1.3538861 -1.2216445 2.1715248
000390 01 a4 8a be e5 57 cc be 29 f9 b7 40 3c a7 07 bf
       -0.2707825 -0.39910808 5.749165 -0.52989554
0003a0 83 7a de 3f fb 8c 63 bf f5 46 c9 3e f4 4c b8 3f
       1.7381138 -0.88886994 0.39311948 1.4398484
0003b0 66 cb 84 c0 d0 94 51 bf 69 ed 03 c0 e3 57 10 c0
       -4.149829 -0.81867695 -2.0613654 -2.2553642
0003c0 08 fd 70 3f f0 c6 1a 40 fe 40 a1 be 04 e7 18 3f
       0.94136095 2.4183922 -0.31494898 0.597275
0003d0 88 42 42 3f 8c 89 13 bf 95 d5 86 c0 37 73 e5 3e
       0.7588277 -0.57631755 -4.213572 0.44814464
0003e0 dc 52 1f c0 c5 75 27 40 d9 49 d2 be f2 46 db 3d
       -2.4894323 2.616563 -0.41071966 0.10706891
0003f0 83 12 c5 be 23 9c 9e bd 56 38 8f 3f 36 95 b9 3d
       -0.38490686 -0.077446245 1.1189067 0.09061663

fc.bias f4 [27]
000000 ce 00 c6 bf ac c4 49 40 68 14 c0 be 61 e4 c8 c0
       -1.5468996 3.152629 -0.3751557 -6.2778783
000010 7b 2a 32 40 2d 4e 93 3e d0 72 9e bc 79 c2 0c 3e
       2.7838428 0.2877058 -0.019341856 0.1374606
000020 2c 0c 1e be 7a 24 c6 bd bd b2 da 3f 84 5c a8 3f
       -0.1543433 -0.09674926 1.7085797 1.3153234
000030 ab fb ef bf 77 66 64 c0 f1 c6 c8 bf 4d b1 2c 40
       -1.8748678 -3.568754 -1.5685712 2.6983216
000040 b8 c4 07 40 9c 74 1c c0 6f 8b c9 bf 06 1c df be
       2.1213818 -2.4446173 -1.5745677 -0.43576068
000050 74 04 47 c0 c6 5d 45 c0 aa 39 4d be 0b 01 d2 bf
       -3.1096468 -3.0838485 -0.20041528 -1.6406568
000060 8c d9 ab bf d2 e7 9e 3f ff 92 b1 bf
       -1.3425765 1.2414496 -1.3872985
