CNN-based-IoT-Device-Identification-main/gru_3_69.02.pth (torch, 176291 bytes, 14 tensors)

gru.weight_ih_l0 f4 [150, 25]
-1.2710863 -3.4232512 -1.6187829 2.3813553 -2.604623 -0.02801513 7.542812 -4.565295
-4.87857 27.194412 -8.275836 1.1598247 1.114984 -6.681859 -3.9261658 -1.8160195
1.9748386 3.5931387 -9.81288 3.7774127 -6.3349237 -0.8080724 1.2296262 1.8495576
-2.2909038 -4.046167 2.2383535 0.23479377 -6.832887 -3.6911597 0.11685835 -2.661107
-4.241472 -1.1567571 -2.916277 -10.5846 -6.2654076 -6.090405 -2.510316 5.7633266
-6.0730867 7.2280903 0.16020444 -1.1211752 0.051411226 -0.068194374 -8.099824 -4.300443
-4.1166334 -5.4709435 -0.52526677 -1.2158788 0.45644516 -0.35870588 -0.45749706 0.024252292
-1.0474144 0.36969817 -2.5382166 -1.264396 1.051301 0.45466214 0.40018237 0.50595295
-2.4858987 0.55959636 -1.7485263 -0.5278569 -3.4823692 -0.57371056 -1.5962845 0.4313599
-4.2888975 -0.58415574 0.16907087 -2.2671468 4.313819 2.752143 -13.221408 0.72973996
-0.09742172 -10.936751 -6.0332656 -5.7550545 -12.183764 -19.322021 -2.0066729 -1.988883
0.38571763 4.7372527 -7.7179313 3.2608912 -5.720653 2.8463495 -5.5501447 -12.0096445
-4.8069057 -5.222588 -2.8222833 -3.095955 -1.2652295 0.09228731 0.51710963 -2.9325979
2.1035364 -0.026864285 -3.3994973 -2.2641284 -4.893521 0.46172488 -3.4238853 -1.9850184
-2.151309 1.3509424 1.2089971 -1.7366604 1.4451101 0.7268382 -2.3868368 0.8182238
-2.6859035 -5.701402 -3.8379877 -1.4110069 -2.641873 -1.608531 1.0883998 -2.2997065
-8.433533 3.7538679 -0.040900398 -7.2018623 -3.0549178 -5.3813295 -9.25215 -1.589704
-4.5303774 -4.4490848 6.566546 0.17727268 -0.17188849 0.06685631 -3.0284753 5.680883
-2.8875377 -6.548404 -10.654338 -4.988105 -4.5058737 -2.4167094 -3.4423037 0.87271935
0.63588274 -10.738593 -2.9556754 -0.013281855 -7.717776 -2.461795 -4.601319 -0.06686685
-7.28748 -4.1052265 -3.987102 0.18077254 3.109121 -3.4425232 -0.51633304 -4.673628
-2.124991 -4.767997 -2.3015838 -16.164028 -3.9030938 -2.7753503 -3.7384043 -4.460141
-2.2864764 -6.35355 0.37981364 -1.1943206 -0.054028198 8.688192 -5.950594 -5.6442957
27.9945 31.683886 -11.69047 -11.652218 9.815176 -7.2828236 11.446277 -4.8055944
4.535434 -2.5979314 4.4105983 -0.13716479 0.022690708 -4.877148 -5.9705076 -4.1170907
-0.5846263 0.54496574 0.4448827 -2.0584724 1.1362603 0.09765144 -2.9724956 -1.7609845
-4.143988 -0.88931185 -2.4265122 -0.92161906 -0.8062915 0.54672396 2.0525382 -1.7867165
1.7485567 0.6004968 -1.8971308 0.6150974 -2.3887124 -3.694036 -4.267913 -1.6661333
-2.3425174 -2.979866 -0.7500773 -0.9003061 -1.905489 -0.87200963 -0.12263432 -0.94239753
-0.7460013 -0.7804513 -1.6019372 0.21070872 0.31586033 0.4663793 -0.7083255 -0.3070864
-1.6006086 -2.1017091 -0.54084134 -4.484547 -0.51580274 -0.978021 -1.2463216 -4.930169
0.21099988 0.20758839 3.5178282 2.7396047 0.36302745 -10.409847 -1.126936 -0.024431804
00000000: f5b2 a2bf 8c16 5bc0 4734 cfbf 2068 1840
00000010: 25b2 26c0 fc7f e5bc b75e f140 e616 92c0
00000020: 3f1d 9cc0 288e d941 d369 04c1 2375 943f
00000030: ccb7 8e3f cad1 d5c0 4d46 7bc0 5473 e8bf
00000040: 83c7 fc3f fcf5 6540 8e01 1dc1 21c1 7140
00000050: b2b7 cac0 d5dd 4ebf 6464 9d3f 4ebe ec3f
00000060: 2b9e 12c0 337a 81c0 2f41 0f40 c76d 703e
00000070: 03a7 dac0 f63b 6cc0 6e53 ef3d 944f 2ac0
00000080: 23ba 87c0 9e10 94bf 48a4 3ac0 865a 29c1
00000090: 387e c8c0 99e4 c2c0 04a9 20c0 2c6d b840
000000a0: ba56 c2c0 844c e740 a20c 243e ab82 8fbf
000000b0: 9494 523d 7ea9 8bbd e198 01c1 3b9d 89c0
000000c0: 76bb 83c0 f811 afc0 e277 06bf eba1 9bbf
000000d0: 2eb3 e93e 4ca8 b7be 0e3d eabe beac c63c
000000e0: ad11 86bf 1449 bd3e 2472 22c0 bad7 a1bf
000000f0: 0891 863f 7ac9 e83e b4e4 cc3e 2286 013f
00000100: f718 1fc0 b541 0f3f b6cf dfbf a121 07bf
00000110: 23df 5ec0 b2de 12bf 0d53 ccbf 34db dc3e
00000120: a63e 89c0 3b8b 15bf ea20 2d3e ef18 11c0
00000130: ce0a 8a40 1c23 3040 e38a 53c1 3dd0 3a3f
00000140: 0a85 c7bd effc 2ec1 8310 c1c0 6829 b8c0
00000150: b3f0 42c1 8093 9ac1 546d 00c0 b893 febf
00000160: c87c c53e 9397 9740 4bf9 f6c0 71b2 5040
00000170: 970f b7c0 972a 3640 c99a b1c0 8127 40c1
00000180: 2cd2 99c0 711f a7c0 4aa0 34c0 2024 46c0
00000190: 0af3 a1bf 2101 bd3d 4c61 043f afaf 3bc0
000001a0: 57a0 0640 7d12 dcbc 5d91 59c0 7be7 10c0
000001b0: b997 9cc0 3467 ec3e f020 5bc0 1515 febf
000001c0: 0caf 09c0 aeeb ac3f 6bc0 9a3f e34a debf
000001d0: 5ef9 b83f 1112 3a3f efc1 18c0 1d77 513f
000001e0: d8e5 2bc0 e371 b6c0 97a1 75c0 e09b b4bf
000001f0: 7214 29c0 58e4 cdbf af50 8b3f 642e 13c0
00000200: c0ef 06c1 5f3f 7040 2d87 27bd a875 e6c0
00000210: c683 43c0 da33 acc0 ce08 14c1 6c7b cbbf
00000220: daf8 90c0 e75e 8ec0 2521 d240 f886 353e
00000230: 8903 30be f6eb 883d 8ad2 41c0 cbc9 b540
00000240: 6bcd 38c0 878c d1c0 2b78 2ac1 8e9e 9fc0
00000250: 1e30 90c0 5eab 1ac0 b44e 5cc0 896a 5f3f
00000260: 36c9 223f 47d1 2bc1 c929 3dc0 239c 59bc
00000270: 05f8 f6c0 0d8e 1dc0 013e 93c0 7df1 88bd
00000280: 0933 e9c0 045e 83c0 ae2c 7fc0 701c 393e
00000290: d7fb 4640 4d52 5cc0 672e 04bf 5c8e 95c0
000002a0: daff 07c0 6e93 98c0 264d 13c0 ee4f 81c1
000002b0: 4acc 79c0 579f 31c0 0442 6fc0 7ab9 8ec0
000002c0: a155 12c0 4850 cbc0 ef76 c23e 7fdf 98bf
000002d0: ac4c 5dbd d602 0b41 446b bec0 129e b4c0
000002e0: bcf4 df41 9978 fd41 2a0c 3bc1 7c6f 3ac1
000002f0: f60a 1d41 e40c e9c0 f323 3741 6ec7 99c0
00000300: 4622 9140 8244 26c0 9f23 8d40 ed74 0cbe
00000310: dde1 b93c 9911 9cc0 660e bfc0 35bf 83c0
00000320: 12aa 15bf e082 0b3f aac7 e33e 03be 03c0
00000330: fa70 913f 7afd c73d 5e3d 3ec0 f167 e1bf
00000340: 8d9b 84c0 f1a9 63bf fa4b 1bc0 3aef 6bbf
00000350: 1f69 4ebf 1af6 0b3f c95c 0340 20b3 e4bf
00000360: b5d0 df3f 29ba 193f 2fd5 f2bf 0677 1d3f
00000370: aae0 18c0 166b 6cc0 be92 88c0 db43 d5bf
00000380: ceeb 15c0 20b6 3ec0 1105 40bf 767a 66bf
00000390: 10e7 f3bf 063c 5fbf b427 fbbd f740 71bf
000003a0: f1f9 3ebf a8cb 47bf 470c cdbf 07c4 573e
000003b0: 72b8 a13e 45c9 ee3e d254 35bf 6e3a 9dbe
000003c0: bee0 ccbf 6782 06c0 9474 0abf 6981 8fc0
000003d0: a60b 04bf 965f 7abf 7787 9fbf f2c3 9dc0
000003e0: 5a10 583e 0d92 543e 1924 6140 af55 2f40
000003f0: bcde b93e bc8e 26c1 703f 90bf 3525 c8bc

gru.weight_hh_l0 f4 [150, 50]
0.065839514 0.010389182 0.0692702 -0.07702383 -0.10967857 0.058800757 0.1317444 -0.13679999
0.0343936 -0.007429967 0.07548565 -0.14041992 -0.065507635 0.12254423 0.10560494 0.12074727
-0.053009864 0.026390098 -0.045958307 0.13746838 0.10772514 0.07733633 0.13012053 -0.046869606
-0.1240614 0.08350389 -0.1367203 -0.027617736 -0.03633072 -0.023220958 -0.13886794 -0.07321552
-0.045139663 -0.13342133 0.03576359 -0.059105698 0.11109885 -0.013301394 0.0729547 0.10375973
-0.016022613 0.033601373 0.074424915 -0.13499781 0.05222772 0.04735932 -0.017906291 0.061078068
0.023765665 -0.017034156 0.1077176 -0.11448229 -0.12117056 0.053626996 0.008895396 -0.013199685
0.030434916 0.10599862 0.023266764 0.0842031 -0.097201526 -0.018995654 -0.02698533 -0.06399156
0.02241951 0.03946884 -0.08879306 -0.017307824 -0.08215485 -0.050774682 -0.027823143 -0.04390493
-0.010195998 0.11762432 -0.06999764 -0.055951834 0.066261016 -0.01945045 0.021358658 -0.066943966
0.13075717 0.13201803 0.061916623 0.040984087 -0.056972865 -0.06855172 -0.026358606 -0.0006330794
-0.08997703 0.051697224 -0.07221905 0.08624906 -0.12500459 0.080308616 0.08320507 0.04459017
0.0069960062 -0.08216395 0.12418281 0.08297223 0.13917767 0.047452718 -0.14002144 -0.074947
-0.034386232 -0.07901673 0.091976315 0.08253874 -0.0051904013 -0.06438206 0.096303664 0.039283175
-0.038842876 0.11060883 -0.04554129 0.031016896 -0.017175853 -0.08981694 -0.08899171 0.053913306
0.07163097 -0.10325815 -0.11817722 0.06627892 0.0845395 0.10876315 -0.006755584 0.13736384
-0.11998059 0.08770522 -0.13149114 0.110194795 -0.04340748 0.009044579 -0.03516165 0.03739289
0.10535003 0.049487468 0.12756848 0.11201778 -0.04705047 0.0061974246 0.114499405 0.13473287
0.09687862 0.031325713 0.02473307 0.045506645 0.11501108 -0.09482616 -0.07867317 -0.07824183
0.077735245 0.08881749 0.05359896 0.05255955 -0.051207565 0.08296746 -0.010467457 0.06522006
-0.08706833 0.021366531 -0.069027 -0.059202686 0.029618565 -0.07209047 0.12664056 -0.065196946
-0.050467078 -0.011211079 0.10279866 -0.12905693 0.11695186 -0.05672978 0.0028893522 -0.08307977
-0.0912921 -0.033576947 -0.024274664 -0.0028997709 0.11791274 -0.10996353 -0.014274077 -0.05108692
0.0006709104 -0.13075048 0.019338442 0.13466127 0.01270967 -0.084254384 -0.013953692 0.12793538
0.09631636 -0.09827543 -0.034994192 -0.101924114 0.028023811 -0.030750763 0.04366916 -0.09190138
-0.06188434 -0.0081268735 0.06838227 -0.093831226 -0.04466902 0.06908693 -0.12754871 0.06577353
0.026560793 -0.110573776 0.07536004 0.13835065 -0.042052966 0.117134035 0.111134954 0.017087784
-0.12393698 -0.12065119 0.11457834 -0.014717275 -0.05541006 0.0646474 -0.10526778 -0.113810286
-0.041931868 0.041051436 -0.112649195 -0.12007736 0.10671367 0.00614464 -0.10052811 -0.081274554
-0.021779992 0.07199532 -0.056366406 0.06349649 0.12200699 -0.13972159 -0.075000554 0.0072906464
-0.056160863 0.05604737 -0.0024589484 -0.05789782 -0.072590664 0.016913328 0.114107236 0.10525353
0.08269932 0.055896334 -0.108101666 0.062077455 -0.13756391 -0.06776008 0.049087677 -0.035306502
00000000: ded6 863d 6337 2a3c 89dd 8d3d abbe 9dbd
00000010: 289f e0bd 10d9 703d 01e8 063e 4c15 0cbe
00000020: 4ee0 0c3d 1577 f3bb 3898 9a3d 3dca 0fbe
00000030: de28 86bd 78f8 fa3d 6747 d83d 584a f73d
00000040: df20 59bd 0c30 d83c c73e 3cbd 83c4 0c3e
00000050: 009f dc3d 8362 9e3d 513e 053e 58fa 3fbd
00000060: e713 febd 1604 ab3d 6800 0cbe 973e e2bc
00000070: 85cf 14bd e139 bebc 6633 0ebe 05f2 95bd
00000080: 5ee4 38bd 9a9f 08be d87c 123d d118 72bd
00000090: cb87 e33d 17ee 59bc 4669 953d fb7f d43d
000000a0: db41 83bc 98a1 093d 176c 983d de3c 0abe
000000b0: bcec 553d d9fb 413d 37b0 92bc ff2c 7a3d
000000c0: 36b0 c23c 378b 8bbc 0c9b dc3d b175 eabd
000000d0: 4528 f8bd fba7 5b3d ffbd 113c 7e43 58bc
000000e0: a552 f93c ce15 d93d f199 be3c ad72 ac3d
000000f0: 9811 c7bd c69c 9bbc 5710 ddbc 020e 83bd
00000100: 1fa9 b73c 14aa 213d 23d9 b5bd 23c9 8dbc
00000110: cd40 a8bd 1df9 4fbd 5ced e3bc a8d5 33bd
00000120: 1d0d 27bc 05e5 f03d ec5a 8fbd c02d 65bd
00000130: dbb3 873d 8d56 9fbc 5af8 ae3c eb19 89bd
00000140: 35e5 053e bc2f 073e 499c 7d3d eede 273d
00000150: 615c 69bd d864 8cbd 01ee d7bc 3df5 25ba
00000160: e145 b8bd 78c0 533d 95e7 93bd 59a3 b03d
00000170: 3401 00be d878 a43d 6b67 aa3d 2fa4 363d
00000180: c13e e53b 9345 a8bd 8f53 fe3d 58ed a93d
00000190: 9784 0e3e c85d 423d c861 0fbe d07d 99bd
000001a0: 94d8 0cbd 86d3 a1bd 145e bc3d 120a a93d
000001b0: 3e14 aabb beda 83bd db3a c53d 65e7 203d
000001c0: b519 1fbd e286 e23d 8189 3abd 2517 fe3c
000001d0: 60b4 8cbc f2f1 b7bd 4941 b6bd 33d4 5c3d
000001e0: 42b3 923d 0279 d3bd e606 f2bd 3ebd 873d
000001f0: 0c23 ad3d 37bf de3d f25d ddbb 1ba9 0c3e
00000200: 62b8 f5bd cb9e b33d 9da5 06be cfad e13d
00000210: 0bcc 31bd b72f 143c aa05 10bd 4929 193d
00000220: c2c1 d73d 5fb3 4a3d 50a1 023e 9469 e53d
00000230: feb7 40bd c413 cb3b aa7e ea3d 6af7 093e
00000240: 4c68 c63d 644f 003d 029d ca3c 2d65 3a3d
00000250: ee8a eb3d 3834 c2bd 661f a1bd 413d a0bd
00000260: a833 9f3d f2e5 b53d 958a 5b3d af48 573d
00000270: 06bf 51bd d8ea a93d b27f 2bbc 1892 853d
00000280: e150 b2bd dd08 af3c 075e 8dbd 847e 72bd
00000290: a2a2 f23c 2ba4 93bd 10ae 013e fa85 85bd
000002a0: 91b6 4ebd acae 37bc 1b88 d23d 8027 04be
000002b0: 7584 ef3d 7c5d 68bd 495b 3d3b ba25 aabd
000002c0: 5af7 babd fb87 09bd a9db c6bc 150a 3ebb
000002d0: 3c7c f13d 8f34 e1bd d1dd 69bc 8540 51bd
000002e0: 09e0 2f3a 74e3 05be a76b 9e3c a5e4 093e
000002f0: 383c 503c 908d acbd 079e 64bc 7e01 033e
00000300: 8341 c53d a144 c9bd 1256 0fbd 97bd d0bd
00000310: 3192 e53c 06e9 fbbc 6fde 323d ca36 bcbd
00000320: 6f7a 7dbd 9426 05bc 010c 8c3d 962a c0bd
00000330: ddf6 36bd 737d 8d3d 219c 02be 46b4 863d
00000340: 0596 d93c 8174 e2bd 5d56 9a3d cbab 0d3e
00000350: bb3f 2cbd f8e3 ef3d b99a e33d aefb 8b3c
00000360: acd2 fdbd f917 f7bd 0ca8 ea3d ba20 71bc
00000370: a9f5 62bd db65 843d a296 d7bd 5e15 e9bd
00000380: c0c0 2bbd 8d25 283d 9fb4 e6bd 1eeb f5bd
00000390: b28c da3d fa58 c93b afe1 cdbd 4673 a6bd
000003a0: f46b b2bc 4872 933d 76e0 66bd 730a 823d
000003b0: cdde f93d 2d13 0fbe e499 99bd 60e6 ee3b
000003c0: ef08 66bd ed91 653d 4f26 21bb 4426 6dbd
000003d0: 6aaa 94bd d28d 8a3c 0eb1 e93d 2a8f d73d
000003e0: 435e a93d 8ef3 643d 6864 ddbd ee44 7e3d
000003f0: 8edd 0cbe ccc5 8abd 2910 493d 8d9d 10bd

gru.bias_ih_l0 f4 [150]
-2.9708338 -1.5291277 -5.334595 -2.9790423 -5.4439483 -6.943856 -1.2683185 -5.507808
-6.5512204 -2.311838 -1.7494227 -3.2283132 -1.5276343 -5.277199 -6.362869 -2.8632722
-4.9699717 -2.1779969 -4.687153 -6.2456145 -6.565074 -4.146296 -7.0665064 -5.611964
-6.973943 -3.6200595 -2.400318 -6.306259 -4.177273 -1.6294237 -6.9918756 -7.0217724
-4.0321403 -3.8754702 -6.1205044 -5.511696 -0.9843369 -6.6297145 -1.3018528 -2.6124902
-6.3205543 -1.9358305 -6.5694194 -5.6626096 -3.3512442 -1.0290351 -2.355183 -4.9789896
-3.1196554 -4.3387194 0.27937502 0.9575923 0.96786463 0.6736375 0.688809 0.42343423
0.9822833 -0.9941841 0.31297866 0.9251108 0.7859434 1.0640508 0.1579001 0.9775351
0.34868002 0.7979446 1.0280626 1.1042067 0.3583533 0.39831302 0.6230397 1.0094662
0.03981711 -0.4537367 -0.83072364 1.0109813 0.1788915 -1.3142651 -0.56440663 0.38181585
-0.39902487 0.60288453 0.7485187 0.79318786 0.81360084 0.6046455 0.9900006 0.29751074
1.1298518 1.1176038 0.7302773 -0.5619044 -0.27519536 0.36518964 0.9039065 0.99158144
-0.6447374 0.116279505 0.6640912 1.102069 0.005783205 -0.17068563 -0.09748347 -0.07611121
0.08088899 -0.07392805 0.03360368 0.009604653 -0.019516246 0.04957972 -0.00026548616 -0.055306986
0.12200655 -0.02527299 0.01896713 -0.22245583 0.3899311 -0.08267682 -0.07856563 0.053486925
-0.15503727 -0.02587977 -0.036191385 0.03160862 -0.12227061 0.18351112 0.002511804 0.026730442
0.043634456 -0.15855819 0.009365924 0.0981097 -0.22820032 0.072390065 -0.20388989 -0.009476176
-0.28522536 -0.021658171 -0.090610914 -0.08428467 -0.27061492 0.08420241 -0.042702567 0.022669509
-0.18122281 0.09365901 0.023309482 0.0013595052 -0.029251203 0.017334983
00000000: 2422 3ec0 75ba c3bf 01b5 aac0 a1a8 3ec0
00000010: d334 aec0 1134 dec0 4358 a2bf f73f b0c0
00000020: 99a3 d1c0 27f5 13c0 15ed dfbf af9c 4ec0
00000030: 8589 c3bf d0de a8c0 9f9c cbc0 da3f 37c0
00000040: 020a 9fc0 4d64 0bc0 28fd 95c0 13dc c7c0
00000050: 1615 d2c0 75ae 84c0 d220 e2c0 3695 b3c0
00000060: 8b2a dfc0 0eaf 67c0 cf9e 19c0 e0cc c9c0
00000070: 38ac 85c0 f590 d0bf 72bd dfc0 5cb2 e0c0
00000080: 4b07 81c0 b407 78c0 2cdb c3c0 d05f b0c0
00000090: 81fd 7bbf 9f26 d4c0 1da3 a6bf 0a33 27c0
000000a0: fb41 cac0 4bc9 f7bf af38 d2c0 1934 b5c0
000000b0: c97a 56c0 6cb7 83bf 51bb 16c0 e253 9fc0
000000c0: 6fa8 47c0 cad6 8ac0 3e0a 8f3e c524 753f
000000d0: fac5 773f 8273 2c3f c955 303f 5fcc d83e
000000e0: eb76 7b3f d982 7ebf bd3e a03e 10d4 6c3f
000000f0: 9633 493f d132 883f 90b0 213e be3f 7a3f
00000100: 3086 b23e 1946 4c3f 8e97 833f a556 8d3f
00000110: 157a b73e afef cb3e 887f 1f3f 3036 813f
00000120: 4417 233d 2d50 e8be 4eaa 54bf d667 813f
00000130: 552f 373e d739 a8bf f47c 10bf 5e7d c33e
00000140: fd4c ccbe a456 1a3f ec9e 3f3f 5c0e 4b3f
00000150: 2548 503f 0cca 1a3f ae70 7d3f 5453 983e
00000160: fc9e 903f a40d 8f3f 74f3 3a3f f7d8 0fbf
00000170: 68e6 8cbe 23fa ba3e 6b66 673f 48d8 7d3f
00000180: 830d 25bf f323 ee3d e201 2a3f 9910 8d3f
00000190: 0a81 bd3b 37c8 2ebe 6aa5 c7bd 32e0 9bbd
000001a0: 20a9 a53d 9767 97bd 03a4 093d d65c 1d3c
000001b0: 89e0 9fbc 1b14 4b3d f330 8bb9 9489 62bd
000001c0: 92de f93d 4d09 cfbc f460 9b3c 76cb 63be
000001d0: 0da5 c73e 7752 a9bd 04e7 a0bd 1b15 5b3d
000001e0: 17c2 1ebe d001 d4bc 6b3d 14bd 0a78 013d
000001f0: 0369 fabd 57ea 3b3e 149d 243b cdf9 da3c
00000200: 0bba 323d 145d 22be 8873 193c bded c83d
00000210: 58ad 69be 3e41 943d 83c8 50be f741 1bbc
00000220: 0f09 92be 7a6c b1bc 3792 b9bd 719d acbd
00000230: 0a8e 8abe 5072 ac3d e3e8 2ebd 68b5 b93c
00000240: 7992 39be 4cd0 bf3d 87f3 be3c 6d31 b23a
00000250: 38a0 efbc 1802 8e3c

gru.bias_hh_l0 f4 [150]
-2.766953 -1.4848777 -5.328193 -3.074988 -5.670147 -6.9036837 -1.3351467 -5.5582256
-6.6089187 -2.221097 -1.6464442 -3.2637115 -1.5152159 -5.133491 -6.285977 -2.9389825
-4.9202523 -2.2637625 -4.831438 -6.0985856 -6.538282 -4.2190576 -7.0180893 -5.57722
-7.125542 -3.6409085 -2.503958 -6.357319 -4.349041 -1.7474446 -7.154017 -6.975456
-4.1802154 -3.889885 -6.1114674 -5.7630696 -0.8783634 -6.732404 -1.2411934 -2.4814498
-6.407585 -2.2085333 -6.3953276 -5.791932 -3.370097 -0.98793113 -2.360485 -4.904979
-2.9915264 -4.3604903 0.17350212 1.1590811 1.0214691 0.43371955 0.8455615 0.48514667
0.789308 -1.0766323 0.55586606 0.7827315 0.8481388 1.1813264 0.16549462 0.9908657
0.3199844 0.84328324 0.8054312 0.8924197 0.3018995 0.34486794 0.6475317 0.900177
0.25668147 -0.21123435 -0.8067553 1.0864395 0.21098703 -1.4136733 -0.5609621 0.539649
-0.5588333 0.56569517 0.6178966 0.8969757 0.93530184 0.4126886 1.12915 0.4081924
1.0150396 1.0963411 0.7152518 -0.42354983 -0.13383248 0.49946165 0.99018425 1.0938826
-0.39710823 0.042842034 0.8112133 1.0322831 3.0238485 -1.6170852 -0.35589898 -2.7979484
-0.1024044 -0.29109627 -2.3486538 1.0969788 0.034962207 -2.17632 2.207484 -1.684058
4.3806 0.5883259 -0.59412813 -2.645707 -1.2179232 1.1045073 2.2542365 -0.6673909
0.3252761 -0.9817625 0.39464173 -1.1178888 -0.04895807 1.9088287 3.1050022 0.6731673
2.0242138 2.193268 -0.07602894 0.11657641 -1.1151992 0.3539806 -0.2953998 -0.15969966
2.6723986 0.32165155 1.835993 -1.7578821 0.13935192 -1.5934781 0.1449179 -0.820623
-2.0836976 2.8256526 3.5229602 1.6432567 3.0420206 0.9945011
00000000: c215 31c0 7910 bebf 8f80 aac0 9acc 44c0
00000010: d871 b5c0 faea dcc0 16e6 aabf fcdc b1c0
00000020: 437c d3c0 7426 0ec0 afbe d2bf a6e0 50c0
00000030: 98f2 c1bf 8f45 a4c0 b926 c9c0 4a18 3cc0
00000040: b572 9dc0 7ce1 10c0 249b 9ac0 9d27 c3c0
00000050: 9b39 d1c0 8502 87c0 3094 e0c0 9678 b2c0
00000060: 7104 e4c0 a504 69c0 d940 20c0 286f cbc0
00000070: 582b 8bc0 44ac dfbf b5ed e4c0 f036 dfc0
00000080: 53c4 85c0 e0f3 78c0 2491 c3c0 116b b8c0
00000090: 6cdc 60bf db6f d7c0 6ddf 9ebf 13d0 1ec0
000000a0: f00a cdc0 9c58 0dc0 86a6 ccc0 8257 b9c0
000000b0: abaf 57c0 0ee9 7cbf 3012 17c0 97f5 9cc0
000000c0: 2b75 3fc0 2389 8bc0 8aaa 313e c55c 943f
000000d0: 80bf 823f 7d10 de3e b876 583f 2565 f83e
000000e0: 1710 4a3f 16cf 89bf 3d4d 0e3f 1761 483f
000000f0: a01f 593f b435 973f 6c77 293e 60a9 7d3f
00000100: ffd4 a33e 69e1 573f bd30 4e3f 9e75 643f
00000110: 9292 9a3e 8892 b03e a3c4 253f 0072 663f
00000120: c16b 833e d14d 58be 8487 4ebf 7310 8b3f
00000130: fc0c 583e 3ff3 b4bf 369b 0fbf 7026 0a3f
00000140: b30f 0fbf 66d1 103f 792e 1e3f 33a0 653f
00000150: f16f 6f3f ec4b d33e fd87 903f 98fe d03e
00000160: d1ec 813f e854 8c3f be1a 373f 86db d8be
00000170: 620b 09be 70b9 ff3e b77c 7d3f 5804 8c3f
00000180: c551 cbbe 217b 2f3d adab 4f3f da21 843f
00000190: bc86 4140 a6fc cebf 6438 b6be 9611 33c0
000001a0: 66b9 d1bd 920a 95be 5850 16c0 cd69 8c3f
000001b0: 8834 0f3d d448 0bc0 6b47 0d40 368f d7bf
000001c0: e02d 8c40 879c 163f c818 18bf 4353 29c0
000001d0: e8e4 9bbf 7f60 8d3f 6945 1040 21da 2abf
000001e0: 978a a63e ca54 7bbf 7b0e ca3e fb16 8fbf
000001f0: 4288 48bd 8054 f43f 5bb8 4640 b154 2c3f
00000200: b88c 0140 815e 0c40 10b5 9bbd 9dbf ee3d
00000210: d9be 8ebf f23c b53e a53e 97be 4f88 23be
00000220: 9408 2b40 83af a43e d201 eb3f 4802 e1bf
00000230: 45b2 0e3e 17f7 cbbf 5c65 143e 5914 52bf
00000240: 4d5b 05c0 7ed7 3440 2e78 6140 3c56 d23f
00000250: 77b0 4240 a097 7e3f

gru.weight_ih_l1 f4 [150, 50]
5.6146436 0.3977252 0.20758528 3.1608074 -1.824174 5.648411 -1.0528827 -6.648492
-1.1479771 -1.0918667 0.6666696 1.7440727 -2.615228 1.384701 1.3781705 1.8046169
-1.8372273 1.5268137 13.37204 -1.0499355 -3.407577 2.4399672 6.4305243 2.6215947
18.40381 0.24741755 9.707946 -6.6157794 1.0827564 -1.7132589 -5.132092 -4.2046432
0.4340453 -0.10916335 -4.239206 -0.75042415 1.6909589 -2.9673448 0.90223366 -1.6612734
1.4804834 -4.794244 0.41588366 -6.0565634 2.5909007 0.76155704 1.2642251 -7.695243
3.066293 -1.1597974 -1.1929959 0.9770526 -0.45915732 -13.141771 -6.841688 -1.7794458
0.034617852 -0.20771234 9.487039 0.6900691 0.6248725 -1.3832446 4.794979 0.07111083
-16.009417 3.07693 -3.5009713 5.6573496 9.748703 -7.179812 0.5463886 1.8152695
-1.4753761 1.1027731 0.7213372 -0.6462255 -1.9364861 0.34554335 6.508571 0.63659817
-6.1627545 2.239115 1.8310139 -0.11222639 3.7027545 10.081832 -1.4818462 -5.42098
2.5246167 -0.97700334 7.3509955 0.8296196 -1.8217874 -0.85348815 0.36333606 2.7580462
9.947558 3.997353 0.9146151 1.4359078 -2.5438535 2.645651 -1.5993341 -1.2575043
0.49660763 2.9183075 3.054133 -5.470831 3.0756161 0.7534969 -0.9797889 5.2812643
0.39096352 2.6324086 -7.125753 0.15267417 4.3902617 -1.0868516 11.36316 -4.7017655
4.8703218 0.24674758 1.8726535 3.1351311 9.087376 6.4972835 -2.8899333 -5.7857456
3.1313293 -1.3485136 -8.648579 -4.865705 0.082825534 -3.6446717 -1.4932911 0.8493301
-3.1940324 -0.3252023 -1.3846754 1.9658189 -1.7695649 -3.4543548 1.6031115 2.0316327
2.0505323 -1.2998514 2.8823762 -1.5561421 6.299703 -3.615036 -19.013968 -1.9576259
1.7593275 -17.398117 -0.20767295 -7.0048847 -1.2304732 -4.681846 3.343648 -1.3165953
0.9787552 4.2273774 3.4966557 1.6705712 -12.2162 0.035032712 -0.13781168 1.0281919
7.103329 -7.8382387 2.9761066 -1.5081397 -5.1589804 -2.5334895 -0.40523463 -0.6648717
-16.646315 -4.2142296 1.8096403 1.8666402 0.6579045 3.549476 0.6499241 -2.8145404
1.0868891 0.70950174 1.0140308 -4.7736073 0.6653189 -1.8385895 0.94537497 4.0271754
-3.01251 -2.8276646 -1.3298488 1.16166 4.126388 5.180847 4.3295407 -4.216993
1.9877535 0.10142196 0.663767 -1.964415 -3.04095 2.9700544 4.1478004 -1.2652358
12.222999 -5.270696 8.192774 3.3552923 3.2901502 6.4194674 -8.795496 -2.8949034
-1.1719859 3.041851 3.0654297 -12.591653 1.7525542 -5.7644277 3.0928073 1.4278749
1.8560596 0.50230134 3.4290593 -0.45980272 0.80502105 1.3262804 -1.2902843 -1.1562961
5.833942 -4.5993576 -0.24662513 13.259008 -4.9473124 -3.9563568 5.2782526 2.79141
0.76618767 -1.3250458 -0.58403516 2.874296 -5.204257 -0.3761545 1.9798347 -0.7976558
2.835062 -2.4901605 -4.603556 0.35372755 -0.19626635 4.100989 -0.19921352 3.156523
00000000: 29ab b340 a3a2 cb3e 3c91 543e ab4a 4a40
00000010: 897e e9bf c8bf b440 dcc4 86bf 72c0 d4c0
00000020: eaf0 92bf 4ac2 8bbf dcaa 2a3f c63d df3f
00000030: e55f 27c0 e23d b13f e467 b03f b0fd e63f
00000040: 442a ebbf a26e c33f e0f3 5541 4964 86bf
00000050: be15 5ac0 6c28 1c40 dbc6 cd40 35c8 2740
00000060: 013b 9341 075b 7d3e bf53 1b41 77b4 d3c0
00000070: c397 8a3f 114c dbbf 193a a4c0 708c 86c0
00000080: 303b de3e 0991 dfbd 93a7 87c0 cc1b 40bf
00000090: 5771 d83f fae8 3dc0 c9f8 663f 9ba4 d4bf
000000a0: 7b80 bd3f 726a 99c0 b4ee d43e 5ecf c1c0
000000b0: 51d1 2540 67f5 423f 21d2 a13f 6e3f f6c0
000000c0: 253e 4440 3e74 94bf 17b4 98bf 1f20 7a3f
000000d0: ab16 ebbe b244 52c1 1cef dac0 e1c4 e3bf
000000e0: 73cb 0d3d 8bb2 54be e9ca 1741 5ea8 303f
000000f0: a5f7 1f3f 290e b1bf 7870 9940 8ea2 913d
00000100: 4913 80c1 6cec 4440 ea0f 60c0 0209 b540
00000110: b0fa 1b41 05c1 e5c0 20e0 0b3f c05a e83f
00000120: 20d9 bcbf ab27 8d3f 8ea9 383f 096f 25bf
00000130: c7de f7bf 0feb b03e 3746 d040 19f8 223f
00000140: 4935 c5c0 a94d 0f40 aa5e ea3f f3d6 e5bd
00000150: eef9 6c40 2f4f 2141 23ad bdbf ab78 adc0
00000160: 5293 2140 e41c 7abf 5b3b eb40 f361 543f
00000170: 5430 e9bf 337e 5abf 2f07 ba3e d483 3040
00000180: 3329 1f41 a2d4 7f40 3724 6a3f d4cb b73f
00000190: 7fce 22c0 5952 2940 fbb6 ccbf e7f5 a0bf
000001a0: 5b43 fe3e 8dc5 3a40 ea76 4340 0c11 afc0
000001b0: e5d6 4440 2ce5 403f 72d3 7abf 1e00 a940
000001c0: 5f2c c83e 6279 2840 2b06 e4c0 9e56 1c3e
000001d0: 067d 8c40 f41d 8bbf 81cf 3541 dd74 96c0
000001e0: add9 9b40 66ab 7c3e 1cb3 ef3f fda5 4840
000001f0: e465 1141 bfe9 cf40 abf4 38c0 d424 b9c0
00000200: b367 4840 189c acbf 9460 0ac1 dbb3 9bc0
00000210: 6fa0 a93d 4d42 69c0 2a24 bfbf b36d 593f
00000220: 076b 4cc0 ea80 a6be 0b3d b1bf f49f fb3f
00000230: 1a81 e2bf 2614 5dc0 c232 cd3f 4506 0240
00000240: ec3b 0340 8861 a6bf da78 3840 aa2f c7bf
00000250: 2b97 c940 c05c 67c0 9b1c 98c1 7c93 fabf
00000260: a531 e13f 582f 8bc1 38a8 54be 0428 e0c0
00000270: 2580 9dbf afd1 95c0 54fe 5540 3286 a8bf
00000280: b38f 7a3f ad46 8740 35c9 5f40 47d5 d53f
00000290: 8e75 43c1 767e 0f3d 811e 0dbe cb9b 833f
000002a0: 794e e340 dad2 fac0 8878 3e40 b90a c1bf
000002b0: 5e16 a5c0 b124 22c0 ea7a cfbe 0835 2abf
000002c0: a72b 85c1 f8da 86c0 4ba2 e73f 11ee ee3f
000002d0: 6e6c 283f 9d2a 6340 6d61 263f 6e21 34c0
000002e0: 2f1f 8b3f e8a1 353f c3cb 813f 64c1 98c0
000002f0: 5752 2a3f e756 ebbf 1804 723f 9fde 8040
00000300: f7cc 40c0 75f8 34c0 7c38 aabf 46b1 943f
00000310: 5f0b 8440 80c9 a540 998b 8a40 9bf1 86c0
00000320: b56e fe3f 51b6 cf3d a2ec 293f f371 fbbf
00000330: ed9e 42c0 5f15 3e40 c8ba 8440 3ff3 a1bf
00000340: 6791 4341 8ba9 a8c0 9a15 0341 1cbd 5640
00000350: d291 5240 476c cd40 5aba 0cc1 1946 39c0
00000360: a203 96bf b0ad 4240 0030 4440 6977 49c1
00000370: b253 e03f 3176 b8c0 8ef0 4540 9bc4 b63f
00000380: 5c93 ed3f d296 003f b575 5b40 436b ebbe
00000390: dc15 4e3f 8ec3 a93f 0928 a5bf 8301 94bf
000003a0: a7af ba40 f02d 93c0 4c8b 7cbe e624 5441
000003b0: 6250 9ec0 f334 7dc0 72e7 a840 76a6 3240
000003c0: e024 443f 1a9b a9bf 5483 15bf 77f4 3740
000003d0: 4689 a6c0 5397 c0be 396b fd3f 2c33 4cbf
000003e0: a871 3540 ca5e 1fc0 5550 93c0 c71b b53e
000003f0: 0cfa 48be 4d3b 8340 a1fe 4bbe 7904 4a40

gru.weight_hh_l1 f4 [150, 50]
-0.0018549841 0.05432129 0.0486128 0.08265114 -0.04870645 -0.14034493 -0.114164256 -0.10140841
-0.042235475 0.045576677 0.07294529 0.04559406 0.039427973 0.07098428 -0.07242643 0.019479768
-0.11869243 -0.0011411175 0.047166374 0.044997513 0.08963347 -0.012669327 0.018048765 0.11515105
-0.012982157 -0.08340629 -0.121060014 0.07187375 0.11914414 -0.12570591 -0.084778205 -0.1327626
-0.05595866 -0.0142620895 -0.03174177 -0.108957246 -0.0045258803 -0.12625475 -0.13920414 0.112356015
-0.008995419 0.11669185 -0.03175927 -0.0107940445 -0.019596936 0.0755486 0.110594414 -0.10603049
-0.11413674 -0.07172726 0.01830141 -0.08415765 -0.13971251 -0.08837606 -0.0590662 -0.07586855
0.13081211 0.09526682 -0.013832057 0.13992764 -0.04223934 0.10379232 -0.0214165 -0.13651294
0.06421457 0.09546353 0.05012611 0.10104313 -0.062359452 0.031268023 0.04364711 -0.13518916
0.0019048691 0.08689801 0.11347427 0.11460575 0.07591541 0.10800343 -0.07695442 -0.028612418
0.095597975 0.010762418 0.07649731 0.015980821 0.04457082 0.08884956 0.0042704875 0.03289403
0.01083373 0.042022448 0.13214456 -0.0954674 -0.09159485 0.045852993 -0.06356859 0.014391194
-0.022181029 0.065306865 -0.05224515 -0.11849868 -0.084349826 -0.0045319158 -0.07600124 -0.029876435
0.017569942 0.08588801 -0.117448755 -0.023202734 -0.010162937 0.05736466 0.13366333 -0.11264837
-0.019506793 -0.13158162 -0.082850404 -0.103473134 0.058502372 -0.1177919 0.053568766 0.09352597
0.017909579 0.046106126 0.03616928 0.0008982168 0.06942431 0.10918966 0.047140006 0.007836853
0.028601594 -0.02875093 0.055905808 -0.09917205 -0.10275886 0.08794019 0.13151993 -0.043531373
0.11159249 0.00018224298 -0.053897172 0.047714937 0.0053512002 0.07186288 0.09480808 0.032119103
-0.13893752 0.0010122494 -0.07920288 0.045386728 -0.0210287 0.0024499458 -0.024770463 -0.018388215
-0.004714513 0.12084294 -0.027191225 -0.008010784 0.061009537 -0.06254139 -0.0038480244 -0.047966402
0.13321961 0.042069282 -0.06299877 -0.07530602 0.004881684 0.09858995 0.1302525 -0.12265229
0.09231054 -0.095282026 0.13350873 0.053052872 0.10972906 -0.0805867 -0.11273416 0.032672305
-0.090654805 0.023482168 0.0060018296 0.04549818 -0.08071992 0.13926668 0.1328585 0.04521143
-0.041583143 -0.078664616 0.12723465 -0.055225693 -0.1281928 0.13045943 0.10517128 -0.029820314
0.055992294 -0.050466724 0.067734525 0.05200677 0.12544042 -0.049766075 0.04066613 0.08299681
0.04598454 -0.12769632 0.13292854 -0.013617192 0.13432162 -0.14017618 -0.061100155 0.11444192
0.035614762 -0.08406217 0.07200061 0.04189636 -0.120415255 0.09773755 -0.008094067 0.112841986
-0.09948939 -0.07882936 0.02420561 0.11005768 -0.012640701 0.10387233 0.117181 -0.12390331
-0.04392993 0.023312569 0.06054407 -0.09140976 0.07132382 0.026377944 0.12566653 -0.12646243
-0.10692523 0.02903832 -0.09024413 -0.041178316 0.07418859 0.03832506 -0.13215062 -0.05261392
-0.111494385 -0.0731865 0.041415147 0.082171306 0.09403819 -0.06899954 0.037126016 0.11542018
-0.08694308 0.046143923 0.13510838 -0.031514045 -0.0080897175 0.008622048 -0.01278872 0.062279794
00000000: f022 f3ba 0080 5e3d 371e 473d 0045 a93d
00000010: 6a80 47bd 95b6 0fbe f3ce e9bd 36af cfbd
00000020: 1bff 2cbd 9cae 3a3d 5764 953d d6c0 3a3d
00000030: 3a7f 213d 3560 913d 4f54 94bd 0994 9f3c
00000040: 0415 f3bd 8d91 95ba 8731 413d 504f 383d
00000050: c191 b73d 0293 4fbc 01db 933c 50d4 eb3d
00000060: 1db3 54bc ebd0 aabd 50ee f7bd 8b32 933d
00000070: d801 f43d 0db9 00be 32a0 adbd ebf2 07be
00000080: e834 65bd 8aab 69bc a903 02bd fa24 dfbd
00000090: d64d 94bb ed48 01be 888b 0ebe e91a e63d
000000a0: 8661 13bc 23fc ee3d 0216 02bd 81d9 30bc
000000b0: c189 a0bc 39b9 9a3d 537f e23d 8326 d9bd
000000c0: 86c0 e9bd bee5 92bd d7ec 953c d95a acbd
000000d0: cc10 0fbe 82fe b4bd 66ef 71bd f860 9bbd
000000e0: 9cf3 053e 401b c33d da9f 62bc 3149 0f3e
000000f0: 2803 2dbd 1191 d43d a871 afbc 0cca 0bbe
00000100: ee82 833d 6282 c33d 0951 4d3d b3ef ce3d
00000110: a06c 7fbd e612 003d 50c7 323d 076f 0abe
00000120: cdac f93a 95f7 b13d 3365 e83d 6bb6 ea3d
00000130: 8a79 9b3d e730 dd3d 479a 9dbd 9764 eabc
00000140: dfc8 c33d da54 303c 9faa 9c3d 36ea 823c
00000150: e48f 363d c2f6 b53d 72ef 8b3b e4bb 063d
00000160: f57f 313c bb1f 2c3d e750 073e 6a84 c3bd
00000170: 1596 bbbd 59d0 3b3d 4030 82bd 0bc9 6b3c
00000180: fdb4 b5bc 9bbf 853d 03ff 55bd 70af f2bd
00000190: 9abf acbd 7780 94bb 8aa6 9bbd 6dbf f4bc
000001a0: d7ee 8f3c 0ee6 af3d f988 f0bd a913 bebc
000001b0: 7382 26bc 35f7 6a3d 0adf 083e 30b4 e6bd
000001c0: b6cc 9fbc 55bd 06be 79ad a9bd b9e9 d3bd
000001d0: 2fa0 6f3d e13c f1bd ec6a 5b3d 8b8a bf3d
000001e0: 1cb7 923c c7d9 3c3d 3d26 143d 4f76 6b3a
000001f0: 552e 8e3d d49e df3d e115 413d 2566 003c
00000200: e44d ea3c 1287 ebbc 7dfd 643d b71a cbbd
00000210: 3d73 d2bd fd19 b43d 29ad 063e f44d 32bd
00000220: 9a8a e43d 7a18 3f39 48c3 5cbd bd70 433d
00000230: 1f59 af3b d82c 933d bd2a c23d 528f 033d
00000240: a345 0ebe 74ad 843a 1f35 a2bd 6fe7 393d
00000250: 6144 acbc 458f 203b 6deb cabc e2a2 96bc
00000260: 347c 9abb 817c f73d 22c0 debc aa3f 03bc
00000270: 23e5 793d b315 80bd 232f 7cbb 6b78 44bd
00000280: b96a 083e d750 2c3d 8005 81bd 0b3a 9abd
00000290: 89f6 9f3b 87e9 c93d e960 053e 2031 fbbd
000002a0: 4f0d bd3d 3923 c3bd 83b6 083e f84d 593d
000002b0: a1b9 e03d a40a a5bd 2be1 e6bd 65d3 053d
000002c0: 3aa9 b9bd ad5d c03c ffaa c43b 4d5c 3a3d
000002d0: 7c50 a5bd ed9b 0e3e 0f0c 083e 9f2f 393d
000002e0: 1653 2abd ea1a a1bd cd49 023e 5634 62bd
000002f0: f944 03be 2897 053e 0a64 d73d bb49 f4bc
00000300: 2d58 653d 32b6 4ebd 66b8 8a3d 0d05 553d
00000310: 7473 003e 83d7 4bbd 8791 263d 3bfa a93d
00000320: 495a 3c3d d3c2 02be 6b1e 083e a51a 5fbc
00000330: 9b8b 093e 588a 0fbe 2844 7abd 8660 ea3d
00000340: c9e0 113d c928 acbd 0e75 933d 859b 2b3d
00000350: 469c f6bd a02a c83d fa9c 04bc b319 e73d
00000360: 18c1 cbbd 4a71 a1bd d84a c63c ec65 e13d
00000370: f11a 4fbc 04bb d43d 98fc ef3d 05c1 fdbd
00000380: dfef 33bd 00fa be3c 0ffd 773d 0a35 bbbd
00000390: 3912 923d 8f16 d83c baae 003e 5e7f 01be
000003a0: 9dfb dabd c5e1 ed3c ead1 b8bd 98aa 28bd
000003b0: 30f0 973d bdfa 1c3d 7e52 07be b281 57bd
000003c0: 2b57 e4bd cee2 95bd eea2 293d 6e49 a83d
000003d0: 1897 c03d a14f 8dbd 7311 183d 6a61 ec3d
000003e0: 370f b2bd 6901 3d3d da59 0a3e df14 01bd
000003f0: bc8a 04bc 7e43 0d3c c887 51bc 1919 7f3d

gru.bias_ih_l1 f4 [150]
-1.5623823 -2.0428305 -1.174852 -0.7882743 -0.4271314 -1.0444005 -1.1797311 -1.3089795
-1.3345118 -3.6109195 -0.013161465 -1.0797968 -2.2171156 -1.129824 -0.26103428 -0.5573557
-0.7566342 -0.0015217363 -0.40646252 -1.5713755 -1.1592991 -2.6185684 -2.2783892 -2.0599706
-0.7584432 -1.9887397 -1.123471 -1.391679 -1.971548 -1.2457333 -1.1457838 -2.8377442
-1.4682494 -0.6748765 -1.5351217 -1.5096041 -6.70539 -1.8761017 -1.9007653 -1.3171227
-1.2678763 -0.98042333 -1.8160557 -1.7607694 -3.926806 -2.3964014 0.014057743 -0.583882
-1.9268339 -1.6035764 0.8156531 0.8902785 1.4355735 0.4756234 0.5426365 0.62677085
0.719549 0.8073293 0.59880936 0.55084896 1.2292858 0.25753334 0.3969912 1.2084471
1.5890557 0.5582833 0.9313015 1.5769914 0.6340561 1.0875541 0.8293241 0.89436865
1.1176765 0.90416557 0.37208965 1.4271407 1.0553422 0.87443393 0.7198706 -0.1449288
0.54025215 0.54308176 0.5094054 0.7802199 2.1908321 1.1819319 0.90450484 1.8704263
0.46309152 0.4596095 0.611914 0.7613468 1.1565944 0.85107887 0.54962075 0.56105757
1.0308113 0.9216267 0.3774961 0.7731916 0.063059196 0.547539 -0.18067186 -0.49792498
0.4263845 0.060058724 -0.47530484 -0.08869531 -0.058098752 -0.3719256 -0.1691884 -0.091577716
0.021063333 -0.00492444 1.8015442 -0.79836154 0.3000734 -1.8373713 -0.68677133 -0.6787645
0.3699494 0.26539475 -0.17822844 -0.14983447 0.3354009 -0.20737424 -0.14887834 0.5164609
-0.10435778 0.19841857 -0.63541424 0.04658704 -0.020065028 -0.4074176 0.27260104 -1.8171659
0.46917138 0.76110643 0.30579537 -0.11989258 -0.012007026 0.31909296 0.124585316 -0.09687549
-0.048584558 -0.5660042 0.76324236 -1.601034 0.04965407 0.07053223
00000000: 25fc c7bf bcbd 02c0 8d61 96bf 58cc 49bf
00000010: f8b0 dabe eaae 85bf 6e01 97bf a48c a7bf
00000020: 48d1 aabf 4e19 67c0 2fa3 57bc c836 8abf
00000030: 39e5 0dc0 139e 90bf 49a6 85be ddae 0ebf
00000040: c7b2 41bf ff74 c7ba db1b d0be d522 c9bf
00000050: ea63 94bf a096 27c0 21d1 11c0 8fd6 03c0
00000060: 5529 42bf 068f febf e6cd 8fbf 8a22 b2bf
00000070: af5b fcbf 3074 9fbf 0ba9 92bf 9a9d 35c0
00000080: 99ef bbbf b5c4 2cbf de7e c4bf b53a c1bf
00000090: 8e92 d6c0 1a24 f0bf 474c f3bf 7a97 a8bf
000000a0: c549 a2bf 06fd 7abf 8374 e8bf e460 e1bf
000000b0: ca50 7bc0 a45e 19c0 7352 663c 4a79 15bf
000000c0: 7ea2 f6bf fe41 cdbf a4ce 503f 4be9 633f
000000d0: dfc0 b73f e984 f33e 3aea 0a3f 0e74 203f
000000e0: 5d34 383f 22ad 4e3f 924b 193f 7004 0d3f
000000f0: 3d59 9d3f 69db 833e 6e42 cb3e 65ae 9a3f
00000100: 2d66 cb3f a8eb 0e3f c669 6e3f dbda c93f
00000110: 8051 223f f934 8b3f 964e 543f 58f5 643f
00000120: 0610 8f3f 6577 673f 8982 be3e 8cac b63f
00000130: 7415 873f e7da 5f3f 7149 383f 3768 14be
00000140: f74d 0a3f 6807 0b3f 6468 023f 7ebc 473f
00000150: 9836 0c40 8b49 973f a18d 673f 216a ef3f
00000160: 551a ed3e f051 eb3e 65a6 1c3f a0e7 423f
00000170: 490b 943f 4ee0 593f f2b3 0c3f 78a1 0f3f
00000180: a0f1 833f baef 6b3f 2b47 c13e e2ef 453f
00000190: 2e25 813d 842b 0c3f 0b02 39be 06f0 febe
000001a0: 124f da3e 2300 763d 285b f3be e3a5 b5bd
000001b0: f5f8 6dbd 086d bebe b93f 2dbe 198d bbbd
000001c0: 038d ac3c 325d a1bb 0099 e63f 6c61 4cbf
000001d0: 38a3 993e fc2e ebbf 3fd0 2fbf 83c3 2dbf
000001e0: 026a bd3e d2e1 873e 8481 36be 356e 19be
000001f0: abb9 ab3e ea59 54be 9073 18be c836 043f
00000200: 88b9 d5bd 3d2e 4b3e 82aa 22bf 0dd2 3e3d
00000210: 6a5f a4bc 0a99 d0be 5d92 8b3e e498 e8bf
00000220: 3b37 f03e dfd7 423f 3691 9c3e 3e8a f5bd
00000230: 1eb9 44bc 2760 a33e 9626 ff3d a866 c6bd
00000240: 9a00 47bd a7e5 10bf da63 433f afee ccbf
00000250: 1162 4b3d 3473 903d

gru.bias_hh_l1 f4 [150]
-1.6982081 -1.8233837 -1.1351553 -0.8375877 -0.40723458 -1.1859176 -1.0310465 -1.2819964
-1.3950901 -3.4898832 -0.14355534 -0.9446502 -2.2769983 -0.93123543 -0.3721858 -0.46399802
-0.78451335 0.11028368 -0.53789824 -1.6361358 -1.2837353 -2.6458602 -2.4219308 -2.0689156
-0.77669066 -2.0047753 -1.2011935 -1.4247957 -2.03199 -1.2430717 -1.2261246 -2.8791223
-1.5138621 -0.82413805 -1.352443 -1.3902144 -6.5821943 -1.824082 -1.9066784 -1.452127
-1.3020841 -1.0761869 -1.8102615 -1.6884937 -3.758593 -2.3169007 -0.009522525 -0.8087221
-1.9853182 -1.3903831 0.7513584 1.0050604 1.2118459 0.2802016 0.7738267 0.7319908
0.7725887 0.8822556 0.7500704 0.56068546 1.2530953 0.20893319 0.50208557 1.1368396
1.5154076 0.6662114 0.7835006 1.4019998 0.5815781 1.1647999 0.9694549 1.1113021
1.1961398 0.8246625 0.45957857 1.3836949 1.0083599 0.8291473 0.5966959 -0.38269556
0.39543304 0.44645226 0.5614902 0.6918269 2.0459988 1.259618 0.99663156 1.9158522
0.327816 0.36919457 0.782365 0.5847066 1.2396497 0.89706427 0.33661425 0.5148492
1.0894135 0.9517985 0.5855787 0.79572695 -1.5329579 3.3614297 1.9592897 2.8635693
-3.5280921 -1.3058999 3.6073391 1.5095395 -2.7082074 -2.844508 2.8280666 -3.0232515
-2.940143 -1.8141314 2.6897979 2.621914 -2.94066 2.63259 2.969879 -2.2378602
-2.0245714 2.9833891 -3.6187563 -2.5000787 -3.249086 -1.0947106 3.0367541 2.6444764
4.5080132 3.134879 4.10827 -4.1122303 3.0881193 5.362892 2.769759 -4.604796
-0.29717374 3.959145 -1.8690664 2.966719 2.7717962 -4.051852 -0.791561 -1.7489178
-1.4880881 -4.1216125 3.728468 3.7251675 -3.114084 -1.8599305
00000000: e25e d9bf a364 e9bf c54c 91bf 266c 56bf
00000010: 0d81 d0be 26cc 97bf 55f9 83bf 7518 a4bf
00000020: 5092 b2bf 3f5a 5fc0 2c00 13be 98d4 71bf
00000030: 57ba 11c0 7265 6ebf 238f bebe 2691 edbe
00000040: ded5 48bf 69dc e13d b3b3 09bf e66c d1bf
00000050: 7051 a4bf c655 29c0 ea00 1bc0 1d69 04c0
00000060: 33d5 46bf 3d4e 00c0 b5c0 99bf b55f b6bf
00000070: 200c 02c0 f91c 9fbf a7f1 9cbf 8a43 38c0
00000080: 3cc6 c1bf b6fa 52bf da1c adbf 8cf2 b1bf
00000090: 56a1 d2c0 857b e9bf 0a0e f4bf 4cdf b9bf
000000a0: b1aa a6bf 7ec0 89bf a6b6 e7bf 9020 d8bf
000000b0: ca8c 70c0 1a48 14c0 5d04 1cbc 6908 4fbf
000000c0: e81e febf 13f8 b1bf 0659 403f d2a5 803f
000000d0: c41d 9b3f 9676 8f3e 8219 463f c063 3b3f
000000e0: 5fc8 453f 81db 613f 9d04 403f 1589 0f3f
000000f0: 6d65 a03f 95f2 553e ae88 003f f683 913f
00000100: e0f8 c13f d58c 2a3f 7f93 483f bb74 b33f
00000110: 4de2 143f 2a18 953f 322e 783f 263f 8e3f
00000120: 1c1b 993f 151d 533f e24d eb3e ea1c b13f
00000130: f011 813f ff42 543f 10c1 183f acf0 c3be
00000140: 3376 ca3e 6495 e43e d2bd 0f3f 911b 313f
00000150: a5f1 0240 2a3b a13f 3f23 7f3f a53a f53f
00000160: 80d7 a73e 1207 bd3e 1349 483f 55af 153f
00000170: d7ac 9e3f 01a6 653f b458 ac3e 28cd 033f
00000180: e771 8b3f 11a9 733f 7ce8 153f c3b4 4b3f
00000190: f737 c4bf aa21 5740 01ca fa3f b844 3740
000001a0: 43cc 61c0 ba27 a7bf a5de 6640 9738 c13f
000001b0: 4553 2dc0 6b0c 36c0 0bff 3440 f47c 41c0
000001c0: 4e2b 3cc0 7535 e8bf a625 2c40 70cd 2740
000001d0: c633 3cc0 5b7c 2840 7f12 3e40 1a39 0fc0
000001e0: 9492 01c0 d9ef 3e40 b499 67c0 4a01 20c0
000001f0: 06f1 4fc0 7a1f 8cbf 2e5a 4240 1a3f 2940
00000200: a541 9040 dca1 4840 f376 8340 6497 83c0
00000210: bfa3 4540 d09c ab40 bb43 3140 7d5a 93c0
00000220: 2827 98be a262 7d40 913d efbf b9de 3d40
00000230: 1c65 3140 c6a8 81c0 bea3 4abf 8adc dfbf
00000240: ac79 bebf 40e4 83c0 389f 6e40 2569 6e40
00000250: 274d 47c0 3412 eebf

gru.weight_ih_l2 f4 [150, 50]
-0.921676 -2.5769496 0.29595706 3.1803427 -0.7937835 -3.6305606 -0.61709034 3.1899502
6.6194496 -1.199863 0.7922574 -1.3808359 2.5132222 1.4340364 -2.2083504 0.012986824
1.5312567 -3.2759092 0.16104919 -0.5865677 -3.8803065 10.10141 -0.5780352 -2.1588945
0.81146616 -0.5976398 4.2859297 0.105363116 1.4360559 5.2808156 -2.6025088 2.3731856
-2.3951364 -2.3744836 0.11275287 2.2405376 1.5703608 -2.7289941 -0.92040277 6.863298
3.5821793 -3.2609916 2.1962645 -8.131638 -1.4246397 0.8781297 -3.0977132 -3.3811975
-0.34718215 0.044442173 -1.7118568 -3.8381906 -5.490371 -1.0993328 -3.8400495 0.2885864
1.0096657 1.6286601 2.4528334 -13.630027 0.7593267 -1.466576 2.5431147 0.56804633
-1.2216151 0.21023802 -0.1798089 0.18106483 -4.084731 0.5487337 1.2408863 0.060106713
0.7068373 0.15225434 4.2306485 -1.7964289 -1.3013384 -0.8467208 2.6252987 -1.8850921
-2.1752312 -2.4573567 -0.9601765 1.5884849 -1.3856612 2.4154203 -0.96842724 -0.44408563
-0.83867115 -1.1388816 -0.46401632 -0.4794066 -0.32178596 2.1031985 2.9121847 -0.4854384
-5.502547 0.78004926 3.2014728 0.09510112 -2.2024474 -0.074401364 2.8499672 0.4294912
-1.148319 0.5594887 -1.3423178 2.4061618 -1.276981 1.2012645 0.22217134 -1.4434938
1.1604886 -1.1904446 0.18225956 -2.2673824 -0.3014109 1.3010218 -1.3342844 1.2193631
-3.561844 3.258894 -0.35887048 -0.7876653 0.25935528 -2.375283 7.7482743 0.020281289
2.0110533 -3.314711 -0.09185656 -2.2858295 2.0361419 0.8313665 -2.5254915 0.18727879
0.6792044 0.21321344 0.9861236 -1.4273498 9.32406 -0.35735822 1.7474972 -2.5192983
4.6866207 0.517442 -0.6185764 -2.0512977 1.2125304 -0.020081833 1.4760479 0.16666025
-1.1836666 -1.9795891 0.8352959 -1.6395234 -0.5571866 -1.194421 0.86162364 0.77582216
-1.4437866 0.54405344 0.65819824 2.4663355 0.38562405 1.5026771 -4.586081 1.1684527
-3.4747787 -4.861534 3.056063 -0.52481896 -8.287758 -0.4373265 -12.641091 -6.9166374
2.051149 -0.66433036 -2.7581038 -0.45760322 -2.8481967 -1.6734483 0.55577165 -4.5602794
2.6591153 -6.1557693 0.35747463 1.247968 -1.188387 -1.9651226 1.4747887 -4.161183
-1.4769307 1.2694128 1.0989087 -1.2705054 3.771678 2.5392835 0.70360196 -0.9288367
1.6524562 -0.15046214 -3.4858565 -0.24496184 1.1477331 1.4181881 -1.5731541 1.0262637
0.565342 1.2585064 2.9487953 11.354855 -0.98573667 -1.4428524 0.059490856 -0.19921196
-1.3139402 -0.7607261 -2.7322295 -1.6614233 0.38679257 -0.6382408 -2.3605273 -0.35287708
1.5771507 -0.5414416 -1.3412908 -0.22533372 2.0664873 -1.1925653 2.63941 -4.747029
0.9177968 -1.1627417 -2.2559538 1.19845 0.69375134 3.5413392 0.12215602 -1.7309254
-0.19046712 1.0592644 2.195705 -1.8785818 3.4597604 2.1819859 0.39752886 -1.2254663
0.44627556 1.3240584 3.0371735 3.2525227 0.047014482 -1.6008908 1.4938978 0.8584746
00000000: f5f2 6bbf beec 24c0 af87 973e bc8a 4b40
00000010: 6535 4bbf 1b5b 68c0 a2f9 1dbf 2528 4c40
00000020: 88d2 d340 1c95 99bf 62d1 4a3f 3bbf b0bf
00000030: a2d8 2040 818e b73f 9d55 0dc0 b0c6 543c
00000040: 3800 c43f 7fa8 51c0 14ea 243e 4d29 16bf
00000050: f156 78c0 609f 2141 1dfa 13bf 542b 0ac0
00000060: 3fbc 4f3f ecfe 18bf 5626 8940 9ec8 d73d
00000070: aed0 b73f 71fc a840 818f 26c0 46e2 1740
00000080: ea49 19c0 8af7 17c0 faea e63d f864 0f40
00000090: 9501 c93f d7a7 2ec0 849f 6bbf 23a0 db40
000000a0: 6d42 6540 16b4 50c0 998f 0c40 301b 02c1
000000b0: 985a b6bf 1ccd 603f ef40 46c0 8a65 58c0
000000c0: dcc1 b1be ff08 363d 201e dbbf eaa4 75c0
000000d0: 1fb1 afc0 f0b6 8cbf 5fc3 75c0 99c1 933e
000000e0: ba3c 813f ef77 d03f 39fb 1c40 9714 5ac1
000000f0: 3c63 423f c3b8 bbbf 64c2 2240 7c6b 113f
00000100: e25d 9cbf a348 573e d31f 38be 0f69 393e
00000110: 1eb6 82c0 d079 0c3f 5dd5 9e3f 7532 763d
00000120: 4af3 343f 90e8 1b3e 7961 8740 62f1 e5bf
00000130: 4292 a6bf b2c2 58bf e504 2840 b34a f1bf
00000140: fd36 0bc0 5545 1dc0 21ce 75bf 7953 cb3f
00000150: 595d b1bf 3f96 1a40 d9ea 77bf 315f e3be
00000160: 27b3 56bf dfc6 91bf 8c93 edbe c874 f5be
00000170: 21c1 a4be ce9a 0640 3c61 3a40 628b f8be
00000180: dd14 b0c0 4fb1 473f eee4 4c40 60c4 c23d
00000190: e6f4 0cc0 be5f 98bd dd65 3640 45e6 db3e
000001a0: 1efc 92bf a73a 0f3f 12d1 abbf 8efe 1940
000001b0: 1d74 a3bf 09c3 993f e280 633e 68c4 b8bf
000001c0: e48a 943f 7d60 98bf 40a2 3a3e cb1c 11c0
000001d0: 8852 9abe e287 a63f d5c9 aabf 1714 9c3f
000001e0: 41f5 63c0 b891 5040 dfbd b7be 6fa4 49bf
000001f0: 37ca 843e a304 18c0 ddf1 f740 f224 a63c
00000200: 19b5 0040 3a24 54c0 4b1f bcbd 084b 12c0
00000210: 2650 0240 6fd4 543f a7a1 21c0 03c6 3f3e
00000220: 57e0 2d3f a054 5a3e 9972 7c3f 66b3 b6bf
00000230: 5a2f 1541 a8f7 b6be fdad df3f 2f3c 21c0
00000240: ccf8 9540 1477 043f 065b 1ebf 7648 03c0
00000250: 3234 9b3f a882 a4bc 23ef bc3f fca8 2a3e
00000260: 6382 97bf 2d63 fdbf f4d5 553f e7db d1bf
00000270: c8a3 0ebf cae2 98bf 5e93 5c3f 489c 463f
00000280: 00ce b8bf 1647 0b3f ae7f 283f 71d8 1d40
00000290: 8470 c53e b957 c03f 2dc1 92c0 dc8f 953f
000002a0: c662 5ec0 b091 9bc0 8996 4340 895a 06bf
000002b0: a89a 04c1 42e9 dfbe e941 4ac1 1855 ddc0
000002c0: 0646 0340 8e11 2abf c684 30c0 f84a eabe
000002d0: db48 36c0 8e33 d6bf 0d47 0e3f cfed 91c0
000002e0: f22e 2a40 10fc c4c0 ea06 b73e 6abd 9f3f
000002f0: 111d 98bf 2389 fbbf e0c5 bc3f 6928 85c0
00000300: 110c bdbf 1e7c a23f 0aa9 8c3f ec9f a2bf
00000310: 2c63 7140 9f83 2240 421f 343f 3ec8 6dbf
00000320: af83 d33f bf12 1abe 4618 5fc0 47d7 7abe
00000330: ebe8 923f 3087 b53f 1d5d c9bf 9c5c 833f
00000340: 41ba 103f bd16 a13f 10b9 3c40 7cad 3541
00000350: 3d59 7cbf 63af b8bf afac 733d 38fe 4bbe
00000360: 312f a8bf f2be 42bf d9dc 2ec0 85a9 d4bf
00000370: ad09 c63e c063 23bf e112 17c0 4eac b4be
00000380: 13e0 c93f eb9b 0abf 6baf abbf e2bd 66be
00000390: 5441 0440 fba5 98bf 18ec 2840 a9e7 97c0
000003a0: bbf4 6a3f b8d4 94bf 8c61 10c0 cf66 993f
000003b0: b099 313f 4da5 6240 ef2c fa3d f78e ddbf
000003c0: d009 43be fa95 873f 6e86 0c40 5e75 f0bf
000003d0: b76c 5d40 a8a5 0b40 e788 cb3e 14dc 9cbf
000003e0: 3b7e e43e bf7a a93f 0d61 4240 5529 5040
000003f0: 4292 403d fde9 ccbf 0b38 bf3f fec4 5b3f
