CNN-based-IoT-Device-Identification-main/gru_61.60.pth (torch, 53219 bytes, 6 tensors)

gru.weight_ih_l0 f4 [150, 25]
-16.178753 -14.564315 -12.676727 6.8588815 -4.2523913 0.116973266 7.968792 1.2161124
-0.7175974 -20.370659 22.907171 -21.175444 -21.189766 23.155535 -3.7401922 12.161159
-3.1236353 -0.8689581 3.1430721 -0.91015154 1.993303 -5.975693 -0.65865314 -23.666542
-7.246963 -3.5928247 3.0927222 -3.6672196 -6.9974995 -12.709268 -0.13179702 -26.093784
2.3345087 -3.8297722 15.880115 39.593857 -13.380416 -13.443067 -0.86864114 1.4124994
36.046772 -0.026449155 3.8141353 -2.9436383 3.6441455 -4.0538006 -0.7629887 -3.9103155
-2.5158894 -2.8671093 -2.2037878 -0.43961665 -4.2296724 -11.835708 -3.4530602 0.017985627
-13.384668 -2.0409188 -4.683322 -47.060963 78.29412 -7.9131913 -7.8609557 -0.7421949
-0.38736168 7.753993 -9.571072 -4.3910584 -1.1044325 -4.322928 8.458426 -34.35328
-2.3712184 -8.938907 12.199164 -1.5535216 6.658824 -7.8932767 2.1676447 -11.298901
0.081973806 -3.770386 -9.033902 -2.6963096 7.12683 84.623665 -17.42083 -17.412813
60.03662 -7.9044695 31.65863 -10.812669 12.702907 1.0674871 12.590921 3.1156611
-3.6919048 -1.4786639 4.8289347 -1.7982376 1.6588571 -1.3245398 -0.9505658 -9.399094
-0.18286301 -0.0020391196 -18.451471 -2.3278158 -0.2507696 249.45854 57.062313 -2.4441547
-2.3052044 11.835601 4.3532777 45.114525 -0.46357703 7.2058215 -1.6795039 7.0781655
5.0470343 -9.484074 -0.45390764 5.6118484 -2.5540009 1.920401 17.578339 -2.740041
-13.939249 6.0800323 -0.03913045 -12.26499 -10.422152 -0.15452173 171.89961 62.780296
-10.953308 -11.13412 -45.48966 5.1644664 44.612766 -9.7087345 8.414426 -6.934559
8.410789 -18.800709 -27.694075 0.18434235 -1.8695035 -9.458387 -3.0798914 9.423423
0.5870399 -8.551267 -18.978617 0.10207413 -4.6912227 -11.458262 -0.6189828 47.886055
159.93246 -14.128724 -14.267669 43.287163 2.36298 26.250835 -2.1161678 3.401926
1.8001678 3.313963 -6.0463667 -21.406036 1.5409669 -10.159563 -14.294075 -1.9638803
-2.2525742 -4.9661937 -5.8460183 -5.5968513 -0.04606334 -10.490109 2.214815 -4.6274543
10.524726 -7.5615473 -3.154083 -3.2317643 1.2776486 1.0546789 5.9051585 1.4203858
-2.3029966 -0.9995716 -2.2455554 -3.9270513 -1.774105 -3.7741902 -3.5711699 -0.72767866
-5.7402673 7.766886 0.6218393 -2.6138992 2.4347837 0.044986144 -3.2983925 11.98883
1.6280321 -42.188026 -8.109555 -17.677845 -17.656956 8.437838 12.015467 -13.253487
33.761974 -12.877001 3.1495128 -12.73046 1.2879775 -2.7329283 -1.9101988 -14.910761
-0.27361095 0.36069044 3.698741 6.8515754 18.563438 -7.274864 -0.025319636 14.740488
4.387627 -0.7509988 -44.24582 380.54373 -6.8788357 -6.8094997 -19.724092 6.5033903
39.003098 -14.096173 11.044562 181.9977 11.010265 120.24037 -68.343605 3.2770948
-13.070243 -14.003088 -0.65160525 -8.217365 -4.18182 36.315002 -13.459469 -0.08920388
00000000: 166e 81c1 6f07 69c1 e0d3 4ac1 f57b db40
00000010: 9713 88c0 ae8f ef3d 5800 ff40 92a9 9b3f
00000020: 77b4 37bf 1cf7 a2c1 e341 b741 4f67 a9c1
00000030: a484 a9c1 893e b941 4f5f 6fc0 1b94 4241
00000040: a4e9 47c0 0a74 5ebf 1828 4940 b1ff 68bf
00000050: 8d24 ff3f e138 bfc0 7e9d 28bf 1455 bdc1
00000060: 1fe7 e7c0 d7f0 65c0 29ef 4540 bab3 6ac0
00000070: 84eb dfc0 2959 4bc1 ccf5 06be 12c0 d0c1
00000080: 9768 1540 fd1a 75c0 f314 7e41 1c60 1e42
00000090: 2f16 56c1 cd16 57c1 445f 5ebf c8cc b43f
000000a0: e52f 1042 e6ab d8bc cb1a 7440 9264 3cc0
000000b0: ae39 6940 bcb8 81c0 3a53 43bf 9c42 7ac0
000000c0: 5504 21c0 b87e 37c0 dc0a 0dc0 6f15 e1be
000000d0: 7a59 87c0 0f5f 3dc1 f0fe 5cc0 9856 933c
000000e0: 9a27 56c1 6a9e 02c0 c6dd 95c0 6d3e 3cc2
000000f0: 9796 9c42 dd38 fdc0 f38c fbc0 7c00 3ebf
00000100: 4554 c6be b620 f840 1c23 19c1 8d83 8cc0
00000110: 0b5e 8dbf 6d55 8ac0 b755 0741 c269 09c2
00000120: 0bc2 17c0 c305 0fc1 c72f 4341 ccd9 c6bf
00000130: 1615 d540 b995 fcc0 b1ba 0a40 4cc8 34c1
00000140: e2e1 a73d 014e 71c0 dd8a 10c1 5690 2cc0
00000150: fe0e e440 513f a942 dc5d 8bc1 714d 8bc1
00000160: 8025 7042 6af1 fcc0 e044 fd41 b100 2dc1
00000170: 1b3f 4b41 6ba3 883f 6a74 4941 fe66 4740
00000180: 2b48 6cc0 dc44 bdbf a286 9a40 a62c e6bf
00000190: 6e55 d43f 858a a9bf 4858 73bf b062 16c1
000001a0: 7140 3bbe c0a2 05bb 9d9c 93c1 effa 14c0
000001b0: df64 80be 6375 7943 cf3f 6442 086d 1cc0
000001c0: 7888 13c0 9f5e 3d41 0d4e 8b40 4675 3442
000001d0: f859 edbe 1796 e640 fcf9 d6bf 5580 e240
000001e0: 4e81 a140 c4be 17c1 9566 e8be 4394 b340
000001f0: c074 23c0 b3cf f53f 70a0 8c41 d55c 2fc0
00000200: 2a07 5fc1 a08f c240 4047 20bd 663d 44c1
00000210: 22c1 26c1 f23a 1ebe 4de6 2b43 061f 7b42
00000220: c040 2fc1 5b25 32c1 69f5 35c2 4f43 a540
00000230: 7973 3242 fa56 1bc1 7da1 0641 e8e7 ddc0
00000240: 9792 0641 da67 96c1 778d ddc1 3ec4 3c3e
00000250: e44b efbf 8e55 17c1 f11c 45c0 57c6 1641
00000260: 3f48 163f fdd1 08c1 35d4 97c1 3e0c d13d
00000270: 7f1e 96c0 0b55 37c1 a875 1ebf 528b 3f42
00000280: b6ee 1f43 410f 62c1 5f48 64c1 0e26 2d42
00000290: 103b 1740 b601 d241 4b6f 07c0 28b9 5940
000002a0: e66b e63f f817 5440 d67b c1c0 903f abc1
000002b0: 673e c53f 928d 22c1 88b4 64c1 6e60 fbbf
000002c0: 2d2a 10c0 0feb 9ec0 9512 bbc0 6819 b3c0
000002d0: eaac 3cbd 7dd7 27c1 87bf 0d40 1b14 94c0
000002e0: 4765 2841 32f8 f1c0 7fdc 49c0 3ad5 4ec0
000002f0: fd89 a33f b8ff 863f 0ff7 bc40 34cf b53f
00000300: 4c64 13c0 ede3 7fbf 2eb7 0fc0 cf54 7bc0
00000310: df15 e3bf 558c 71c0 0c8e 64c0 2649 3abf
00000320: 45b0 b7c0 558a f840 dc30 1f3f 204a 27c0
00000330: 7fd3 1b40 6443 383d dd18 53c0 3fd2 3f41
00000340: 5b63 d03f 8ac0 28c2 bdc0 01c1 3a6c 8dc1
00000350: 7241 8dc1 6201 0741 5a3f 4041 480e 54c1
00000360: 430c 0742 3208 4ec1 9e91 4940 f7af 4bc1
00000370: 72dc a43f 4ce8 2ec0 6581 f4bf 7a92 6ec1
00000380: bc16 8cbe 6bac b83e 2cb8 6c40 1b40 db40
00000390: ec81 9441 b0cb e8c0 206b cfbc 0ad9 6b41
000003a0: 7167 8c40 7541 40bf b8fb 30c2 9945 be43
000003b0: 6c1f dcc0 6ce7 d9c0 f1ca 9dc1 c61b d040
000003c0: 2c03 1c42 ed89 61c1 87b6 3041 69ff 3543
000003d0: 0c2a 3041 127b f042 edaf 88c2 ecbb 5140
000003e0: b71f 51c1 a60c 60c1 9acf 26bf 547a 03c1
000003f0: 78d1 85c0 9042 1142 fc59 57c1 86b0 b6bd

gru.weight_hh_l0 f4 [150, 50]
0.008559868 -0.11951311 -0.08086475 -0.13130835 -0.13607284 -0.11601548 -0.12161836 0.12469952
-0.114858225 0.06126164 0.06111826 0.023664147 -0.0860496 -0.01099363 -0.017098896 -0.12869228
0.010593742 -0.12201759 -0.031414643 -0.09057757 -0.05899106 0.07710779 0.068477765 -0.1320294
0.09294467 0.08229078 0.07301389 0.02043134 0.023874745 -0.046933927 0.0012489557 -0.052078605
0.036954224 0.098942846 0.0036080033 -0.038527176 0.1105461 0.09861587 -0.12933812 -0.08581215
0.09490454 0.0046707243 -0.10772589 0.104647145 0.041784838 0.09725499 -0.13976185 -0.075326435
-0.03793493 0.09367582 -0.11237414 0.07744098 0.07632604 0.07787709 -0.04040303 -0.020527743
0.13716944 -0.0021163672 0.008533776 0.12919818 0.06354061 -0.093954585 0.121441856 -0.058464035
0.13149641 0.13445567 0.014739424 0.016691908 -0.09852605 0.10071464 -0.03612233 0.089827806
-0.107944176 -0.08067457 0.10261753 0.1384329 -0.017811596 0.13462825 -0.10539082 0.087523416
-0.04508838 0.042208105 0.078261 0.026046097 0.05151908 -0.006620124 -0.072268985 0.0068087727
0.0068225116 0.04897338 -0.049803972 -0.077836856 -0.0052632987 0.07119313 -0.09007111 0.0438281
0.08869833 0.064240485 0.08813967 -0.04721673 -0.05385095 0.010332957 -0.044105954 -0.08659971
-0.11681521 -0.13825399 -0.07738593 0.09234655 0.122734025 -0.048181117 -0.089709066 0.02450426
-0.019895472 -0.09626229 -0.13012515 -0.11632959 -0.045008942 -0.015901923 0.051701143 -0.081262335
-0.08541081 0.02437213 -0.015996814 0.1347792 -0.1287932 0.0012703687 0.095268875 -0.11231731
0.05406718 0.09012312 -0.12937658 0.020127848 -0.11357101 0.03585045 0.08983283 -0.13107818
-0.04149489 -0.0537341 0.020687431 0.10389669 -0.103215076 0.08551438 0.12825988 0.1289257
-0.008882701 0.06923099 0.012551501 0.091666296 0.030288145 0.051493317 -0.11372759 -0.09711875
0.092666075 -0.13264458 -0.064614914 -0.007512614 0.12008087 0.038311467 -0.1334187 -0.06373762
-0.12672032 -0.13830853 0.08073957 -0.059144996 -0.1314919 -0.034139693 0.08434865 -0.08347875
-0.024952658 -0.044201985 -0.05635091 0.04024498 -0.098425 0.020284995 -0.13736248 0.060857356
0.093140826 -0.007518515 0.036107138 0.13795413 -0.11597429 -0.065298416 0.10473521 -0.005933672
-0.106528796 0.10553306 0.031591132 -0.13310327 -0.12765136 -0.0659172 0.0230366 0.005139157
-0.03722155 0.11324532 0.05369568 -0.07102186 0.10569663 0.119591966 -0.06826207 -0.050126463
-0.022455424 0.004954532 -0.028234243 0.0575611 -0.07708472 -0.08063018 -0.12842883 -0.02714859
-0.06694862 0.027964637 -0.09090445 -0.09120808 -0.12755242 -0.11469006 0.0827485 0.037841216
0.046720013 -0.057456136 -0.07213479 -0.1154554 0.06552717 0.087205425 0.08617599 0.12783124
0.02512841 -0.11689247 -0.010623217 -0.11463234 0.08333397 -0.02651868 -0.007076502 0.046070784
-0.12769358 -0.013079226 -0.021991111 0.00723885 0.009203985 0.12701519 0.0004620701 0.108446494
0.113138154 -0.12045507 0.13101731 -0.09847473 -0.021483094 -0.06553518 -0.08439347 -0.07075785
-0.049346022 -0.078514405 0.13219996 -0.0145569295 -0.13585131 0.080407545 -0.12365783 0.02141872
00000000: b03e 0c3c 4ac3 f4bd 6b9c a5bd b275 06be
00000010: ae56 0bbe 8699 edbd 0c13 f9bd 7662 ff3d
00000020: ca3a ebbd 7ced 7a3d 2457 7a3d 50db c13c
00000030: c63a b0bd a01e 34bc fc12 8cbc e9c7 03be
00000040: 6091 2d3c 5ce4 f9bd a4ac 00bd bc80 b9bd
00000050: 9ca0 71bd b0ea 9d3d 123e 8c3d b732 07be
00000060: c659 be3d 1288 a83d 4e88 953d a05f a73c
00000070: f894 c33c ca3d 40bd 00b4 a33a 6050 55bd
00000080: 505d 173d 8ca2 ca3d 4074 6c3b acce 1dbd
00000090: fe65 e23d 1ef7 c93d 3671 04be 48be afbd
000000a0: 505d c23d e00c 993b 649f dcbd 3e51 d63d
000000b0: 9426 2b3d a02d c73d bb1d 0fbe bf44 9abd
000000c0: a861 1bbd 1cd9 bf3d 6a24 e6bd 6099 9e3d
000000d0: d450 9c3d 067e 9f3d a67d 25bd cc29 a8bc
000000e0: 2576 0c3e c0b2 0abb 40d1 0b3c 874c 043e
000000f0: 9421 823d 436b c0bd 82b6 f83d fc77 6fbd
00000100: ffa6 063e bfae 093e a07d 713c 78bd 883c
00000110: 07c8 c9bd 7a43 ce3d 02f5 13bd a4f7 b73d
00000120: d611 ddbd b538 a5bd 2429 d23d 5bc1 0d3e
00000130: a0e9 91bc fddb 093e 24d7 d7bd 7a3f b33d
00000140: 98ae 38bd 68e2 2c3d 4e47 a03d a05e d53c
00000150: ac05 533d a0ed d8bb c301 94bd 201c df3b
00000160: 608f df3b 5098 483d 40ff 4bbd ee68 9fbd
00000170: c077 acbb b4cd 913d 3477 b8bd 1885 333d
00000180: 78a7 b53d 8490 833d 9282 b43d 5466 41bd
00000190: d092 5cbd 904b 293c 72a8 34bd 305b b1bd
000001a0: d03c efbd 7492 0dbe 847c 9ebd 3020 bd3d
000001b0: fa5b fb3d 9059 45bd 63b9 b7bd 28bd c83c
000001c0: d4fb a2bc 2a25 c5bd 873f 05be 353e eebd
000001d0: 4c5b 38bd c044 82bc 94c4 533d de6c a6bd
000001e0: ddeb aebd 10a8 c73c c00b 83bc 8f03 0a3e
000001f0: 5de2 03be 8082 a63a 541c c33d 9e06 e6bd
00000200: 8c75 5d3d 7892 b83d 4b7b 04be 28e3 a43c
00000210: eb97 e8bd ecd7 123d 46fa b73d 5c39 06be
00000220: 8cf6 29bd 4a18 5cbd b078 a93c cac7 d43d
00000230: 6d62 d3bd 2a22 af3d 8f56 033e 1905 043e
00000240: c088 11bc fac8 8d3d d0a4 4d3c 8abb bb3d
00000250: d81e f83c a8ea 523d 03ea e8bd 32e6 c6bd
00000260: b6c7 bd3d fbd3 07be d354 84bd 602c f6bb
00000270: f6ec f53d 7cec 1c3d e99e 08be df88 82bd
00000280: f9c2 01be c0a0 0dbe ca5a a53d 0642 72bd
00000290: d0a5 06be 10d6 0bbd fcbe ac3d e8f6 aabd
000002a0: 8469 ccbc 240d 35bd 36d0 66bd ecd7 243d
000002b0: 0c93 c9bd b82c a63c c0a8 0cbe 9045 793d
000002c0: 9ec0 be3d e05d f6bb 14e5 133d d943 0d3e
000002d0: ee83 edbd 2dbb 85bd 6a7f d63d 406f c2bb
000002e0: c52b dabd b821 d83d b465 013d 394c 08be
000002f0: 0ab7 02be 99ff 86bd 40b7 bc3c 6066 a83b
00000300: a075 18bd 2aed e73d 00f0 5b3d e973 91bd
00000310: 7a77 d83d a2ec f43d fccc 8bbd 6851 4dbd
00000320: 70f4 b7bc a059 a23b 804b e7bc 30c5 6b3d
00000330: 98de 9dbd 7021 a5bd d982 03be b866 debc
00000340: 5c1c 89bd 1816 e53c 1d2c babd 4dcb babd
00000350: 1a9d 02be 9fe2 eabd 0c78 a93d 64ff 1a3d
00000360: 7c5d 3f3d 2057 6bbd 68bb 93bd e173 ecbd
00000370: 1c33 863d c298 b23d 0a7d b03d 31e6 023e
00000380: 18da cd3c 5265 efbd 000d 2ebc 5cc4 eabd
00000390: 00ab aa3d b43d d9bc 00e2 e7bb b8b4 3c3d
000003a0: 1bc2 02be 404a 56bc b426 b4bc e033 ed3b
000003b0: 50cc 163c 4510 023e 0042 f239 3219 de3d
000003c0: fab4 e73d 26b1 f6bd 6729 063e 1fad c9bd
000003d0: 50fd afbc 4f37 86bd 7cd6 acbd 7ee9 90bd
000003e0: 0e1f 4abd 29cc a0bd 6d5f 073e 3080 6ebc
000003f0: 9b1c 0bbe b6ac a43d 5140 fdbd 5076 af3c

gru.bias_ih_l0 f4 [150]
-0.18988185 -5.126147 -5.104335 -2.2436926 -0.07788039 -0.2754783 -0.5292256 -6.2269106
-0.5836484 0.25147545 -0.24087028 -0.39590883 -0.6481071 -4.6410794 -0.24242353 -0.44252568
-2.347776 -2.995186 -0.6723043 -2.1566951 -1.0507044 -0.731861 -0.27853242 -4.6998286
-2.2092416 -0.0654513 -0.38997442 -0.54742515 -1.8056802 -4.6834545 0.11636365 -0.21171659
-0.35135084 -6.1030717 -0.1823681 -0.67845404 -0.32566136 -1.1220704 -1.397403 -0.7561121
-1.8735012 -1.1603845 -5.6442757 -0.47055158 -0.2633652 -0.8110667 -2.5197241 -0.272317
-0.27342322 -0.749542 0.7314247 -1.0032192 1.944928 0.9732949 1.6550871 0.083429985
0.36571088 1.1180556 -0.30594668 -0.14717421 0.23254988 0.66030294 1.7280893 0.24541236
1.5537348 0.485125 0.6896629 0.23482145 0.15567721 -0.6816585 0.35748956 -0.3725094
1.6345946 0.24717231 -0.02020516 1.6662664 1.0134292 0.41597924 1.4290965 -0.45239285
0.30811056 3.202782 -0.6066248 0.74996555 1.3328687 0.3313149 0.30060115 0.3416204
0.24257766 -0.7317194 0.71781844 0.47354418 1.3170733 1.4243501 -0.848677 0.13936897
0.79756945 2.2338183 0.9781804 0.53260064 0.99459285 -0.041870706 0.034536876 -0.062406875
0.38618913 -0.3899026 0.03577586 -0.012803676 0.5796156 -1.1405344 0.61774856 0.7640474
-0.18124734 -0.22515588 0.27542296 -0.10814559 0.13511609 -0.091732316 0.29899058 -0.53409016
0.2334047 0.49728554 -0.6876253 0.03813431 0.38794497 -1.0247545 0.40383154 0.23919922
0.07073854 -0.09635673 1.3962168 1.0043616 0.08825585 0.16277604 0.93736017 -0.2401477
-0.7550411 0.14451541 0.27772945 -0.034201987 0.3607961 0.05773012 0.06931208 0.3790747
-0.5193754 -0.008046238 -0.0798317 0.10559852 -0.6677472 -0.23071489
00000000: 6370 42be 6509 a4c0 b656 a3c0 a998 0fc0
00000010: c17f 9fbd 7e0b 8dbe 547b 07bf da42 c7c0
00000020: fb69 15bf 64c1 803e b3a6 76be 90b4 cabe
00000030: 59ea 25bf b983 94c0 e03d 78be ba92 e2be
00000040: f641 16c0 21b1 3fc0 221c 2cbf 4b07 0ac0
00000050: 7b7d 86bf 3e5b 3bbf cd9b 8ebe ff64 96c0
00000060: 3764 0dc0 550b 86bd baaa c7be 0e24 0cbf
00000070: 8720 e7bf dcde 95c0 1150 ee3d 3ccc 58be
00000080: 42e4 b3be 5d4c c3c0 b4be 3abe 2aaf 2dbf
00000090: 16bd a6be 01a0 8fbf 1ade b2bf 9090 41bf
000000a0: e3ce efbf 7b87 94bf e89d b4c0 23ec f0be
000000b0: ced7 86be 11a2 4fbf 2943 21c0 226d 8bbe
000000c0: 21fe 8bbe fce1 3fbf a63e 3b3f 7d69 80bf
000000d0: 67f3 f83f db29 793f e5d9 d33f 57dd aa3d
000000e0: 753e bb3e 721c 8f3f 0ba5 9cbe d6b4 16be
000000f0: 8e21 6e3e 9d09 293f 0832 dd3f 614d 7b3e
00000100: c8e0 c63f 4e62 f83e bf8d 303f 0975 703e
00000110: d969 1f3e 2c81 2ebf df08 b73e 8db9 bebe
00000120: 653a d13f bd1a 7d3e 4b85 a5bc 3848 d53f
00000130: 0cb8 813f 3bfb d43e a2ec b63f 09a0 e7be
00000140: abc0 9d3e 61fa 4c40 c34b 1bbf befd 3f3f
00000150: 719b aa3f 1ba2 a93e 65e8 993e dee8 ae3e
00000160: 4766 783e f651 3bbf f3c2 373f 6274 f23e
00000170: dc95 a83f 1b51 b63f e542 59bf bdb6 0e3e
00000180: 832d 4c3f e1f6 0e40 086a 7a3f 8458 083f
00000190: a39d 7e3f 9e80 2bbd 8a76 0d3d 5a9e 7fbd
000001a0: 95ba c53e 50a1 c7be b589 123d 82c6 51bc
000001b0: b061 143f 08fd 91bf c524 1e3f 9c98 433f
000001c0: e798 39be 438f 66be 3d04 8d3e 6f7b ddbd
000001d0: df5b 0a3e 27de bbbd 4b15 993e 22ba 08bf
000001e0: a401 6f3e 369c fe3e 3608 30bf b932 1c3d
000001f0: b9a0 c63e 282b 83bf 02c3 ce3e a4f0 743e
00000200: 5edf 903d ad56 c5bd 3bb7 b23f ec8e 803f
00000210: 7cbf b43d c3ae 263e d6f6 6f3f 47e9 75be
00000220: 604a 41bf d9fb 133e 8e32 8e3e 6217 0cbd
00000230: 44ba b83e 6b76 6c3d 7ef3 8d3d 1416 c23e
00000240: c9f5 04bf 5ed4 03bc cd7e a3bd 0944 d83d
00000250: 7bf1 2abf 8640 6cbe

gru.bias_hh_l0 f4 [150]
-0.2823263 -5.198025 -4.9634886 -2.215801 -0.1796 -0.30613554 -0.6460382 -6.20623
-0.8167108 0.2659499 -0.16588838 -0.31681207 -0.5220309 -4.8368945 -0.2243775 -0.52955866
-2.2313292 -2.997264 -0.63655645 -2.1195252 -1.012395 -0.6977884 -0.27582926 -4.813852
-2.1711433 -0.09897281 -0.37530872 -0.4107623 -1.8431009 -4.725308 -0.045114614 -0.22822139
-0.33097473 -6.008565 -0.1200192 -0.8453503 -0.43513358 -1.1590263 -1.4270993 -0.76304245
-1.7129132 -1.2205282 -5.625299 -0.62872845 -0.27347955 -0.814535 -2.4681046 -0.3168656
-0.301042 -0.67868 0.6216746 -1.1804495 1.8046752 1.2020955 1.4655942 -0.0043533584
0.52572525 1.1491035 -0.27691787 -0.32843235 0.061719082 0.62988573 1.5971398 0.41227308
1.5596403 0.39781794 0.6951399 0.19406494 0.31444064 -0.7954333 0.34375998 -0.514012
1.6384673 0.24095054 -0.13716279 1.6755495 0.8903292 0.33429116 1.3830779 -0.3206406
0.4659512 3.2252882 -0.467608 0.70989937 1.3807029 0.15037455 0.51478344 0.34014177
0.13828544 -0.6549604 0.7798444 0.6479272 1.3568552 1.3632052 -0.7858301 0.22166815
0.8355415 2.179103 0.81188774 0.62846345 -5.7108803 -0.88709587 -0.21707681 -0.91542184
-2.2193213 2.2200205 -1.7766136 0.036032356 1.6494495 7.7505794 -3.2112126 -3.2150412
-2.2053328 -2.1259563 -2.295913 2.987607 0.6868703 -0.40293086 -1.9692854 -4.082343
1.5368077 -1.8623823 4.293526 -0.6964709 1.3413004 5.0465665 -1.9740249 -2.1806362
1.1269076 -1.4981948 -6.5964565 -3.7195811 2.004741 0.7966703 -4.307902 2.5316093
3.1130838 1.0546906 0.97273827 -1.453244 0.9843567 4.3007245 0.42547292 1.8956999
2.6863606 -2.1864357 -0.67901134 -1.773485 2.842169 2.7487404
00000000: 138d 90be 3956 a6c0 e6d4 9ec0 afcf 0dc0
00000010: 10e9 37be ccbd 9cbe c262 25bf 7099 c6c0
00000020: f613 51bf 962a 883e a5de 29be 3135 a2be
00000030: d1a3 05bf d7c7 9ac0 37c3 65be 2891 07bf
00000040: 19ce 0ec0 2cd3 3fc0 5df5 22bf 4da6 07c0
00000050: 2996 81bf 43a2 32bf 7e39 8dbe 130b 9ac0
00000060: 03f4 0ac0 42b2 cabd 7728 c0be 704f d2be
00000070: bbea ebbf b935 97c0 1aca 38bd deb2 69be
00000080: 8575 a9be 2a46 c0c0 a0cc f5bd e168 58bf
00000090: d4c9 debe f95a 94bf 31ab b6bf c056 43bf
000000a0: bd40 dbbf 453a 9cbf 7302 b4c0 59f4 20bf
000000b0: 8305 8cbe 5e85 50bf 6df5 1dc0 353c a2be
000000c0: 2d22 9abe f9bd 2dbf 1126 1f3f f818 97bf
000000d0: 99ff e63f 44de 993f 9798 bb3f 9ea6 8ebb
000000e0: ee95 063f d315 933f 2ec8 8dbe 4928 a8be
000000f0: 26cd 7c3d 3140 213f 146f cc3f 7515 d33e
00000100: 4ba2 c73f cbae cb3e b0f4 313f f6b8 463e
00000110: 5dfe a03e 84a1 4bbf 4f01 b03e 4a96 03bf
00000120: 4cb9 d13f bdbb 763e 6774 0cbe 6878 d63f
00000130: 9dec 633f 3628 ab3e b208 b13f 012b a4be
00000140: 2891 ee3e 1f6b 4e40 516a efbe f7bb 353f
00000150: dfba b03f c9fb 193e d9c8 033f 1027 ae3e
00000160: b39a 0d3e 7cab 27bf e2a3 473f 8fde 253f
00000170: 6ead ad3f 827d ae3f 292c 49bf fafc 623e
00000180: 0ce6 553f 6c76 0b40 e0d7 4f3f fbe2 203f
00000190: 88bf b6c0 b718 63bf 6249 5ebe 1659 6abf
000001a0: 5c09 0ec0 d114 0e40 1368 e3bf aa96 133d
000001b0: 2921 d33f bf04 f840 8284 4dc0 3cc3 4dc0
000001c0: 2c24 0dc0 ab0f 08c0 3df0 12c0 f434 3f40
000001d0: bbd6 2f3f f44c cebe 8b11 fcbf 8ea2 82c0
000001e0: 1db6 c43f 8b62 eebf 9164 8940 eb4b 32bf
000001f0: bbaf ab3f 797d a140 d9ac fcbf 8b8f 0bc0
00000200: 823e 903f d9c4 bfbf 2c16 d3c0 9e0d 6ec0
00000210: ad4d 0040 96f2 4b3f 55da 89c0 e305 2240
00000220: c43c 4740 1a00 873f 6005 793f e603 babf
00000230: cdfe 7b3f 899f 8940 96d7 d93e 4ba6 f23f
00000240: 55ed 2b40 90ee 0bc0 b0d3 2dbf 8e01 e3bf
00000250: 19e6 3540 5deb 2f40

fc.weight f4 [27, 50]
3.2891846 -2.7291708 2.5263417 6.8833222 -12.014445 7.735924 4.4806137 -2.7838447
-4.9935603 -4.7370505 -1.2839524 4.2005424 4.356417 -0.37605482 3.6752203 -2.9316041
1.6047337 -1.2224724 9.726651 -1.360138 -4.874326 4.150223 -2.427725 2.0656912
0.10236931 -34.04572 -12.40542 -4.332512 6.9444184 -1.7953304 7.827489 6.3415446
-3.2887135 -2.1452975 -1.6148981 1.7006961 -1.7457643 -3.1981602 -2.9473407 -0.85286075
0.070657216 0.77618533 -5.0206223 -0.43381146 3.6475499 6.8360243 -1.7352625 -1.3235186
5.0776353 -5.075704 -1.5720757 0.94741935 -5.5459604 -6.0563273 -5.347029 4.7277536
-7.2512436 4.5606866 -3.2778378 4.943768 -7.075694 -1.9695967 0.5961682 6.9243956
11.80732 -5.6664457 -4.312804 -3.6987667 -1.4888862 2.9934578 -6.150986 -1.0477769
-0.18485376 -2.9193418 1.325954 -0.5468967 -15.32335 -3.0087001 3.7057583 -0.41067848
1.2433102 -0.404459 -1.0616897 -0.76407164 -4.9198365 -7.2074995 -2.1438334 -1.2521114
0.7652912 -0.23948742 1.5912791 2.5602624 -0.26002264 6.380517 -2.6892946 -0.55505955
-0.3109923 1.1964256 -6.5401864 1.3865569 3.732581 0.32655963 -50.490612 -2.962731
1.0829488 -0.44563827 -1.7189355 3.6306677 -3.130903 -1.2289894 -1.9234194 1.1283557
1.302069 5.5379696 4.383332 0.9263278 -4.3723807 -1.7756855 -1.8469085 1.7678146
-5.66062 -0.294293 -3.9256468 -0.74137294 -0.7645972 -36.438732 -4.87732 -6.7099934
-1.4644431 -4.981507 3.0602725 3.3538814 1.26703 -1.105194 1.593145 -1.2788386
-1.0157129 -3.0689085 -1.4603593 -1.5429057 -3.6763933 0.26073298 1.6069095 -0.103940845
-1.920454 -2.7712576 -0.032366857 -1.3977299 -0.44549316 -2.0312817 6.225401 1.4978421
-24.838509 -4.1642947 11.86647 5.1658998 -14.527829 -4.118875 -0.17417006 -4.938216
-8.450326 -8.227426 -6.9316535 7.608822 9.936367 -8.217865 -5.301444 0.726473
-28.362207 -2.4232857 -8.692635 -6.5073805 3.452283 1.2608225 -3.6513429 -65.15027
-1.3044946 2.623368 1.406979 1.1222203 6.6603856 -14.090772 -0.9260238 -1.1451167
6.870072 6.3676004 2.2168434 4.9351606 -0.51549333 0.85047925 -2.351266 1.3751034
-4.0441074 0.7683703 -5.9816127 6.40988 -4.782606 1.7860438 -27.06416 1.7485089
-1.2447127 1.3020926 -7.3463755 -2.2063036 -3.5496683 2.4190218 -4.7748995 3.367908
0.270043 1.4252355 4.4963183 -4.6546474 3.0343568 1.7889111 0.9163244 -6.8216944
-3.0161366 -5.0869265 -1.3518384 -0.4089845 -2.1579783 3.9783506 -0.2280014 -1.7375506
3.5397706 13.040908 -3.0609634 -2.6890256 6.7463613 1.0767802 3.601619 -16.58474
0.9345887 -0.33466625 -2.2341018 -0.22883993 -0.5356554 -3.2595983 -0.09492333 -4.1958165
-1.7670648 1.988459 -1.3530115 0.9092367 0.99085116 -2.6866477 -4.2459574 -5.618801
-0.8666889 4.187899 -0.09042304 2.805951 -11.983917 -1.5444949 -5.3305774 5.1222124
00000000: 0082 5240 bcaa 2ec0 95af 2140 2d44 dc40
00000010: 2b3b 40c1 b08c f740 3061 8f40 832a 32c0
00000020: 3fcb 9fc0 eb95 97c0 8d58 a4bf d86a 8640
00000030: c567 8b40 428a c0be cf36 6b40 679f 3bc0
00000040: ea67 cd3f fa79 9cbf 5da0 1b41 0119 aebf
00000050: 7bfa 9bc0 a0ce 8440 d95f 1bc0 4934 0440
00000060: 00a7 d13d d12e 08c2 9a7c 46c1 f0a3 8ac0
00000070: ad38 de40 63cd e5bf ca7a fa40 efed ca40
00000080: 487a 52c0 8e4c 09c0 fbb4 cebf 69b0 d93f
00000090: 3475 dfbf a8ae 4cc0 3ba1 3cc0 1555 5abf
000000a0: bbb4 903d 15b4 463f f0a8 a0c0 891c debe
000000b0: 7571 6940 b6c0 da40 151d debf 0f69 a9bf
000000c0: fd7b a240 2b6c a2c0 c739 c9bf 138a 723f
000000d0: 8278 b1c0 6fcd c1c0 dd1a abc0 c249 9740
000000e0: 300a e8c0 25f1 9140 18c8 51c0 5933 9e40
000000f0: 166c e2c0 bf1b fcbf 7b9e 183f a694 dd40
00000100: c8ea 3c41 8653 b5c0 7e02 8ac0 98b8 6cc0
00000110: d393 bebf d094 3f40 e1d4 c4c0 8e1d 86bf
00000120: 4e4a 3dbe 7fd6 3ac0 dcb8 a93f 6c01 0cbf
00000130: 712c 75c1 8b8e 40c0 252b 6d40 7344 d2be
00000140: ca24 9f3f 4015 cfbe 73e5 87bf 339a 43bf
00000150: 4d6f 9dc0 d6a3 e6c0 9134 09c0 3045 a0bf
00000160: 20ea 433f 313c 75be 09af cb3f 57db 2340
00000170: b021 85be 322d cc40 671d 2cc0 6218 0ebf
00000180: 623a 9fbe 7924 993f 3549 d1c0 b27a b13f
00000190: 9be2 6e40 d332 a73e 63f6 49c2 629d 3dc0
000001a0: 119e 8a3f b32a e4be 1406 dcbf dc5c 6840
000001b0: b760 48c0 864f 9dbf 9b32 f6bf f66d 903f
000001c0: 32aa a63f 0c37 b140 4144 8c40 d223 6d3f
000001d0: 8bea 8bc0 aa49 e3bf 7f67 ecbf c047 e23f
000001e0: cd23 b5c0 92ad 96be cc3d 7bc0 9eca 3dbf
000001f0: a4bc 43bf 43c1 11c2 0113 9cc0 44b8 d6c0
00000200: df72 bbbf 8168 9fc0 81db 4340 fea5 5640
00000210: 0a2e a23f ff76 8dbf 2dec cb3f fcb0 a3bf
00000220: e102 82bf ff68 44c0 0eed babf ef7d c5bf
00000230: 074a 6bc0 cb7e 853e 36af cd3f f0de d4bd
00000240: 70d1 f5bf 495c 31c0 1c93 04bd d0e8 b2bf
00000250: ae17 e4be 8500 02c0 7c36 c740 4ab9 bf3f
00000260: 44b5 c6c1 e741 85c0 10dd 3d41 0d4f a540
00000270: fd71 68c1 d3cd 83c0 a359 32be de05 9ec0
00000280: 8934 07c1 89a3 03c1 1bd0 ddc0 787b f340
00000290: 5cfb 1e41 607c 03c1 6ea5 a9c0 22fa 393f
000002a0: cde5 e2c1 1d17 1bc0 0815 0bc1 763c d0c0
000002b0: 34f2 5c40 a262 a13f 9aaf 69c0 f04c 82c2
000002c0: aef9 a6bf 43e5 2740 e317 b43f eaa4 8f3f
000002d0: e121 d540 cd73 61c1 e50f 6dbf 2f93 92bf
000002e0: a1d7 db40 62c3 cb40 c3e0 0d40 d6ec 9d40
000002f0: 5ff7 03bf 02b9 593f 247b 16c0 6303 b03f
00000300: 5469 81c0 eab3 443f 5f69 bfc0 bd1d cd40
00000310: 1c0b 99c0 159d e43f 6683 d8c1 24cf df3f
00000320: bf52 9fbf f8aa a63f 8215 ebc0 1434 0dc0
00000330: c42d 63c0 41d1 1a40 facb 98c0 ce8b 5740
00000340: 1343 8a3e 1e6e b63f d7e1 8f40 dff2 94c0
00000350: e732 4240 0afb e43f 3c94 6a3f 524b dac0
00000360: 6208 41c0 1ac8 a2c0 0a09 adbf 6b66 d1be
00000370: 511c 0ac0 4c9d 7e40 3379 69be 0f68 debf
00000380: 9a8b 6240 8fa7 5041 d3e6 43c0 ff18 2cc0
00000390: 31e2 d740 efd3 893f ed80 6640 8cad 84c1
000003a0: 3441 6f3f 6059 abbe 86fb 0ec0 0455 6abe
000003b0: b620 09bf 429d 50c0 2a67 c2bd 2144 86c0
000003c0: 2e2f e2bf d385 fe3f 7b2f adbf bdc3 683f
000003d0: 6ca8 7d3f 09f2 2bc0 e2de 87c0 38cd b3c0
000003e0: 53df 5dbf 4503 8640 b72f b9bd b494 3340
000003f0: 20be 3fc1 02b2 c5bf 1794 aac0 2ae9 a340

fc.bias f4 [27]
-1.7020034 -0.670215 -2.2332265 -1.3753303 -0.019018337 -0.100555666 0.32691228 0.36016098
0.2686191 -2.2780647 -0.61533386 -0.25814748 -1.3206036 -1.4365925 0.8852554 1.3362578
1.4492886 -1.9833493 0.60787255 -1.3297076 -0.26259038 -0.3008538 1.2042203 0.7496757
-0.457955 -1.5120177 -2.388845
00000000: 3fdb d9bf 3693 2bbf 2fed 0ec0 d30a b0bf
00000010: 58cc 9bbc 21f0 cdbd 0c61 a73e 0567 b83e
00000020: 7188 893e d0cb 11c0 8586 1dbf e82b 84be
00000030: 8a09 a9bf 43e2 b7bf 19a0 623f 7f0a ab3f
00000040: 4a82 b93f 64de fdbf 899d 1b3f dc33 aabf
00000050: 3f72 86be 8209 9abe e423 9a3f bfea 3f3f
00000060: 1479 eabe cc89 c1bf d6e2 18c0
