CNN-based-IoT-Device-Identification-main/last.pth (torch, 53219 bytes, 6 tensors)

gru.weight_ih_l0 f4 [150, 25]
00000000: 7d69 81c1 7c39 69c1 1836 4ac1 659a db40
00000010: 6eb8 88c0 ae8f ef3d dcc8 fe40 cfa5 9b3f
00000020: 5c8d 39bf b10b a3c1 5556 b741 936a a9c1
00000030: e887 a9c1 2749 b941 7b89 6fc0 62af 4241
00000040: 7da0 47c0 ff53 58bf 082d 4a40 a6df 62bf
00000050: 7351 0040 c148 bfc0 2445 28bf 7350 bdc1
00000060: 0ff9 e7c0 b764 66c0 a7f0 4540 95b7 6ac0
00000070: b5e6 dfc0 1b59 4bc1 ccf5 06be 8dbf d0c1
00000080: 316a 1540 e03e 75c0 6415 7e41 2c60 1e42
00000090: 7c16 56c1 1a17 57c1 5461 5ebf 85ce b43f
000000a0: 8e2f 1042 139e d9bc ca1c 7440 acbb 3cc0
000000b0: ad3b 6940 dcb6 81c0 9f38 43bf 285b 7ac0
000000c0: f500 21c0 2174 37c0 dc0a 0dc0 eb0f e1be
000000d0: 7a59 87c0 2a5f 3dc1 f0fe 5cc0 9856 933c
000000e0: b527 56c1 6a9e 02c0 b8d8 95c0 6d3e 3cc2
000000f0: 9796 9c42 dd38 fdc0 f38c fbc0 7c00 3ebf
00000100: 4554 c6be b620 f840 1c23 19c1 8d83 8cc0
00000110: 5d6c 8dbf 6d55 8ac0 f154 0741 c269 09c2
00000120: 119b 17c0 a105 0fc1 d830 4341 5393 c6bf
00000130: d10c d540 a90c fcc0 6ff4 0b40 187e 34c1
00000140: e2e1 a73d ff2d 71c0 1465 10c1 a9bb 2cc0
00000150: 5736 e440 c959 a942 c976 8bc1 5e66 8bc1
00000160: 3d46 7042 35a8 fcc0 3673 fd41 d618 2dc1
00000170: 7c71 4b41 c67e 8a3f cba6 4941 fa46 4840
00000180: 62ce 6bc0 99b1 bcbf 7fdb 9a40 64e9 e4bf
00000190: 6c1c d53f 1f2f aabf 829a 77bf 927f 16c1
000001a0: e411 39be c0a2 05bb c9ab 93c1 5a10 15c0
000001b0: 82f9 7dbe 6cc6 7943 c243 6442 929f 1dc0
000001c0: 02bb 14c0 eca1 3d41 8349 8b40 3b7e 3442
000001d0: efdb ebbe db3a e640 09db d6bf 1925 e240
000001e0: 0281 a140 be80 17c1 6c41 e9be cd98 b340
000001f0: 049a 23c0 c9ee f73f 3caa 8c41 f450 30c0
00000200: 1181 5fc1 8bcd c240 4047 20bd 4d19 44c1
00000210: 0979 27c1 1eb2 1bbe 3f01 2c43 b02c 7b42
00000220: 2bc5 2fc1 c6a9 32c1 e26f 36c2 8eb3 a440
00000230: 0397 3242 1f2a 1bc1 5eb4 0641 304c ddc0
00000240: 78a5 0641 fbf2 96c1 6ba2 ddc1 d572 3e3e
00000250: 9558 f4bf 1a07 18c1 1208 46c0 2d38 1741
00000260: c0fc 183f ce20 09c1 37b1 97c1 3e0c d13d
00000270: f0b5 95c0 ff67 37c1 ca84 1dbf 08b7 3f42
00000280: 9d07 2043 c129 62c1 df62 64c1 e96f 2d42
00000290: 6815 1740 c877 d241 df21 06c0 a64b 5840
000002a0: 64ab e33f 76aa 5240 c81e c1c0 c071 abc1
000002b0: 2b70 c33f ebed 22c1 d314 65c1 6e60 fbbf
000002c0: 2c2a 10c0 0feb 9ec0 9512 bbc0 6819 b3c0
000002d0: eaac 3cbd 7dd7 27c1 87bf 0d40 4014 94c0
000002e0: 4765 2841 32f8 f1c0 7fdc 49c0 3ad5 4ec0
000002f0: fd89 a33f baff 863f 0ff7 bc40 3dcf b53f
00000300: 4c64 13c0 9be3 7fbf 2eb7 0fc0 b554 7bc0
00000310: cb15 e3bf e091 71c0 0f8e 64c0 aa49 3abf
00000320: 0d99 b7c0 7667 f840 398e 223f bc54 28c0
00000330: 095c 1c40 6443 383d 5f5c 54c0 a8c6 3f41
00000340: dc78 cf3f 9fd4 28c2 4a0f 02c1 d744 8dc1
00000350: 0f1a 8dc1 3c16 0741 100d 4041 d03f 54c1
00000360: 501c 0742 6c38 4ec1 9795 4940 31e0 4bc1
00000370: 625b a33f 7410 30c0 1f85 f4bf f3a9 6ec1
00000380: 2fb6 86be 1d67 bc3e 8c77 6d40 1b40 db40
00000390: c9cd 9541 b0cb e8c0 206b cfbc cc70 6e41
000003a0: 7167 8c40 d610 41bf f18d 30c2 2685 be43
000003b0: 6c1f dcc0 6ce7 d9c0 f1ca 9dc1 c61b d040
000003c0: 2c03 1c42 ed89 61c1 87b6 3041 e968 3643
000003d0: 0c2a 3041 3a1d f142 9595 88c2 9d1b 5140
000003e0: 4bf5 50c1 06e3 5fc1 9cb7 24bf 8855 03c1
000003f0: 77a4 86c0 0569 1142 cc14 57c1 86b0 b6bd
-16.176508 -14.576534 -12.6382065 6.862597 -4.2725134 0.116973266 7.962019 1.2159976
-0.7248132 -20.380709 22.917154 -21.177038 -21.19136 23.160719 -3.7427661 12.167818
-3.1191704 -0.8450317 3.1589985 -0.8862251 2.0049713 -5.977631 -0.657305 -23.664282
-7.2491527 -3.5998971 3.0928133 -3.667455 -6.9969125 -12.709254 -0.13179702 -26.09353
2.3346064 -3.8319626 15.880222 39.593918 -13.380489 -13.44314 -0.8686726 1.4125525
36.04644 -0.026564633 3.8142571 -2.9489546 3.6442673 -4.0535717 -0.7625827 -3.9118137
-2.5156834 -2.866463 -2.2037878 -0.43957457 -4.2296724 -11.835733 -3.4530602 0.017985627
-13.384694 -2.0409188 -4.682705 -47.060963 78.29412 -7.9131913 -7.8609557 -0.7421949
-0.38736168 7.753993 -9.571072 -4.3910584 -1.1048695 -4.322928 8.458238 -34.35328
-2.3688395 -8.938874 12.199425 -1.551371 6.6578145 -7.8765454 2.186794 -11.280785
0.081973806 -3.7684324 -9.024677 -2.6989539 7.1316333 84.67536 -17.433 -17.424984
60.068592 -7.895533 31.681255 -10.818563 12.715206 1.0819938 12.603221 3.129332
-3.6844716 -1.4741699 4.839294 -1.7883725 1.6649299 -1.329563 -0.96720135 -9.406145
-0.18073231 -0.0020391196 -18.45888 -2.329123 -0.24802211 249.77509 57.06617 -2.4628644
-2.323914 11.852032 4.3527236 45.123272 -0.46066234 7.1946845 -1.6785594 7.0670285
5.046998 -9.468931 -0.45557725 5.6124024 -2.5562754 1.9369746 17.583122 -2.754941
-13.96901 6.0875907 -0.03913045 -12.256177 -10.46705 -0.15204665 172.00487 62.79364
-10.985637 -11.166449 -45.60926 5.1469183 44.647472 -9.697783 8.419035 -6.91555
8.415398 -18.868643 -27.704306 0.18598492 -1.9089533 -9.501734 -3.0942426 9.451215
0.59760666 -8.570509 -18.96153 0.10207413 -4.678459 -11.46289 -0.61530745 47.92874
160.02974 -14.135194 -14.274138 43.359287 2.3606815 26.308487 -2.0958173 3.3796172
1.7786679 3.291654 -6.0350075 -21.430542 1.5268606 -10.183085 -14.317584 -1.9638803
-2.252574 -4.9661937 -5.8460183 -5.5968513 -0.04606334 -10.490109 2.214815 -4.627472
10.524726 -7.5615473 -3.154083 -3.2317643 1.2776486 1.0546792 5.9051585 1.4203869
-2.3029966 -0.99956673 -2.2455554 -3.927045 -1.7741026 -3.7745285 -3.5711706 -0.7276865
-5.737433 7.7626295 0.63498265 -2.6301718 2.4431174 0.044986144 -3.318138 11.986
1.6208758 -42.207638 -8.128733 -17.658613 -17.637724 8.442928 12.003189 -13.265579
33.77765 -12.888775 3.1497552 -12.742234 1.2762263 -2.7510042 -1.9103125 -14.9164915
-0.2631087 0.3679742 3.7104216 6.8515754 18.725481 -7.274864 -0.025319636 14.902538
4.387627 -0.75416315 -44.138615 381.04022 -6.8788357 -6.8094997 -19.724092 6.5033903
39.003098 -14.096173 11.044562 182.4098 11.010265 120.55708 -68.29215 3.2673104
-13.059886 -13.992926 -0.64342666 -8.208382 -4.2075763 36.35256 -13.442577 -0.08920388

gru.weight_hh_l0 f4 [150, 50]
00000000: b03e 0c3c 4ac3 f4bd 6b9c a5bd b275 06be
00000010: ae56 0bbe 8699 edbd 0c13 f9bd 7662 ff3d
00000020: ca3a ebbd 7ced 7a3d 2457 7a3d 50db c13c
00000030: c63a b0bd a01e 34bc fc12 8cbc e9c7 03be
00000040: 6091 2d3c 5ce4 f9bd a4ac 00bd bc80 b9bd
00000050: 9ca0 71bd b0ea 9d3d 123e 8c3d b732 07be
00000060: c659 be3d 1288 a83d 4e88 953d a05f a73c
00000070: f894 c33c ca3d 40bd 00b4 a33a 6050 55bd
00000080: 505d 173d 8ca2 ca3d 4074 6c3b acce 1dbd
00000090: fe65 e23d 1ef7 c93d 3671 04be 48be afbd
000000a0: 505d c23d e00c 993b 649f dcbd 3e51 d63d
000000b0: 9426 2b3d a02d c73d bb1d 0fbe bf44 9abd
000000c0: a861 1bbd 1cd9 bf3d 6a24 e6bd 6099 9e3d
000000d0: d450 9c3d 067e 9f3d a67d 25bd cc29 a8bc
000000e0: 2576 0c3e c0b2 0abb 40d1 0b3c 874c 043e
000000f0: 9421 823d 436b c0bd 82b6 f83d fc77 6fbd
00000100: ffa6 063e bfae 093e a07d 713c 78bd 883c
00000110: 07c8 c9bd 7a43 ce3d 02f5 13bd a4f7 b73d
00000120: d611 ddbd b538 a5bd 2429 d23d 5bc1 0d3e
00000130: a0e9 91bc fddb 093e 24d7 d7bd 7a3f b33d
00000140: 98ae 38bd 68e2 2c3d 4e47 a03d a05e d53c
00000150: ac05 533d a0ed d8bb c301 94bd 201c df3b
00000160: 608f df3b 5098 483d 40ff 4bbd ee68 9fbd
00000170: c077 acbb b4cd 913d 3477 b8bd 1885 333d
00000180: 78a7 b53d 8490 833d 9282 b43d 5466 41bd
00000190: d092 5cbd 904b 293c 72a8 34bd 305b b1bd
000001a0: d03c efbd 7492 0dbe 847c 9ebd 3020 bd3d
000001b0: fa5b fb3d 9059 45bd 63b9 b7bd 28bd c83c
000001c0: d4fb a2bc 2a25 c5bd 873f 05be 353e eebd
000001d0: 4c5b 38bd c044 82bc 94c4 533d de6c a6bd
000001e0: ddeb aebd 10a8 c73c c00b 83bc 8f03 0a3e
000001f0: 5de2 03be 8082 a63a 541c c33d 9e06 e6bd
00000200: 8c75 5d3d 7892 b83d 4b7b 04be 28e3 a43c
00000210: eb97 e8bd ecd7 123d 46fa b73d 5c39 06be
00000220: 8cf6 29bd 4a18 5cbd b078 a93c cac7 d43d
00000230: 6d62 d3bd 2a22 af3d 8f56 033e 1905 043e
00000240: c088 11bc fac8 8d3d d0a4 4d3c 8abb bb3d
00000250: d81e f83c a8ea 523d 03ea e8bd 32e6 c6bd
00000260: b6c7 bd3d fbd3 07be d354 84bd 602c f6bb
00000270: f6ec f53d 7cec 1c3d e99e 08be df88 82bd
00000280: f9c2 01be c0a0 0dbe ca5a a53d 0642 72bd
00000290: d0a5 06be 10d6 0bbd fcbe ac3d e8f6 aabd
000002a0: 8469 ccbc 240d 35bd 36d0 66bd ecd7 243d
000002b0: 0c93 c9bd b82c a63c c0a8 0cbe 9045 793d
000002c0: 9ec0 be3d e05d f6bb 14e5 133d d943 0d3e
000002d0: ee83 edbd 2dbb 85bd 6a7f d63d 406f c2bb
000002e0: c52b dabd b821 d83d b465 013d 394c 08be
000002f0: 0ab7 02be 99ff 86bd 40b7 bc3c 6066 a83b
00000300: a075 18bd 2aed e73d 00f0 5b3d e973 91bd
00000310: 7a77 d83d a2ec f43d fccc 8bbd 6851 4dbd
00000320: 70f4 b7bc a059 a23b 804b e7bc 30c5 6b3d
00000330: 98de 9dbd 7021 a5bd d982 03be b866 debc
00000340: 5c1c 89bd 1816 e53c 1d2c babd 4dcb babd
00000350: 1a9d 02be 9fe2 eabd 0c78 a93d 64ff 1a3d
00000360: 7c5d 3f3d 2057 6bbd 68bb 93bd e173 ecbd
00000370: 1c33 863d c298 b23d 0a7d b03d 31e6 023e
00000380: 18da cd3c 5265 efbd 000d 2ebc 5cc4 eabd
00000390: 00ab aa3d b43d d9bc 00e2 e7bb b8b4 3c3d
000003a0: 1bc2 02be 404a 56bc b426 b4bc e033 ed3b
000003b0: 50cc 163c 4510 023e 0042 f239 3219 de3d
000003c0: fab4 e73d 26b1 f6bd 6729 063e 1fad c9bd
000003d0: 50fd afbc 4f37 86bd 7cd6 acbd 7ee9 90bd
000003e0: 0e1f 4abd 29cc a0bd 6d5f 073e 3080 6ebc
000003f0: 9b1c 0bbe b6ac a43d 5140 fdbd 5076 af3c
0.008559868 -0.11951311 -0.08086475 -0.13130835 -0.13607284 -0.11601548 -0.12161836 0.12469952
-0.114858225 0.06126164 0.06111826 0.023664147 -0.0860496 -0.01099363 -0.017098896 -0.12869228
0.010593742 -0.12201759 -0.031414643 -0.09057757 -0.05899106 0.07710779 0.068477765 -0.1320294
0.09294467 0.08229078 0.07301389 0.02043134 0.023874745 -0.046933927 0.0012489557 -0.052078605
0.036954224 0.098942846 0.0036080033 -0.038527176 0.1105461 0.09861587 -0.12933812 -0.08581215
0.09490454 0.0046707243 -0.10772589 0.104647145 0.041784838 0.09725499 -0.13976185 -0.075326435
-0.03793493 0.09367582 -0.11237414 0.07744098 0.07632604 0.07787709 -0.04040303 -0.020527743
0.13716944 -0.0021163672 0.008533776 0.12919818 0.06354061 -0.093954585 0.121441856 -0.058464035
0.13149641 0.13445567 0.014739424 0.016691908 -0.09852605 0.10071464 -0.03612233 0.089827806
-0.107944176 -0.08067457 0.10261753 0.1384329 -0.017811596 0.13462825 -0.10539082 0.087523416
-0.04508838 0.042208105 0.078261 0.026046097 0.05151908 -0.006620124 -0.072268985 0.0068087727
0.0068225116 0.04897338 -0.049803972 -0.077836856 -0.0052632987 0.07119313 -0.09007111 0.0438281
0.08869833 0.064240485 0.08813967 -0.04721673 -0.05385095 0.010332957 -0.044105954 -0.08659971
-0.11681521 -0.13825399 -0.07738593 0.09234655 0.122734025 -0.048181117 -0.089709066 0.02450426
-0.019895472 -0.09626229 -0.13012515 -0.11632959 -0.045008942 -0.015901923 0.051701143 -0.081262335
-0.08541081 0.02437213 -0.015996814 0.1347792 -0.1287932 0.0012703687 0.095268875 -0.11231731
0.05406718 0.09012312 -0.12937658 0.020127848 -0.11357101 0.03585045 0.08983283 -0.13107818
-0.04149489 -0.0537341 0.020687431 0.10389669 -0.103215076 0.08551438 0.12825988 0.1289257
-0.008882701 0.06923099 0.012551501 0.091666296 0.030288145 0.051493317 -0.11372759 -0.09711875
0.092666075 -0.13264458 -0.064614914 -0.007512614 0.12008087 0.038311467 -0.1334187 -0.06373762
-0.12672032 -0.13830853 0.08073957 -0.059144996 -0.1314919 -0.034139693 0.08434865 -0.08347875
-0.024952658 -0.044201985 -0.05635091 0.04024498 -0.098425 0.020284995 -0.13736248 0.060857356
0.093140826 -0.007518515 0.036107138 0.13795413 -0.11597429 -0.065298416 0.10473521 -0.005933672
-0.106528796 0.10553306 0.031591132 -0.13310327 -0.12765136 -0.0659172 0.0230366 0.005139157
-0.03722155 0.11324532 0.05369568 -0.07102186 0.10569663 0.119591966 -0.06826207 -0.050126463
-0.022455424 0.004954532 -0.028234243 0.0575611 -0.07708472 -0.08063018 -0.12842883 -0.02714859
-0.06694862 0.027964637 -0.09090445 -0.09120808 -0.12755242 -0.11469006 0.0827485 0.037841216
0.046720013 -0.057456136 -0.07213479 -0.1154554 0.06552717 0.087205425 0.08617599 0.12783124
0.02512841 -0.11689247 -0.010623217 -0.11463234 0.08333397 -0.02651868 -0.007076502 0.046070784
-0.12769358 -0.013079226 -0.021991111 0.00723885 0.009203985 0.12701519 0.0004620701 0.108446494
0.113138154 -0.12045507 0.13101731 -0.09847473 -0.021483094 -0.06553518 -0.08439347 -0.07075785
-0.049346022 -0.078514405 0.13219996 -0.0145569295 -0.13585131 0.080407545 -0.12365783 0.02141872

gru.bias_ih_l0 f4 [150]
00000000: bd86 3cbe 45b3 a3c0 8941 a3c0 fe3a 0fc0
00000010: 1ed5 9abd 0cd4 8bbe c2ce 07bf ab42 c7c0
00000020: 8982 15bf 345b 7e3e 949e 77be 285d cbbe
00000030: 4d33 25bf 0095 94c0 7216 76be 58fa e2be
00000040: 07dc 15c0 3ffc 3fc0 557f 2abf 0781 09c0
00000050: c06d 85bf 60e8 3abf 355e 94be 3ce0 95c0
00000060: 0140 0dc0 ed21 87bd fee9 c6be 57b3 0abf
00000070: 867b e6bf 646a 95c0 1474 fc3d adea 56be
00000080: 9f16 b5be 0461 c3c0 7ab8 36be f35f 2dbf
00000090: b51e a6be 4f95 8fbf 2562 b2bf 89c3 40bf
000000a0: 9d4f eebf 4dbb 95bf 9e73 b4c0 5b0a f2be
000000b0: 790d 86be 4248 51bf 9471 21c0 5972 89be
000000c0: 2fe6 8abe 9e88 40bf ac01 393f 1e7d 7fbf
000000d0: 0b26 f93f d462 773f 2cdc d43f c1b7 9a3d
000000e0: 73d7 bb3e a25a 903f 92b3 a1be ede7 1dbe
000000f0: 2f1f 6c3e 3203 283f b157 dc3f fc23 733e
00000100: afa5 c33f b3d4 fb3e d2d4 2f3f 721d 813e
00000110: bed0 113e 59f9 2fbf 4580 b43e 50d0 bbbe
00000120: 59d8 d03f 9026 773e de3f 9abc 78a1 d53f
00000130: 2ef4 803f 5881 d83e 1251 b63f 2f47 e8be
00000140: 9ba0 9f3e 8808 4d40 82bf 12bf c8fa 3f3f
00000150: 9841 ab3f 8ad9 a83e bdfb 9b3e bb9f b13e
00000160: 461d 773e 0bea 3fbf b043 383f 678b f23e
00000170: 9e74 a63f 8546 b53f 684d 5abf ac9f f93d
00000180: 7f65 503f a14f 0f40 60aa 7a3f 8a9b 0a3f
00000190: 60ce 7d3f b3ff 1fbd 722e 093d 77ac 7ebd
000001a0: e273 c53e 68f6 c7be db5b 1a3d 887a 84bc
000001b0: 86eb 143f abd7 92bf 2cd4 1e3f 9a55 443f
000001c0: 8ec4 36be dc56 6cbe 08f6 8c3e 7612 e3bd
000001d0: 9751 0a3e 725c b4bd 0603 983e a12e 0bbf
000001e0: c15a 763e 22b2 fd3e 89ba 33bf 2597 173d
000001f0: 9750 c63e 246f 83bf 1913 cf3e 169f 753e
00000200: cb40 963d 11fb cbbd 561b b23f 1982 803f
00000210: 1a0f b23d 8ffe 223e d77b 6f3f eb4a 78be
00000220: baae 41bf 4410 123e 76d7 8b3e 126e f8bc
00000230: c2c2 bd3e 9f1c 573d 4326 953d 6a8d bf3e
00000240: fce3 04bf aaaa a6bb 7c57 94bd c37c d53d
00000250: 7fd1 2abf 9fed 6dbe
-0.18410774 -5.1156335 -5.10175 -2.2379756 -0.0756018 -0.27310216 -0.5304986 -6.226888
-0.58402306 0.24839479 -0.24181587 -0.3971951 -0.64531404 -4.6431885 -0.24032 -0.44331622
-2.3415544 -2.9997709 -0.66600543 -2.1485002 -1.0424118 -0.73010826 -0.28978124 -4.6836224
-2.2070315 -0.06598268 -0.38850397 -0.541799 -1.8006446 -4.669237 0.12326828 -0.20987959
-0.3536882 -6.1055927 -0.1784381 -0.6772453 -0.32445303 -1.121744 -1.3936201 -0.7529836
-1.8618046 -1.1697785 -5.6391134 -0.47273526 -0.26182154 -0.8175088 -2.5225573 -0.26845053
-0.2712874 -0.7520846 0.72268176 -0.9980029 1.9464735 0.96635175 1.6629691 0.075545795
0.36687812 1.1277659 -0.31582314 -0.15420504 0.2305877 0.65629876 1.7214261 0.23744196
1.5284938 0.49185714 0.68684113 0.25217777 0.14239785 -0.6873985 0.35254112 -0.36682367
1.6316024 0.24135804 -0.018829282 1.6689901 1.0074518 0.4228618 1.4243491 -0.4536681
0.3117722 3.2036457 -0.5732347 0.74992037 1.3379393 0.3297847 0.304655 0.34692177
0.2413226 -0.74966496 0.7197828 0.4737198 1.3004339 1.4162146 -0.8527436 0.12188658
0.8140487 2.2392352 0.9791622 0.54143584 0.9914303 -0.039062213 0.03349156 -0.062176194
0.38564974 -0.3905518 0.037685256 -0.016171709 0.5817188 -1.1472067 0.620425 0.7669312
-0.17848417 -0.23080009 0.27531457 -0.110875055 0.13507687 -0.08806695 0.29689807 -0.54368025
0.24058057 0.49549967 -0.70206505 0.037009377 0.3873336 -1.0268292 0.40444258 0.23986468
0.07336577 -0.099599965 1.3914592 1.0039703 0.08694287 0.15917419 0.9354834 -0.24247329
-0.75657237 0.14264017 0.2731282 -0.030325923 0.3706265 0.05251753 0.072826885 0.37412578
-0.51910377 -0.0050862627 -0.07243249 0.10424187 -0.66725916 -0.23235177

gru.bias_hh_l0 f4 [150]
00000000: 1d98 8dbe 1900 a6c0 b9bf 9ec0 0472 0dc0
00000010: c793 35be 5a86 9bbe 30b6 25bf 4199 c6c0
00000020: 842c 51bf cd96 863e 86d6 2abe c9dd a2be
00000030: c5ec 04bf 1ed9 9ac0 c99b 63be efc4 07bf
00000040: 2a68 0ec0 4a1e 40c0 9058 21bf 0920 07c0
00000050: 6986 80bf 652f 32bf e6fb 92be 5086 99c0
00000060: cdcf 0ac0 dac8 cbbd bb67 bfbe 026e cfbe
00000070: ba45 ebbf 41c1 96c0 2682 1cbd 4fd1 67be
00000080: e2a7 aabe d15a c0c0 21c0 edbd aa19 58bf
00000090: 732b debe 4750 94bf 3c2f b6bf b989 42bf
000000a0: 77c1 d9bf 176e 9dbf 29d8 b3c0 7e83 21bf
000000b0: 2e3b 8bbe 8f2b 52bf d823 1ec0 6c41 a0be
000000c0: 3b0a 99be 9b64 2ebf 17e9 1c3f 0e6e 96bf
000000d0: 3d32 e73f adfa 983f de9a bc3f 5080 48bc
000000e0: 5ee2 063f 0354 943f b5d6 92be d4c1 abbe
000000f0: 84c3 743d c639 203f bd94 cb3f c700 cf3e
00000100: 3267 c43f 3021 cf3e c33b 313f c77e 583e
00000110: d231 9a3e b119 4dbf b578 ad3e a721 02bf
00000120: 4057 d13f 9cc7 703e c20b 0bbe a8d1 d63f
00000130: 0065 623f 53ae ae3e 226d b03f 27d2 a4be
00000140: 1871 f03e 4679 4e40 ae51 debe 01b9 353f
00000150: 0661 b13f 706a 183e 86d2 043f eddd b03e
00000160: 9d51 0c3e 9143 2cbf 9f24 483f 02ea 253f
00000170: 308c ab3f ec72 ad3f ac36 4abf 1116 513e
00000180: 081e 5a3f 2ccf 0b40 3818 503f 0126 233f
00000190: 4a3a b7c0 2ee4 65bf 3a06 63be 0ff1 6bbf
000001a0: 075d 0ec0 3d7c 0e40 c741 e3bf d3ab 203d
000001b0: ce40 d33f 5e7d f840 94d8 4dc0 7703 4ec0
000001c0: 5690 0dc0 2bf1 07c0 c729 13c0 498e 3f40
000001d0: 5f92 313f 1d78 ccbe a292 fdbf cae5 82c0
000001e0: 28de c53f 4ad0 eebf 1155 8940 e39f 36bf
000001f0: b202 ac3f f99d a140 3412 fdbf d437 0cc0
00000200: edef 903f 4798 c1bf 1979 d3c0 057f 6ec0
00000210: ff50 0040 1f3f 4b3f 0f06 8ac0 e935 2240
00000220: 37a4 4740 8b1a 873f 5c51 7a3f fd8b babf
00000230: 9b15 7f3f ef82 8940 ea58 dd3e f193 f23f
00000240: 0b22 2c40 4fa1 0bc0 6d42 2dbf 1fba e3bf
00000250: 9642 3640 0e1b 3040
-0.27655116 -5.187512 -4.9609036 -2.210084 -0.17732154 -0.3037594 -0.6473112 -6.2062078
-0.8170855 0.26286927 -0.16683397 -0.31809834 -0.5192378 -4.8390036 -0.22227396 -0.5303487
-2.2251077 -3.0018487 -0.6302576 -2.1113303 -1.0041019 -0.6960357 -0.28707808 -4.7976456
-2.1689332 -0.09950419 -0.37383828 -0.40513617 -1.8380654 -4.7110906 -0.038210057 -0.22638439
-0.3333121 -6.011086 -0.11608911 -0.8441416 -0.43392524 -1.1586999 -1.4233165 -0.759914
-1.7012166 -1.2299222 -5.6201367 -0.63091266 -0.27193588 -0.82097715 -2.4709377 -0.31299913
-0.29890618 -0.6812226 0.61293167 -1.1752336 1.8062207 1.19515 1.4734762 -0.012237623
0.5268916 1.1588138 -0.28679433 -0.33546317 0.05975677 0.62588155 1.5904766 0.4043028
1.5343993 0.40455008 0.69231814 0.21142112 0.30116135 -0.80117327 0.33881155 -0.508326
1.6354752 0.23513645 -0.13578704 1.6782732 0.88435364 0.34117374 1.3783305 -0.32191584
0.46961284 3.226152 -0.43421692 0.7098542 1.3857734 0.14884353 0.51883733 0.34544316
0.13703008 -0.672906 0.7818088 0.6481019 1.3402157 1.3550696 -0.7898967 0.20418574
0.85202074 2.1845198 0.81286955 0.63729864 -5.7258654 -0.898013 -0.22170344 -0.921647
-2.224428 2.226333 -1.7754449 0.039226364 1.6504152 7.7653036 -3.2163439 -3.2189615
-2.2119346 -2.1240947 -2.299425 2.9930594 0.6936397 -0.3993539 -1.9810374 -4.0905504
1.5458422 -1.8657315 4.291634 -0.7133772 1.3438323 5.050534 -1.977118 -2.1909075
1.132322 -1.5124596 -6.6085324 -3.7265027 2.0049436 0.7939319 -4.3132396 2.5345404
3.1193979 1.0554975 0.97780395 -1.4573971 0.9964234 4.297233 0.432319 1.8951398
2.6895778 -2.1817205 -0.6767948 -1.7791175 2.847814 2.7516513

fc.weight f4 [27, 50]
00000000: 4ba9 5240 0341 2ec0 d2d9 2040 3e31 dc40
00000010: d74e 40c1 3199 f740 43c6 8f40 873e 33c0
00000020: 1657 a0c0 3998 97c0 7e58 a4bf 0429 8640
00000030: ab2a 8c40 52e4 bfbe 4225 6b40 4fe6 3bc0
00000040: e6d0 cd3f 3f20 9cbf b7d2 1b41 bd6f adbf
00000050: 63e4 9bc0 1276 8440 79ff 1ac0 33dd 0340
00000060: 1c1b d13d 223c 08c2 38d0 46c1 467f 8ac0
00000070: 6a67 de40 16c6 e5bf d6d1 fa40 7b22 ca40
00000080: c5b7 52c0 b866 09c0 555a cfbf 2a65 dd3f
00000090: 1128 dfbf de4f 4dc0 744a 3dc0 8cd9 56bf
000000a0: 44b3 883d 9da7 473f a813 a1c0 4526 dfbe
000000b0: fac9 6940 e604 db40 9066 debf 5637 a9bf
000000c0: 61e8 a240 85b8 a2c0 a467 cabf 0e7b 753f
000000d0: 48ba b1c0 ae2f c2c0 255b abc0 7370 9740
000000e0: f446 e8c0 61fa 9140 eaa7 51c0 8b31 9e40
000000f0: 239d e2c0 e496 fcbf 3caf 193f 03b0 dd40
00000100: c738 3d41 8829 b5c0 45d3 89c0 4611 6dc0
00000110: 8090 bdbf 77bf 3f40 0618 c5c0 390a 85bf
00000120: 471e 3bbe 2d05 3bc0 5aba a93f fd89 08bf
00000130: 5182 75c1 e50e 40c0 f20c 6d40 201e d6be
00000140: fc95 a03f 86e5 d3be efbf 86bf c993 44bf
00000150: ae57 9dc0 edda e6c0 0a76 09c0 d0b6 a1bf
00000160: 8298 413f d247 6ebe 21f6 cb3f 6478 2440
00000170: a56b 81be 82f5 cc40 9d1d 2dc0 ab89 0ebf
00000180: a83c 9ebe c915 9a3f e6a1 d1c0 d70a b23f
00000190: 481d 6e40 d530 a83e 1b09 4ac2 ada1 3dc0
000001a0: 017a 8b3f 87a5 e0be 4ebb dabf 1c70 6840
000001b0: 407f 48c0 c3a9 9dbf ea6c f6bf 9652 903f
000001c0: 6fd8 a63f b13a b140 a77e 8c40 24b3 6c3f
000001d0: 2ce2 8bc0 5536 e3bf dabb edbf fcab e23f
000001e0: 923c b5c0 eaad 95be 0032 7bc0 b1af 3dbf
000001f0: a2bb 43bf fbe2 11c2 c865 9cc0 b3ac d6c0
00000200: beb8 bdbf 4c7a 9fc0 fd06 4440 aa8c 5640
00000210: 11f0 a13f 2d55 8ebf 76a7 cb3f 0014 a4bf
00000220: 06a1 81bf 00b5 44c0 ede6 bbbf cb19 c5bf
00000230: d766 6bc0 501d 883e 6627 cd3f fcf9 d2bd
00000240: 1f18 f6bf 0a85 31c0 e03d 0abd 54c9 b2bf
00000250: abc7 e0be dfdc 01c0 3dcb c740 f338 c13f
00000260: c6b7 c6c1 5d4c 85c0 ef3a 3e41 2d89 a540
00000270: 468d 68c1 1299 83c0 78e4 31be e6d6 9dc0
00000280: d544 07c1 80b3 03c1 1823 dec0 da88 f340
00000290: 292e 1f41 8c0b 03c1 43b4 a9c0 9e0a 3b3f
000002a0: b619 e3c1 4b9c 1ac0 026d 0bc1 f017 d1c0
000002b0: 84cb 5c40 15da a03f eb64 69c0 1c64 82c2
000002c0: 08d8 a8bf 6b79 2940 48f1 b13f 6f91 8e3f
000002d0: 5da7 d540 d0b1 61c1 8530 68bf 3f51 92bf
000002e0: ad6e dc40 5845 cc40 1289 0c40 cf66 9e40
000002f0: 0aa7 fcbe 1f70 5e3f 1c88 16c0 5fdb ad3f
00000300: bfdc 81c0 187d 483f a360 c0c0 4abe cd40
00000310: 4e81 98c0 d1da e33f 09b3 d8c1 0be7 de3f
00000320: b8fa 9dbf b01f a63f 93da eac0 f1d6 0cc0
00000330: 4368 62c0 b9c6 1a40 daa8 98c0 5322 5840
00000340: cef5 873e 1d04 b63f 838d 9040 7044 95c0
00000350: e3af 4240 2988 e53f b033 6f3f 61e1 dac0
00000360: 892b 41c0 d9ca a2c0 8042 aebf b4e1 d0be
00000370: da00 0bc0 ea78 7e40 2fb8 66be 1093 debf
00000380: be81 6240 d592 5041 74c6 43c0 a814 2cc0
00000390: 209a d740 42aa 893f 819e 6640 54c8 84c1
000003a0: 4645 6d3f 72b6 aabe 199f 0ec0 2e4f 68be
000003b0: f9fb 09bf bc33 50c0 239d e3bd ca11 86c0
000003c0: 71d6 e3bf 497d fe3f 9ee5 acbf 537b 653f
000003d0: 78f1 7f3f a2ed 2bc0 2273 88c0 5213 b4c0
000003e0: 9a9a 5ebf f634 8640 0e26 a2bd 3b1d 3340
000003f0: 48ad 3fc1 681a c4bf 5c02 abc0 e15a a440
3.2915828 -2.722718 2.5132947 6.881011 -12.019248 7.73745 4.492952 -2.8006914
-5.0106306 -4.737332 -1.2839506 4.192507 4.3802085 -0.37478882 3.674149 -2.935932
1.6079376 -1.2197341 9.738944 -1.3549725 -4.871629 4.139413 -2.4218428 2.060376
0.10210249 -34.058723 -12.425835 -4.3280363 6.950124 -1.7951076 7.8381147 6.316709
-3.2924664 -2.1468945 -1.6199442 1.7296498 -1.7434102 -3.2079997 -2.9576693 -0.839257
0.06674817 0.7799013 -5.0336494 -0.43583885 3.6529527 6.844348 -1.737505 -1.3220012
5.0908666 -5.0850244 -1.5812879 0.9589089 -5.5539894 -6.0683203 -5.354876 4.7324767
-7.2586613 4.561814 -3.2758737 4.9435477 -7.0816817 -1.9733548 0.6003301 6.927736
11.826362 -5.6613197 -4.3070397 -3.7041793 -1.4809723 2.996061 -6.1591825 -1.0393745
-0.18273269 -2.922191 1.3259995 -0.53335553 -15.344316 -3.000909 3.703915 -0.4181986
1.2545772 -0.4138605 -1.0527323 -0.76788 -4.916953 -7.2142243 -2.1478295 -1.2633915
0.75623333 -0.23269585 1.5934488 2.569848 -0.2527744 6.404969 -2.7049325 -0.55678815
-0.30905652 1.2037898 -6.551013 1.3909558 3.7205372 0.32849756 -50.508892 -2.962993
1.0896608 -0.43876287 -1.7088411 3.6318426 -3.1327667 -1.2317432 -1.9251988 1.1275203
1.30348 5.5384145 4.3904605 0.92460847 -4.371359 -1.7750956 -1.8572953 1.7708735
-5.663644 -0.29234248 -3.9249268 -0.7409621 -0.7645818 -36.47166 -4.8874245 -6.7085814
-1.4822004 -4.983679 3.0629265 3.3523355 1.2651387 -1.1119744 1.591048 -1.2818604
-1.0127265 -3.0735474 -1.4679848 -1.5398496 -3.6781518 0.26584864 1.6027648 -0.10301587
-1.9226111 -2.773745 -0.033750415 -1.396769 -0.43902335 -2.029106 6.2435594 1.5095505
-24.839733 -4.1655717 11.889388 5.172995 -14.534491 -4.1124353 -0.1737231 -4.9324827
-8.454305 -8.231323 -6.941784 7.6104555 9.94877 -8.190319 -5.3032546 0.73063076
-28.387554 -2.4157894 -8.714113 -6.534172 3.4499216 1.2566553 -3.6467845 -65.195526
-1.3190928 2.6480358 1.3901758 1.1138133 6.67668 -14.105911 -0.90699035 -1.1431044
6.88851 6.383465 2.195866 4.95005 -0.4934619 0.86889833 -2.3520575 1.3582572
-4.0581965 0.7831588 -6.0117965 6.4294786 -4.7657843 1.7801152 -27.08742 1.7414259
-1.2342138 1.297842 -7.3391814 -2.200619 -3.5376136 2.418379 -4.770612 3.377095
0.26554722 1.4220005 4.5172744 -4.664604 3.0419853 1.7932178 0.93438244 -6.840012
-3.0182822 -5.0872617 -1.3614044 -0.40797198 -2.171927 3.97613 -0.22531198 -1.738863
3.5391688 13.035848 -3.0589876 -2.6887608 6.737564 1.0755084 3.6034243 -16.597816
0.9268383 -0.3334232 -2.2284606 -0.22686455 -0.53900105 -3.2531576 -0.11113956 -4.1896715
-1.7799817 1.9881984 -1.3507574 0.896413 0.9997783 -2.686379 -4.2640543 -5.6273584
-0.86954653 4.193965 -0.079174146 2.798659 -11.979805 -1.5320559 -5.344038 5.1360936

fc.bias f4 [27]
00000000: 7fa9 dabf d620 2bbf 715b 0fc0 be4d aebf
00000010: 5d40 bbbc f5cc bcbd 2a41 a83e ca07 b33e
00000020: 9423 873e c39b 11c0 0364 1fbf d88c 88be
00000030: cec8 a7bf 569f b7bf 4b38 603f 9616 ab3f
00000040: 60d4 b93f b1e5 fdbf a07e 1b3f a23c abbf
00000050: f31d 89be 1701 96be 762c 9a3f 5d59 423f
00000060: 8f41 e9be 2d83 c1bf 715d 18c0
-1.7082976 -0.6684698 -2.2399561 -1.3617475 -0.02285784 -0.0921878 0.32862216 0.3496688
0.2639433 -2.275132 -0.6226198 -0.26669955 -1.3108156 -1.43455 0.87585896 1.3366268
1.4517937 -1.9835721 0.6074009 -1.3377879 -0.26780662 -0.29297706 1.2044818 0.7591761
-0.4555783 -1.5118157 -2.3807032
