CNN-based-IoT-Device-Identification-main/lstm_3_68.28.pth (torch, 232483 bytes, 14 tensors)

lstm.weight_ih_l0 f4 [200, 25]
000000 4c 8c 9a 40 18 84 28 40 84 31 35 c0 2c a0 2c c0
       4.829626 2.6330624 -2.8311472 -2.697276
000010 a8 62 ae 40 6f cc ad bc d7 46 fc c0 14 85 84 bf
       5.449543 -0.021215646 -7.8836474 -1.0353112
000020 a7 e2 62 40 74 85 b9 3f 6a e4 14 41 de 10 36 c0
       3.5450838 1.4493852 9.305765 -2.8447795
000030 e7 6b 41 c0 cb 9a 1c c0 cb be ba bf 6d fc 29 c1
       -3.0222108 -2.4469478 -1.4589475 -10.624127
000040 5a ef 30 40 7c 2e 11 c1 79 9b 0c c1 84 11 12 c1
       2.7646089 -9.073849 -8.787957 -9.129276
000050 f3 46 12 41 e2 7f 34 c1 5a 0c 07 c1 d0 2c 89 c1
       9.142322 -11.281221 -8.4405155 -17.146881
000060 74 e2 03 c1 70 8e 1e bf c0 f5 ac c0 92 d6 29 41
       -8.242786 -0.6193609 -5.404999 10.614885
000070 fe 72 33 40 ed 33 e4 c0 10 ac db bb 31 26 f2 40
       2.8038936 -7.1313386 -0.006703861 7.567162
000080 7e 46 bc c0 d1 78 34 bf 2f 10 28 41 2c 1f b1 41
       -5.883605 -0.7049685 10.503951 22.14022
000090 f7 06 32 c1 05 27 34 c1 9f fa 17 c2 60 ad 3d bd
       -11.1267 -11.259526 -37.994747 -0.04630792
0000a0 4a ba 65 c1 4b db 83 c0 6f 6f 76 40 08 30 8b 40
       -14.357981 -4.120519 3.8505514 4.349613
0000b0 98 48 82 40 b4 5b 5f c0 20 49 e1 40 bb f5 11 bf
       4.0713615 -3.489972 7.0401764 -0.5701558
0000c0 1f 12 ed 40 a6 e3 11 41 e2 52 5e 40 74 ff 9a 3f
       7.408462 9.118078 3.4738088 1.2109208
0000d0 f3 d2 06 40 51 f4 0b 41 58 9f e4 c0 69 3d f0 bd
       2.1066253 8.747148 -7.144451 -0.11730463
0000e0 bf 0c 09 41 b5 da b6 40 d0 85 32 bf 45 6d 8b 41
       8.565612 5.7141976 -0.6973543 17.428354
0000f0 49 b3 2b 41 e9 a9 46 41 50 3a 45 41 13 5e aa c1
       10.731271 12.416482 12.326736 -21.295935
000100 b1 e3 c2 c0 d1 b2 e4 40 62 ac dc c1 a7 ba f7 c0
       -6.0902944 7.146828 -27.584171 -7.7415347
000110 a7 e2 dd 3e 83 93 fe c0 18 0c 90 41 8f 96 81 40
       0.43336985 -7.955507 18.005905 4.0496287
000120 72 46 c3 be ca f0 75 41 c8 e1 b0 41 d5 e3 14 c0
       -0.38139683 15.371286 22.110245 -2.3264058
000130 58 40 3c bf f2 e0 2c c1 79 03 27 c1 42 02 53 c0
       -0.7353568 -10.804918 -10.438348 -3.2970128
000140 be 3e 49 3d c0 1b 15 3e de d3 1e c1 a1 98 3d 40
       0.0491321 0.14561367 -9.926725 2.9624407
000150 22 ee 69 41 64 59 12 c1 be 09 4b c0 ec fc 49 c0
       14.620638 -9.146824 -3.1724696 -3.1560621
000160 26 bf d0 40 6a 38 2b c1 69 06 73 41 42 1b a3 c1
       6.5233335 -10.701273 15.189065 -20.38831
000170 12 08 ff c0 2d 7b 2e bf f8 e6 fd c0 27 66 fa c0
       -7.969735 -0.681567 -7.9344444 -7.82497
000180 93 54 aa bf 9b 7e f4 3f 7b 66 c8 40 c0 da 5d 41
       -1.330706 1.9101137 6.26251 13.865906
000190 a2 7f a9 3d c8 1c 92 c0 e5 03 5d 40 32 4f 24 bf
       0.08276297 -4.5660133 3.4533627 -0.6418334
0001a0 e8 dd a2 c1 10 5b c9 3c c1 60 01 41 3f 5c 11 c0
       -20.358353 0.024579555 8.086122 -2.2712553
0001b0 8d 3f 0e 42 87 81 19 40 f5 d3 27 41 18 21 fb 40
       35.56206 2.3985307 10.489247 7.84779
0001c0 2a 12 fc 40 bf d1 4c c1 8f 0f b6 c1 27 39 47 41
       7.8772173 -12.801208 -22.757597 12.451453
0001d0 ff 58 4f 41 63 e4 b8 40 cf 0f 46 c0 31 85 b5 40
       12.959228 5.777879 -3.0947149 5.6725087
0001e0 81 af 32 40 dc 5c 87 c0 5d 27 ad bf 82 4a d8 bf
       2.791962 -4.2300854 -1.3527638 -1.6897738
0001f0 2e 4c a9 c0 a4 59 07 bf 86 14 e5 3d 1b f9 df c0
       -5.2905493 -0.52871156 0.11185555 -6.9991584
000200 d2 b1 74 c1 43 13 08 c1 d6 45 8d bd 50 dd f2 bf
       -15.293413 -8.504703 -0.06898086 -1.8973789
000210 71 a1 3a c1 d9 4f 1f 40 d6 c3 94 3e 2a 64 70 c1
       -11.664414 2.4892485 0.2905566 -15.024454
000220 7a 83 1c 41 55 26 1d 41 c8 30 0e 3f f5 1d 31 c1
       9.782099 9.821858 0.55543184 -11.069814
000230 ee 57 ba c0 3d fb 0e c1 ac f1 0a c1 cd 4c 13 c0
       -5.8232336 -8.936337 -8.684002 -2.3015625
000240 ae 88 0d c1 3a c9 2e c0 a4 ec a8 c0 72 17 ed bd
       -8.845869 -2.731032 -5.278887 -0.115767375
000250 a4 bc 37 c1 dc 46 27 c1 c9 5f 34 bf fb 7f c0 3f
       -11.483555 -10.4548 -0.70458657 1.5039057
000260 73 77 0e c1 7b 5c 6b c1 a6 6b f4 c0 25 4d 85 3d
       -8.904162 -14.710078 -7.6381407 0.06508855
000270 bb f9 ef c0 17 20 2e c1 0d 3d 49 40 97 b1 d1 3f
       -7.4992347 -10.882834 3.1443512 1.6382321
000280 08 cf 94 c1 d6 9d 60 40 b9 5c 60 40 d2 51 5b c0
       -18.60109 3.5096335 3.5056593 -3.426869
000290 f6 e0 bb c0 0e a1 04 c1 df e1 28 c1 ed 89 d6 c0
       -5.871211 -8.28932 -10.555144 -6.7043366
0002a0 d6 02 90 c0 65 66 d5 c0 9d 1a 7e c0 1d 71 ce c0
       -4.500346 -6.6687493 -3.9703743 -6.451308
0002b0 ed f3 d8 3c e9 3f 26 c1 33 d8 38 c1 a3 57 22 40
       0.0264835 -10.390603 -11.552783 2.536599
0002c0 96 9e c6 c0 97 1d 42 c1 6e 31 5e 41 0d dd 18 41
       -6.2068586 -12.132224 13.887068 9.553967
0002d0 57 c3 9f bd d4 cd 98 41 22 b0 86 40 95 86 68 be
       -0.0780093 19.100502 4.2090006 -0.22707589
0002e0 31 be f1 41 9d 14 65 41 fd c3 98 40 7b 4d 99 40
       30.217867 14.317533 4.7739244 4.790708
0002f0 b6 13 8c 41 7a de 4a 41 57 d7 1c c1 90 d3 6e c1
       17.509624 12.679316 -9.802573 -14.926651
000300 5f dd 4d c0 69 2e 1a 41 5d 82 4c c0 ae d4 2c 41
       -3.2166364 9.636331 -3.1954567 10.801924
000310 8b 84 45 41 9f 3a c6 bf e5 13 0b 41 76 bd 33 41
       12.344859 -1.548664 8.692357 11.233755
000320 fd 29 4d 40 8e cd 24 3f 0d b9 89 41 c5 66 18 40
       3.2056878 0.6437615 17.215357 2.3812726
000330 7d e0 65 c0 58 39 da bd ec 9d b9 40 b6 9e 83 3f
       -3.5918267 -0.10655469 5.8005276 1.028281
000340 76 81 0e c0 e9 26 22 41 84 7a bb c1 2a 1a 9b bd
       -2.2266517 10.1345 -23.434822 -0.0757335
000350 8e a7 26 be c4 45 80 c1 c4 94 25 3e 95 d4 06 c2
       -0.16274855 -16.034065 0.16170031 -33.7076
000360 93 60 45 41 2b 4c 82 c0 f7 9e 67 3f 2f d5 84 c0
       12.336078 -4.071798 0.90476936 -4.1510234
000370 f8 69 7b 40 8b 3e 07 41 44 4d 2c 3e d0 0a 51 41
       3.9283428 8.452769 0.1682635 13.06514
000380 97 a3 85 41 05 d1 63 bf 42 d3 a0 40 7a b8 17 41
       16.704878 -0.88990813 5.0257883 9.482538
000390 5e 04 2e 3e 74 d4 2c c1 92 f9 72 bc 52 47 25 c1
       0.16993853 -10.801868 -0.01483001 -10.329912
0003a0 2c 40 f9 40 cd da 0c c0 57 21 ae c0 63 59 95 c1
       7.7890835 -2.2008545 -5.44157 -18.668646
0003b0 fc 90 0f c0 11 51 12 c0 de bd 3f c1 8f cb 39 40
       -2.2432241 -2.286198 -11.983854 2.9030492
0003c0 4b 8e 7c c1 16 51 54 bf 2f f2 a0 bf fa 23 28 40
       -15.7847395 -0.8293623 -1.2573909 2.6271958
0003d0 46 6e a8 bf 91 a2 a2 be 4d 9b aa 40 94 46 96 bd
       -1.3158653 -0.31764653 5.3314576 -0.073376805
0003e0 10 aa 56 41 2d d4 84 41 c4 de f9 bf fe 9b 5f 3e
       13.416519 16.603601 -1.9521108 0.2183685
0003f0 55 71 cc 40 b4 8d 00 40 e0 c0 51 41 b6 08 1e bd
       6.3888345 2.0086489 13.109589 -0.038582526

lstm.weight_hh_l0 f4 [200, 50]
000000 f4 95 9f bd d7 a0 ba 3d 2c c8 71 bb 77 ce fd 3d
       -0.07792273 0.09112709 -0.0036892993 0.12392896
000010 a3 27 3e 3c 7d 72 f0 3d 1f 29 93 bd b4 59 b1 3c
       0.01160613 0.11740587 -0.071855776 0.02164922
000020 47 c0 a5 bd 1a d2 9d bd 2d 52 02 3e 4a 8e 35 bd
       -0.080933146 -0.07706089 0.1272666 -0.04432515
000030 9d 0e e0 3d b7 42 b9 3c bd d8 8c bd a0 4e d4 3d
       0.10940287 0.02261482 -0.06877277 0.10366559
000040 80 52 a5 3d 83 bd a5 bd 68 54 fd bd 73 63 be bd
       0.08072376 -0.08092787 -0.12369615 -0.09296312
000050 99 21 c3 3c 2a 0c f8 bd 6b 5c ad bd 3d bf ac bd
       0.023819732 -0.12111695 -0.08464893 -0.08434913
000060 d8 3a 9d 3d ea 0c 95 bd a5 19 76 bd c4 c4 48 bb
       0.07677239 -0.07277854 -0.06008305 -0.003063486
000070 e6 0a 97 bc 47 62 b9 3d 25 4a 47 3d d1 d8 d7 bd
       -0.018437814 0.09051948 0.048654694 -0.10539401
000080 b2 87 81 3d f6 fc c9 3d 9f fc 50 3c b8 99 0a be
       0.0632471 0.098627016 0.012755542 -0.13535202
000090 6b b6 a9 bd ae 0c ca 3d 24 14 1b bd 0f e0 2b 3d
       -0.082867466 0.098657 -0.037861004 0.041961726
0000a0 8c 7c 10 3c 6c f4 80 bd 80 45 ee 3d 9c 9b c3 bc
       0.008818757 -0.0629662 0.1163435 -0.023877911
0000b0 a7 fb 36 bd db 07 c6 3d df c4 fd 3c 78 35 d5 3c
       -0.044673588 0.09669467 0.030977665 0.026026472
0000c0 aa ff 07 be 69 17 e9 3d 3b 54 fc 3d 5d 97 7c 3c
       -0.13281122 0.11381418 0.12320753 0.015416947
0000d0 bd ba b8 3b 6e ed 79 bc 86 2a e2 bd dc 31 ac bd
       0.0056374953 -0.015254362 -0.11043267 -0.084079474
0000e0 1c 94 5d bb d8 6d 09 3e c0 a6 84 bd 70 f4 b8 ba
       -0.0033810204 0.13420808 -0.064771175 -0.0014110934
0000f0 f6 e9 90 bd 4d 85 1e 3d 94 f4 4e bd 52 85 51 bd
       -0.070758745 0.038701344 -0.050526217 -0.051152535
000100 dd 9e 48 3c 37 f4 67 bc 46 e3 00 3e ff be c4 3d
       0.012244907 -0.014157346 0.12586698 0.09606742
000110 04 be c6 bd c6 3b 9a 3d 46 6d 0c 3e fd 54 d3 3d
       -0.09704211 0.07530932 0.1371356 0.103189446
000120 2e 34 5e 3d 74 e8 2d 3d f6 45 04 be 88 03 9d bd
       0.05424898 0.042458013 -0.12917313 -0.07666689
000130 e2 f0 59 bd 27 77 d4 bd 06 a3 0d 3e 71 54 e8 bd
       -0.05320824 -0.10374289 0.1383172 -0.11344231
000140 05 ce a8 3d de 74 8b 3c eb ff d9 bd e9 a0 6f 3b
       0.0824242 0.0170235 -0.106445156 0.0036564416
000150 4e 87 1a 3c f5 ac 42 bc 23 02 0a 3e 87 ff 88 bd
       0.009431673 -0.0118820565 0.13477378 -0.06689363
000160 ba d4 eb bd b0 a2 84 bd cd 15 0c 3e f8 f8 dc bb
       -0.11515184 -0.06476343 0.13680191 -0.0067435466
000170 a9 14 a8 bd 0d f9 c2 3d 5e b4 a9 3d 1a 97 f6 bd
       -0.082070656 0.09520159 0.082863554 -0.12040539
000180 d4 40 f5 bc c6 a4 b6 3d 2f c2 a0 bb c3 dd 7d 3d
       -0.029938139 0.08918147 -0.004905961 0.061979067
000190 5f 39 19 3d 6d 87 da bd 0b 26 97 bd f6 7e 65 bb
       0.03740823 -0.10670362 -0.07380303 -0.0035018302
0001a0 54 10 d3 3c bc 7d c2 3d 4e 0c 77 3d e4 3e c0 3d
       0.025764622 0.09496638 0.06031447 0.093869954
0001b0 d0 c1 4a 3d f3 20 00 be aa e7 39 bd 94 29 6e bb
       0.04950124 -0.12512569 -0.045386948 -0.00363407
0001c0 ba 51 8a 3d d0 f2 06 3e 53 ba f6 bd f8 a4 23 3d
       0.06753869 0.13178563 -0.12047257 0.03995225
0001d0 14 fd bf 3d 10 64 0f be d5 06 e2 bd b7 06 b0 bc
       0.09374443 -0.14003015 -0.11036459 -0.021487577
0001e0 50 5d b9 bd b4 fd d7 3d 17 b8 eb 3d ec d0 c7 3c
       -0.09051001 0.10546437 0.11509722 0.024391614
0001f0 d1 0e d7 bd 9a 08 9f 3d f4 e6 29 bd a2 79 4e bd
       -0.10500873 0.077653125 -0.04148002 -0.050408967
000200 d3 be a0 3d 04 df fe 3d 63 6c 91 bd 26 c5 fc 3d
       0.07848897 0.124448806 -0.07100751 0.123422906
000210 3f a7 e7 3d 13 0a 98 3d 99 63 0b 3e 4b fd a5 3d
       0.113111965 0.074237965 0.13612212 0.081049524
000220 6e 5b cb 3d 5f e5 ff bd c7 01 0b 3e 0b 3b 80 3d
       0.09929548 -0.12494921 0.13574897 0.062612616
000230 d7 84 f8 bc e1 52 90 3d 81 42 8b bd e2 1b e8 3b
       -0.03033678 0.07047058 -0.06799794 0.007083402
000240 08 28 64 3d c1 21 fc bd d7 f4 ea bd fe 40 15 bd
       0.05570224 -0.123111255 -0.11472481 -0.036438935
000250 10 c4 0f 3c a1 35 8a 3d c6 44 10 3d 26 28 a1 bb
       0.008774772 0.0674851 0.035221837 -0.004918116
000260 f6 3e 34 bd f1 76 da 3d ce 2d d6 bd 1a cc 0a 3d
       -0.044005357 0.106672175 -0.10457955 0.033886053
000270 e9 17 8a 3d 73 34 02 3b 54 e9 a2 bd 37 02 dd 3d
       0.06742842 0.0019867688 -0.0795466 0.10791438
000280 3e e6 d7 3d f4 23 46 bd 22 2a 04 be 32 b8 05 be
       0.10541962 -0.04837413 -0.12906697 -0.13058546
000290 c3 6f a0 bd a3 8c 96 3d e9 12 0f 3e 9e 3b d7 3d
       -0.07833817 0.07351043 0.13972057 0.10509418
0002a0 ae 02 ce bc 6b 5b a7 bd 77 e6 e3 bc 47 83 b2 bd
       -0.025147762 -0.081717335 -0.027819855 -0.087164454
0002b0 35 1c 09 3e 94 c4 9e 3d f9 5b 01 3e 1c 87 0c 3e
       0.13389666 0.07752338 0.12632741 0.13723415
0002c0 06 01 af 3d f1 bc 02 3e dd 36 e4 3b 8f c4 8c bd
       0.08545117 0.12767388 0.006964548 -0.06873428
0002d0 ec e1 42 3d d5 1b 83 3d 8e 87 de bd ff b8 04 bd
       0.047578737 0.06401793 -0.10865699 -0.03240299
0002e0 ff 64 1d 3c 1e bd 0c 3e b2 c2 60 3b 25 5e a2 bd
       0.009606599 0.13744017 0.0034295735 -0.07928113
0002f0 11 39 b5 bd 48 49 dc 3d d3 57 ce 3d 2a 01 44 bd
       -0.08848775 0.10756165 0.10075345 -0.047852673
000300 e6 15 dd bd 50 c7 ff 3d 1e 78 cf bd 0e eb 0e 3e
       -0.107951924 0.12489188 -0.101303324 0.13956854
000310 e3 25 4b 3d 44 d5 04 be 86 d8 64 3d 25 2f bb bd
       0.04959668 -0.1297198 0.055870555 -0.091398515
000320 3f 2e 23 bc b8 85 f3 bd 3f 43 99 3d 1b 96 dc bd
       -0.009959756 -0.11890739 0.07483529 -0.10770818
000330 d5 9b 12 3d 38 9e df bd d5 d6 34 3d f8 0f db 3c
       0.035793144 -0.1091885 0.044150192 0.026741013
000340 e8 fc 0a 3c d1 ae e3 3c 66 27 e8 bd c1 71 e7 bc
       0.008483149 0.02779332 -0.1133564 -0.028252484
000350 fa 8e 0e 3e bb 32 eb 3d 0e bb f1 3d 0b b7 0c be
       0.13921729 0.114842854 0.11803256 -0.137417
000360 fb 62 0d be 4a ce d8 3d b0 80 c8 3d 3d e3 83 bd
       -0.1380729 0.105862215 0.0979017 -0.06439827
000370 de a9 10 3e 8e 3d 05 3e 1a da 32 3d 41 d0 e1 bd
       0.14127299 0.13011762 0.04366503 -0.110260494
000380 5e 96 d7 3d 41 1e b8 3c 2e fe 94 bd b0 03 2b bd
       0.10526727 0.022475364 -0.072750434 -0.041751564
000390 95 3f d1 ba 14 aa 16 bd b0 7f f5 bd 56 41 0e be
       -0.0015964383 -0.036783293 -0.11987245 -0.13892111
0003a0 92 81 29 3d f0 ac a7 3d 2c ae cc 3c d0 58 6e bb
       0.041383334 0.08187282 0.024985395 -0.0036368854
0003b0 4c 41 a8 bd 45 3d 00 be 36 5f d0 3d e6 2e d0 3d
       -0.082155794 -0.12523372 0.1017441 0.10165195
0003c0 3b c5 03 3e 0a db be 3d d2 a3 21 3c 49 56 b6 3d
       0.12868206 0.09319122 0.009865718 0.08903176
0003d0 bc 9c eb 3d e0 4d 0d be 89 2c 45 3c b7 fc bf bd
       0.11504504 -0.13799238 0.012034544 -0.093743734
0003e0 68 0f 19 3d a7 ed 95 3d ea 18 0e be ba 7f 5b bc
       0.03736821 0.07320719 -0.13876691 -0.013397152
0003f0 6a 16 08 be ca 1b a2 bd 4a 63 4c bd 05 49 f6 bd
       -0.132898 -0.079154566 -0.049899377 -0.12025646

lstm.bias_ih_l0 f4 [200]
000000 f9 37 02 bf 63 04 ea bd 1f 88 3a 3d 7d b6 a9 3f
       -0.5086666 -0.11426618 0.04553997 1.3258816
000010 90 0e 04 3f 7b 6f 77 3d ba 5b 85 bd 1f d2 35 3f
       0.5158472 0.06040905 -0.06511636 0.71023744
000020 e0 42 9a be c3 fc a3 be 9d b7 62 bd 21 c7 88 be
       -0.30129147 -0.3202878 -0.05535089 -0.26714423
000030 dd 31 fb 3f 6d c5 f0 be e3 3c 8c bd 31 d7 cb 3e
       1.9624592 -0.47025624 -0.06847551 0.39812616
000040 6c a0 8b 3d 95 c6 ea bc 0d 3e 87 be 3f 67 c6 be
       0.068177074 -0.028659144 -0.26414528 -0.38750646
000050 e3 e5 63 3e 5d dd 30 bd 01 b9 d9 be 7a 89 71 3d
       0.22255664 -0.04317986 -0.4252396 0.058969
000060 10 32 63 be 27 0c 9d be 6c a5 38 be d8 2a c3 3e
       -0.22187066 -0.30673334 -0.18031853 0.38118625
000070 33 44 55 3e 4c f2 9f bc 33 a8 18 3e d5 bb 5a 3e
       0.20826797 -0.019524716 0.14907913 0.21360715
000080 0c 44 c4 be aa fd e3 3d 82 37 96 be fc b6 04 bf
       -0.38333166 0.11132367 -0.29339224 -0.5184171
000090 1e db 54 be 2d bc 99 be b7 18 61 be 02 db 11 bf
       -0.20786712 -0.3002638 -0.21982084 -0.56974804
0000a0 e1 27 0e bc ee 15 71 40 be 76 81 be 3f a4 7b be
       -0.0086765 3.7669635 -0.25285906 -0.24574374
0000b0 b3 90 9d 3c 2c 32 3e 3d 2c 52 07 3f f2 2b 9e be
       0.019234037 0.046434566 0.5285976 -0.30892903
0000c0 0e 32 8d 3e de 68 ee 3e 1b a8 4e bd b2 d8 ac bd
       0.2757725 0.46564382 -0.050453287 -0.08439769
0000d0 a3 a4 9c 3d 0d fd 48 3b 37 04 0e 3e 9d ec c5 3d
       0.076485895 0.0030668408 0.13868795 0.09664271
0000e0 35 8b e7 bd 92 4f e8 3d f6 a6 7d 3c 90 45 03 3e
       -0.113058485 0.11343302 0.015481701 0.12819505
0000f0 dd a4 c2 3c 46 d9 4f bd 86 cf e8 3c 42 98 ae bd
       0.023760254 -0.050744317 0.028419267 -0.085251346
000100 04 e2 09 be 66 98 05 3e 10 c1 08 be b0 71 04 3e
       -0.13465124 0.13046417 -0.13354897 0.12933993
000110 70 6c 09 bd 8e 26 06 be 9e 00 86 3d a2 db 92 3d
       -0.03355068 -0.13100645 0.065430865 0.07170798
000120 5d df de 3d cd 86 6d bc a2 7e 3a bd cc 58 63 bd
       0.10882447 -0.014497471 -0.045530923 -0.055504605
000130 65 41 a5 bd d4 e7 b3 bd f7 3a e2 3d 3e f1 48 bd
       -0.08069114 -0.08784452 0.11046403 -0.04905819
000140 76 44 06 bd df 5b 81 3d 15 38 ee 3d 25 fa 85 bd
       -0.032780133 0.06316351 0.116317905 -0.06541852
000150 91 6d 2c b9 3a a0 91 bc c9 ca b2 3d 0c 77 31 bd
       -0.00016444015 -0.017776597 0.087300844 -0.043326423
000160 5b 20 f2 3d eb b1 41 bd cb 0c 02 3e 7c 89 e8 3c
       0.118225776 -0.047288816 0.12700193 0.02838587
000170 3d 06 a5 3b 7c 2a 90 3c fd 23 b0 bc 44 0c cf bd
       0.005036144 0.017598383 -0.021501536 -0.10109761
000180 3f 69 f5 bd e1 5c 6c bd 8e cf ef bd 44 ca b0 bc
       -0.11982965 -0.057705764 -0.1170951 -0.021580823
000190 7d 55 8d 3e 4a 75 17 be 0f b7 aa bc 67 35 89 bd
       0.27604285 -0.14790836 -0.020839242 -0.06699639
0001a0 74 1a 9f bc c0 e4 7f 3d 52 1f b9 bd 6c b4 93 bd
       -0.019421794 0.062474012 -0.09039177 -0.07212147
0001b0 4d a0 89 3e df 43 55 be e6 42 53 bc 3e da 35 3d
       0.26880112 -0.20826672 -0.012894368 0.044397585
0001c0 95 b3 b5 3d 4c c4 f2 be 5f 01 d4 3d ed 1f 17 3e
       0.08872143 -0.47415388 0.10351824 0.14758272
0001d0 71 92 d0 3c e8 0b 5d 3e 40 d6 84 bc ff f1 f9 3c
       0.025460454 0.21586573 -0.016215444 0.0305109
0001e0 be 23 11 bd 58 d7 a9 3d a6 c7 5e be 57 b6 06 bd
       -0.035434477 0.08293027 -0.21755847 -0.032888737
0001f0 b8 a4 bc 3d b7 f1 35 3c ff c7 aa bd 87 86 a0 bd
       0.09211105 0.011104993 -0.083389275 -0.07838159
000200 2a 02 4c 3d 91 96 f7 3d 05 80 a9 3c 60 9e 04 3e
       0.04980675 0.12089265 0.020690927 0.1295104
000210 c5 6b a9 bd e9 da 05 3d 16 a2 94 bb 58 69 48 3c
       -0.082725085 0.032679472 -0.0045359237 0.012232147
000220 b2 81 a0 3e 0a f6 77 3e 8e 49 98 3c b5 37 a5 be
       0.3134895 0.2421495 0.018589761 -0.32269064
000230 a9 01 bb bd c5 c4 d9 bd ab 58 9a 3d b5 a7 07 be
       -0.09131176 -0.10633234 0.07536443 -0.13247569
000240 8f b3 b3 bb b6 62 85 3d 86 36 25 be b8 4c 57 3d
       -0.0054840515 0.06512968 -0.1613408 0.0525634
000250 87 2a 38 3c db 4d 0b 3e 85 ae 2a bf 56 18 49 bd
       0.011240608 0.13603918 -0.66672546 -0.049095474
000260 c5 9f fe 3d 77 16 b9 3e 8e 77 83 3f c6 e8 9a 3e
       0.12432817 0.36149952 1.027086 0.30255717
000270 d2 94 79 3e fd 01 4c 3f d5 fa e2 3d a6 a4 cb bb
       0.24373177 0.79690534 0.11082999 -0.006214696
000280 29 62 4a 3f 09 83 5b 3e 77 53 b0 3e 75 10 69 3d
       0.7905603 0.21436705 0.3443868 0.05690046
000290 f1 32 64 3e 8b a1 15 3e 9e 98 2c 3f 97 e9 87 3e
       0.22285058 0.14612405 0.67420375 0.26545402
0002a0 af 70 82 be 06 5e 93 be 48 2b 71 3f 7c 57 99 3e
       -0.25476596 -0.28782672 0.94206667 0.29949558
0002b0 60 c9 55 be a4 a9 12 3d 0e c5 42 be 56 96 db 3f
       -0.208776 0.035806313 -0.19020483 1.7155254
0002c0 89 2c 92 3e 69 f6 45 3f 44 04 b1 3e 0a 6a d9 3e
       0.28549603 0.7732912 0.34573567 0.42463714
0002d0 6f d6 65 3f 7b 8c 13 3f ed 0e a4 3d b8 f2 80 bc
       0.89780325 0.5763623 0.08010659 -0.015740737
0002e0 08 ce 30 3e 37 de 5f be a1 0e 10 be 3c 96 93 be
       0.17266095 -0.21862112 -0.1406808 -0.28825557
0002f0 8f 9d 99 be 1c aa e0 3d 14 fb 45 3f a5 5a 1a 3f
       -0.3000302 0.10969946 0.7733624 0.6029456
000300 25 08 49 be d1 f9 7f be eb 1e 16 bf 49 8e 71 3f
       -0.19632013 -0.24997641 -0.5864093 0.94357735
000310 80 eb 00 3f 38 0e 12 be 79 c6 a8 3f 17 c9 8d 3e
       0.50359344 -0.14263237 1.3185569 0.27692482

lstm.bias_hh_l0 f4 [200]
000000 9f 03 0c bf 11 84 2f bd 69 0c 00 bd 08 fd 9c 3f
       -0.54693025 -0.042850558 -0.031261835 1.2264719
000010 21 7e 28 3f 4f b4 11 bd 77 46 09 be 5d af 40 3f
       0.6581746 -0.035572346 -0.13405786 0.75267583
000020 db 72 93 be 44 50 ed be 5c d4 40 be 8a 8f 1d be
       -0.28798565 -0.463503 -0.18831009 -0.15386787
000030 ec 28 01 40 7e b8 95 be ee ad fb 3c 51 a8 d5 3e
       2.0181227 -0.2924232 0.030722585 0.41729978
000040 cf 97 11 be 14 40 52 3c 39 2a 9c be 4d 8d 8d be
       -0.14218067 0.01283266 -0.30500963 -0.27646866
000050 27 33 3f 3e 48 33 4a be 8f 28 76 be 27 79 d9 bc
       0.18671857 -0.19746125 -0.2403891 -0.026547028
000060 6a 34 df be 88 74 49 be 1a 0d 20 be ab 51 6f 3e
       -0.43594676 -0.1967336 -0.15629998 0.23370998
000070 40 82 e9 3d e6 ef 44 be d0 bf 4b 3e cd 54 61 3d
       0.11401796 -0.19232139 0.1989739 0.055012513
000080 ff 98 87 be 58 ba 03 3e fa e8 59 be ab 54 11 bf
       -0.26483914 0.12864053 -0.2128028 -0.5676982
000090 3b 56 8d be fb 3b a7 bd 7d 4f bb be a9 2d 05 bf
       -0.2760485 -0.08165737 -0.36584082 -0.52022797
0000a0 30 70 20 3c ff 43 68 40 53 36 37 be 1d 99 80 be
       0.009792373 3.6291502 -0.17891817 -0.25116816
0000b0 d7 1c c6 bd 49 a1 1c 3d f1 3e ec 3e 7d 6b 83 be
       -0.096734695 0.03823975 0.4614177 -0.25667945
0000c0 3d ac 57 3e 1c 22 85 3e 98 a2 34 bc 31 2e ee 3d
       0.21061797 0.26002586 -0.0110250935 0.11629904
0000d0 bb 52 c6 3c e2 d9 a8 3d d1 73 e4 3c 67 8e 03 bd
       0.02420937 0.08244683 0.027887257 -0.032118227
0000e0 11 b3 8e bd d3 35 b2 3b b6 01 0e 3e d7 c2 c6 bc
       -0.06967748 0.0054385453 0.1386784 -0.024262829
0000f0 7c 13 86 3d 2a cb a9 bc 49 ca 44 3d f3 17 c8 39
       0.06546685 -0.020726759 0.048044477 0.00038164816
000100 f6 49 a7 3c bc 62 df bc 26 47 f5 bd 58 47 5c 3d
       0.02042101 -0.02726876 -0.11976461 0.053778976
000110 10 1d 40 bd 95 01 d9 3d 5e 7a 80 3b aa f2 6a 3d
       -0.046902716 0.10596005 0.0039208373 0.05736033
000120 d5 e4 01 3e 04 03 0a 3e 0f 5a 08 3e dc d4 d4 3d
       0.12684949 0.13477713 0.13315605 0.10392162
000130 bc 9d f4 bd 81 ca de 3d e1 70 00 be 39 e7 dc 3d
       -0.11944148 0.10878468 -0.1254306 0.1078629
000140 ca 06 1f bd e4 1b bf 3d 43 8b e6 bd fa f7 9e 3d
       -0.038824834 0.093314916 -0.11257031 0.077621415
000150 66 42 94 3d 6e 55 78 3c a6 12 8d 3d 9a e5 03 3e
       0.07239227 0.015157087 0.068883225 0.12880555
000160 34 58 95 bd e1 ea 3f bd 7c c5 fc 3d af 5a c8 bd
       -0.07292214 -0.046854857 0.12342355 -0.097829215
000170 89 44 f0 bd 05 c6 07 be 81 3a b7 3d ec 26 34 bc
       -0.11731822 -0.13259132 0.089467056 -0.010995608
000180 df f9 e7 bd 13 fe 96 3d 57 37 36 bd d6 5a 0e be
       -0.11326956 0.073726796 -0.04448637 -0.13901839
000190 31 84 3b 3e e3 b7 c9 3d 99 3b 79 bd 75 c3 5b 3d
       0.18312146 0.09849527 -0.060847852 0.0536532
0001a0 10 b3 58 be 12 56 cd 3d b3 5e a6 bd 56 18 15 be
       -0.21162057 0.10026182 -0.08123531 -0.14560065
0001b0 1c c1 8d 3c d2 03 84 be 9a dd c2 bd a2 bd 7f 3d
       0.017303996 -0.25784165 -0.095149234 0.062436707
0001c0 58 78 21 bd 10 66 7a be 20 78 a3 bd 23 8a 00 3d
       -0.03942141 -0.24452996 -0.079818964 0.031381737
0001d0 9e 9e cf bd 53 29 db 3c b8 fa 19 bd 6a 04 1d 3e
       -0.10137676 0.026753103 -0.03759262 0.15333715
0001e0 fe d1 49 bb 68 65 8d 3d 65 59 5b bd f1 2c 6b 3e
       -0.003079533 0.06904107 -0.05355205 0.22966363
0001f0 c1 c5 e4 3d c3 fb d4 bd 04 ec 6d 3d ff fe 1a 3e
       0.11170531 -0.10399582 0.05808641 0.15136336
000200 32 06 2d 3d ed bc 59 3c a6 5f b6 3d 1d 8b 0a 3e
       0.042242236 0.013289672 0.08904962 0.1352963
000210 e3 80 0e be a8 3a db 3d 9f f3 2e be 86 bb 66 3d
       -0.13916354 0.10704547 -0.17085122 0.05633118
000220 71 65 94 3e 59 57 1c 3e 5d 28 6b 3e f3 71 7f be
       0.28983644 0.15267695 0.22964616 -0.24945812
000230 09 a3 03 3d c4 6f 19 3d 23 2e 3f be bf 19 cc bd
       0.032137904 0.037460104 -0.18669944 -0.09965848
000240 0d 36 29 be a4 53 04 be 7a d2 67 3d 61 0e 2a bd
       -0.16524525 -0.12922531 0.05659721 -0.04151762
000250 00 2d 29 3e 84 a9 0d 3e c2 26 2b bf d3 bb 62 bd
       0.16521072 0.13834196 -0.66856015 -0.055354904
000260 a0 de 78 3d a5 2b d6 3e 00 5c 7b 3f e0 e1 d4 3e
       0.060759187 0.41830173 0.98187256 0.4157858
000270 06 48 c5 3e 40 9a 51 3f fe 3e 36 3d 80 34 53 3e
       0.38531512 0.8187599 0.044493668 0.20625496
000280 4d e1 57 3f 7a 3d fa 3c aa 44 70 3e b4 71 39 bb
       0.84328157 0.030546892 0.23463693 -0.0028296532
000290 60 0b ce 3d e1 21 25 bd 55 6e 0a 3f 8f 83 ff 3e
       0.10060763 -0.040315513 0.54074603 0.4990506
0002a0 30 69 23 be 0d e9 91 bd 0e 8e 48 3f a5 19 76 3d
       -0.15958095 -0.07124529 0.7834176 0.06008305
0002b0 62 f4 dc bc 50 65 ab bd 0f 8a 57 be db df ca 3f
       -0.026972 -0.08368933 -0.21048759 1.5849565
0002c0 13 3a 7a 3e 08 60 56 3f 89 ee e4 3e c6 d1 ff 3e
       0.24436216 0.8374028 0.44713238 0.49964732
0002d0 25 6b 52 3f bc 41 a4 3e 13 99 51 3d 54 c4 2d 3d
       0.8219474 0.320814 0.051171374 0.04242356
0002e0 37 af a8 bd 21 6c 5e be 1a ce ba be 6f f5 36 be
       -0.082365446 -0.21720935 -0.36485368 -0.17867063
0002f0 ab b6 f8 bd 1a b0 c7 3d 32 b5 3e 3f 04 9d 1c 3f
       -0.12144216 0.097503856 0.7449523 0.61177087
000300 19 d0 8f be d3 4e 01 be d5 13 f6 be f6 e0 70 3f
       -0.28088453 -0.12627725 -0.48062006 0.94093263
000310 f8 78 07 3f 8d 6c 8a be e3 a8 9d 3f 9b b0 fe 3e
       0.5291896 -0.27035943 1.2317165 0.49744114

lstm.weight_ih_l1 f4 [200, 50]
000000 0d 80 58 be 7e ba 6e bf 17 c3 ac be 06 c5 a1 bc
       -0.21142597 -0.93253314 -0.33742592 -0.019747268
000010 c6 82 21 c0 86 d6 06 bf f7 92 c8 3e 0d 00 7b bf
       -2.5236068 -0.52671087 0.39174625 -0.9804695
000020 0f 10 ab 3f 22 84 cb 3c 06 a1 2a bf 91 81 11 c0
       1.3364276 0.02484328 -0.6665195 -2.273533
000030 68 fb 22 3f fc 6d 9f 40 96 e4 85 3e cf ef 0d 3f
       0.63664865 4.982176 0.2615096 0.55444044
000040 f8 b8 55 bf c4 4a 05 bf 77 e8 16 3f 01 59 8b bf
       -0.83485365 -0.5206721 0.58948463 -1.0886537
000050 a4 3a 8c bf 71 9a 5a 3e 46 1a 91 bf 07 62 a3 3f
       -1.0955396 0.21347977 -1.1336143 1.276429
000060 73 57 d1 3f 71 ee 6d 41 93 f5 f5 bf f2 7c 07 bf
       1.6354812 14.870713 -1.9215568 -0.52925026
000070 34 89 b1 3d c3 6b 28 bf 8d 49 ef bf 60 ee b3 be
       0.086687475 -0.6578943 -1.8694321 -0.35142803
000080 35 09 d6 3e 00 cc d7 bf a5 54 a3 3f e2 54 7d c0
       0.418039 -1.6859131 1.2760206 -3.9583058
000090 f8 35 c9 be e9 be 5e 3d bc 29 84 bf bd 3c a2 40
       -0.39298987 0.054381285 -1.0325236 5.0699143
0000a0 ab 3c b6 40 1d d1 4b c0 c3 78 79 bd 43 71 21 3d
       5.6949058 -3.1846383 -0.060906183 0.039414655
0000b0 00 53 1b 3e 2e 60 b7 41 40 09 f5 3e a1 63 06 bf
       0.1516838 22.921963 0.4785862 -0.5249577
0000c0 18 1e 19 40 45 c9 46 3f cf 76 3d bf d6 58 05 bc
       2.3924618 0.7765086 -0.7400941 -0.008138856
0000d0 85 49 82 be 9b ea 0f 40 8c 4a 5d c1 4f 42 ef bf
       -0.25446716 2.2486942 -13.8307 -1.8692111
0000e0 b2 7b e1 3f 31 45 3e 3d d2 8a 21 c0 4a d9 29 40
       1.7615874 0.046452705 -2.524098 2.6538873
0000f0 64 8c ca be c2 11 2f bf a6 38 fd 3f dc b5 83 be
       -0.39560235 -0.6838647 1.9782913 -0.25724685
000100 46 29 ef 3e a6 f7 c1 bf e7 0a d3 be ab 3e ea bf
       0.46711177 -1.5153701 -0.41219255 -1.8300375
000110 75 ea f1 be da 92 95 3e 4c 18 0d c0 38 9d dd 3f
       -0.4724919 0.292136 -2.204608 1.7313604
000120 07 7e 2b bf 38 85 f0 40 67 a2 9e be e2 3c 58 41
       -0.6698918 7.516262 -0.30983278 13.514864
000130 d0 5c ff be dd f9 bd 3f bc f8 2e 3f f3 01 e3 bf
       -0.49875498 1.4841877 0.6834829 -1.773497
000140 84 75 81 c0 32 74 9c bf 98 27 ad be 0f b2 8f be
       -4.045595 -1.222296 -0.3381927 -0.28065535
000150 45 62 f6 3e 1d 02 ae 3e 2a 98 f0 be de 51 88 be
       0.4812185 0.33985987 -0.46991092 -0.2662496
000160 b5 93 09 3f e2 bb 0b bd c3 07 0d 41 94 e0 7f bf
       0.5374101 -0.034114726 8.814395 -0.99952054
000170 07 4c a6 be 56 9d 88 3f 17 fb 92 3f 50 46 ff 41
       -0.3247988 1.0673015 1.1482877 31.909332
000180 21 70 ea be 38 32 31 3f 00 d7 93 41 65 b7 ed bf
       -0.45788673 0.6921725 18.47998 -1.8571593
000190 69 b4 d7 be 8a 0b 4e c0 e4 07 a7 3e 6e dc d5 40
       -0.4212983 -3.2194543 0.32623208 6.683158
0001a0 0f f8 c7 c1 13 3a 13 c0 2a 66 45 40 f9 3c 90 bf
       -24.996122 -2.3004196 3.0843606 -1.1268607
0001b0 f7 fc 3f c0 1c a8 67 40 b5 9b 67 c0 37 be b3 3f
       -2.9998147 3.6196356 -3.6188786 1.4042424
0001c0 35 30 d2 40 32 75 00 3c f7 34 06 40 eb 7f 6b c0
       6.5683846 0.007840442 2.0969827 -3.6796825
0001d0 66 d6 6a c0 43 f0 26 c0 51 39 73 3e 13 01 83 3d
       -3.6693358 -2.6084144 0.23752333 0.06396689
0001e0 a3 4c fd bf 29 7c 7e 40 17 c4 81 3e 2b 61 9f 41
       -1.9789013 3.9763281 0.25344917 19.922445
0001f0 12 30 bb be 92 9a 4f 41 cd 07 89 3f ee c1 1a 40
       -0.36560112 12.975237 1.0705506 2.4180865
000200 2a a5 55 40 8c 88 a4 3f a7 c8 57 3e 6e 4a 2b 40
       3.3382058 1.2854171 0.21072637 2.6764178
000210 ae ed 0f bf 17 2e 99 bf 72 bc 89 bf ab 7d 30 bf
       -0.56222045 -1.196719 -1.0760634 -0.68941754
000220 aa 28 db be 6d cf 39 3d fa d9 43 be b7 c2 9c 3e
       -0.42804462 0.045363832 -0.1912612 0.30617306
000230 85 57 ec 3f 2c ee 1a c1 3d 4b 91 3e 5e 51 e2 bf
       1.8464209 -9.683147 0.28377715 -1.7681081
000240 43 29 4f 40 38 f1 ef 41 62 59 92 c0 48 1c e2 3d
       3.2368934 29.992783 -4.573411 0.110405505
000250 86 a4 d3 41 ce 7c 69 c0 f1 2a d1 be 5d ed 30 40
       26.455334 -3.6482425 -0.40853074 2.7644875
000260 04 e0 bd be c9 f2 bf bf ba 67 b5 be 84 a4 2f c0
       -0.37084973 -1.4995967 -0.354307 -2.7444162
000270 8c 40 44 40 ea 3b 1c be a4 9a ff be 43 8b 7f bf
       3.0664396 -0.1525723 -0.4992267 -0.9982187
000280 a7 48 06 41 08 2f 82 c0 6d 3d 72 c0 2d 6e be bf
       8.392737 -4.068241 -3.7849991 -1.4877373
000290 a7 82 4b 3f b6 5c 2e 3f 76 46 dc 40 55 dd 22 c0
       0.79496235 0.68110216 6.883601 -2.544759
0002a0 36 f6 e9 bd 31 65 20 3d fa e1 ee bf d0 3a db 3f
       -0.11423914 0.039159004 -1.8662713 1.7127323
0002b0 e8 2c f8 3d 8b e2 82 3f 5d 13 b7 bd 6b 3b 8f 40
       0.1211794 1.0225385 -0.0893924 4.476003
0002c0 42 ad d2 bf cc 15 1b 3f d2 65 6b c0 b2 89 a3 c0
       -1.6459124 0.60580134 -3.6780896 -5.1105585
0002d0 18 dd 78 c0 4d f8 d1 c0 01 a6 d1 3f bc 37 16 40
       -3.8884945 -6.56156 1.6378785 2.3471518
0002e0 cb 7e 56 40 77 e5 07 40 7d 2b 23 3e ca f6 10 bf
       3.3514888 2.1233804 0.15934558 -0.5662657
0002f0 58 d5 33 3e 7a ef 95 bf 88 eb 7e 40 76 ac ea be
       0.17561853 -1.1713707 3.9831257 -0.45834702
000300 4f cf 91 3d d9 2b f9 40 64 6c 34 bf 69 6f 0a 40
       0.07119619 7.7866025 -0.7047789 2.16305
000310 ce 6c 0a 41 1f 23 6d bf cd dc c1 3e 50 52 02 40
       8.651564 -0.92631716 0.3786377 2.036274
000320 41 cb ff bf ff 8b 56 3f a6 55 6c 40 bb b4 b2 40
       -1.9983903 0.8380737 3.6927276 5.584562
000330 99 5c 20 be d5 8b 48 be b5 64 66 3e ca 2f 62 3f
       -0.15660323 -0.19584592 0.22499354 0.8835417
000340 3b 9d 7a 40 83 48 ac bf 60 70 73 c0 cb b4 8f 40
       3.9158466 -1.3459629 -3.8037338 4.4908195
000350 2e cd ae 40 7a 5c a9 bf b5 cf b3 c0 d1 02 84 40
       5.4625463 -1.3231347 -5.619105 4.125344
000360 3e 71 1a c0 e9 a3 8e be 6c db 06 c0 f4 65 2f 40
       -2.4131618 -0.2785943 -2.1071424 2.7405977
000370 e6 66 13 3d 47 ea 97 c0 f5 e5 10 bf b7 71 e3 3e
       0.035986803 -4.7473483 -0.56600887 0.44422695
000380 d5 57 65 c0 75 72 f8 be 09 bf 37 41 34 6f 90 3e
       -3.5834858 -0.48524824 11.484139 0.2820984
000390 8e 66 34 c0 7e e0 a5 be 70 1d b4 40 5b 47 b9 be
       -2.8187594 -0.32397836 5.6285934 -0.36187252
0003a0 f8 22 2f c0 02 f0 19 41 25 ac 8d c0 fe 30 12 41
       -2.7365093 9.621096 -4.4272637 9.136961
0003b0 8e d0 bc bf f4 85 ba be 5a 85 d8 3f dd 6f 28 c1
       -1.4751146 -0.36430323 1.6915696 -10.52731
0003c0 d5 1b 39 c0 11 39 1c 3e 9e 65 e9 bf 23 04 5b c0
       -2.8923237 0.15256144 -1.8234136 -3.4221275
0003d0 16 fe b1 c0 c2 40 4c 3d 9d 73 2d bf 3c 26 22 40
       -5.5622663 0.049866445 -0.67754537 2.5335836
0003e0 ec 55 b1 bd fe 47 28 40 23 73 1f c1 4a 4d 4a 3f
       -0.086589664 2.629394 -9.96561 0.79024184
0003f0 cf 57 8b 40 24 fb 71 be 7c 21 89 3d e6 1a 25 bf
       4.354469 -0.23630959 0.0669584 -0.6449417

lstm.weight_hh_l1 f4 [200, 50]
000000 ab e0 ac bd 67 20 c3 bd 63 35 cd bd d9 cf 15 3c
       -0.084412895 -0.09527665 -0.10019948 0.009143793
000010 c5 0a 40 bd 74 36 1b bd ac 12 f6 3d cb cb 0d be
       -0.04688527 -0.037893727 0.1201528 -0.13847272
000020 4d 9d bf bd 84 68 d2 bd 5d 52 6a 3d 0d 90 10 be
       -0.093561746 -0.10273841 0.057207454 -0.14117451
000030 31 7e 09 be 82 e8 0d be 23 5d 22 3d 32 5d 46 bd
       -0.13427044 -0.13858226 0.039639603 -0.04842872
000040 70 91 eb bd 35 7b 95 3b 58 12 0d 3e 4a 48 df bd
       -0.115023494 0.0045618066 0.13776529 -0.1090246
000050 d9 16 c2 3d 2a 5a cd 3d ac 7f 1d 3d 16 1c 85 bd
       0.09477014 0.10026963 0.038451836 -0.064994976
000060 d0 a8 ae bd cb e0 9e bd 99 e3 e8 3d 41 48 c6 3d
       -0.08528292 -0.077577196 0.11371536 0.0968175
000070 4c 11 ae 3d 8a 7d ec 3d 2b c3 59 bd a5 e9 25 3d
       0.08499393 0.11547382 -0.053164642 0.040506024
000080 98 f0 e1 3c bd d7 96 bc e1 48 ed bd 93 d0 a9 3c
       0.027580544 -0.018413419 -0.11586166 0.020729339
000090 f3 c1 3a bd a0 c3 5d bc 97 66 db 3d c6 16 dc 3d
       -0.04559512 -0.01353541 0.10712927 0.10746531
0000a0 c7 2e d6 bd f6 68 c1 bc 00 b2 f4 bd 60 99 47 bd
       -0.10458141 -0.02360962 -0.11948013 -0.048730254
0000b0 06 86 b8 3d 0e d5 eb 3d 83 26 4e 3d db b6 d0 3d
       0.09009938 0.11515246 0.050329696 0.10191127
0000c0 15 57 0f 3e 5e 5f 34 3d 84 02 dd 3c cd 28 07 be
       0.13998063 0.04403626 0.026978739 -0.13199158
0000d0 db 14 1e bc 17 1c 98 3b c6 67 12 bd 00 0e 0f bd
       -0.009648527 0.0046420204 -0.035743497 -0.03492546
0000e0 65 87 79 3c 6f 1d 23 bd 99 2b 92 3d 8a 00 c3 bc
       0.0152300345 -0.039822992 0.07137222 -0.023803968
0000f0 a1 7e 94 3a 45 56 42 3c 5a 68 da 3c c5 15 e4 bb
       0.0011329242 0.011861389 0.026661087 -0.006960603
000100 6c b3 ed bd 88 9b a8 3d 05 9f a4 3d ae 57 0d bd
       -0.11606488 0.0823279 0.08038143 -0.034507446
000110 45 09 ba 3c 5e 25 46 3d 41 06 0e 3e e8 b6 53 bd
       0.022709498 0.04837548 0.13869573 -0.051688105
000120 e8 dc 05 3d 2a 94 71 bd f0 d3 8e 3d c5 0f 63 3d
       0.032681376 -0.05897919 0.069740176 0.05543496
000130 ce 8a 0b bd fb ff 97 bc 30 2c b3 bd 75 8e e1 bd
       -0.03406792 -0.018554678 -0.087486625 -0.110135
000140 b6 e2 a0 3b e8 26 09 3e 02 9e 09 bd dc b7 aa 3d
       0.0049098385 0.13393748 -0.033597954 0.0833585
000150 1a 0b ac bc 92 e5 d9 bd 2d e7 e9 bd 51 5a 2c bd
       -0.021001387 -0.1063949 -0.114210464 -0.04207832
000160 a8 1a 39 3d c1 31 20 3d 30 72 19 bc d8 96 39 3d
       0.045191437 0.03910995 -0.009365603 0.04530987
000170 21 66 9d bc 49 44 d3 3d e2 be ac bc e4 7a b4 3d
       -0.019213738 0.10315759 -0.021087114 0.08812502
000180 b8 c1 86 bd 0a 89 6e bc 9b 6b 0b be f3 ce a6 bd
       -0.06579918 -0.01455904 -0.13615267 -0.08144941
000190 4b a0 b8 3d 10 db f6 3d 99 69 ac 3d 6a ea b9 3d
       0.090149485 0.120535016 0.08418579 0.09077914
0001a0 38 f4 cd 3d d2 9d 08 3d dc df 90 3c 5c a7 e7 bd
       0.10056347 0.033353634 0.01768487 -0.11311218
0001b0 8a 35 e9 bd c9 cf b6 bd e8 28 70 3d 05 5c bc bd
       -0.11387165 -0.089263506 0.05863276 -0.09197239
0001c0 1a 54 c1 3c 1b e5 d4 bd f9 04 52 bd 78 c4 c3 3d
       0.023599673 -0.10395261 -0.051274274 0.09558958
0001d0 45 1b d4 bd e8 73 57 3d 6d ec 71 3d 8d bd f5 bd
       -0.10356764 0.05260077 0.059063364 -0.119990446
0001e0 9f 11 f1 3d 27 e5 5e bd 1e 42 61 bc 4e 0b 01 be
       0.11770939 -0.054417755 -0.013748674 -0.12601969
0001f0 00 c2 49 bd 0a 51 02 be 58 23 7c bd c3 3e c7 bd
       -0.04925728 -0.12726226 -0.061557144 -0.09728768
000200 24 3d ff 3d f7 7a 0f bd 37 bc fa bd 5f 17 6e bd
       0.124628335 -0.035029378 -0.122429304 -0.058127757
000210 15 db c9 3d b5 f2 d7 3d c1 a2 4a 3d fa 45 83 bd
       0.0985624 0.105443396 0.04947162 -0.06409831
000220 65 06 c0 3d 94 a2 86 bc 86 f4 de bd 12 fe d9 3d
       0.0937622 -0.016434945 -0.10886483 0.10644163
000230 c2 7a 93 bd 7a 9d 54 bd d4 c3 94 bd 2e 9a f2 3c
       -0.072011486 -0.051907994 -0.07263914 0.029614534
000240 60 5f b4 3d 65 90 0f be 58 55 df bd bf 4f 77 3d
       0.08807254 -0.14019926 -0.1090495 0.060378786
000250 6d 3b 36 3d 55 5b d6 3d 18 b4 eb bd 2c 24 9f bd
       0.044490267 0.10466639 -0.115089595 -0.07770571
000260 60 46 0c be 5f 02 56 3d a0 8c 04 be 5d 69 05 bd
       -0.13698721 0.052248355 -0.12944269 -0.032571185
000270 d4 ec e2 3d 7d cc 60 bd f4 d7 8a bd dd 6d 08 3d
       0.11080328 -0.054882515 -0.06779471 0.0333079
000280 fe d0 4e 3d 99 63 f7 bd 0d 5a 37 bd 90 7a cc 3d
       0.05049228 -0.120795436 -0.044763613 0.099843144
000290 c4 87 9f bd e9 d8 ea bb 0b 48 07 3d cc 66 ce bd
       -0.07789567 -0.007166971 0.03302769 -0.10078201
0002a0 17 12 0b be e2 0f f1 bd e7 74 2e bd 7f 13 7d bd
       -0.1358112 -0.117706075 -0.042591956 -0.06178617
0002b0 57 75 10 be 62 0f 14 bd 4d 7f 95 3d 0c b9 51 bd
       -0.14107262 -0.036147483 0.07299671 -0.051201865
0002c0 34 8b 17 bc 93 d8 00 be 35 02 32 3b e0 d1 f0 3d
       -0.009249497 -0.12582617 0.002716196 0.117587805
0002d0 0a cd f2 3d 33 45 01 3d 93 d0 48 3c 3a a3 fb bd
       0.11855514 0.031560134 0.012256759 -0.12286992
0002e0 30 d5 eb 3d 42 61 de 3d 70 61 02 be 81 c3 52 bc
       0.11515272 0.10858394 -0.12732482 -0.012863995
0002f0 26 28 b7 3c c2 88 93 bd dd e3 25 bd 75 71 d8 bb
       0.022358011 -0.07203819 -0.04050051 -0.006605322
000300 27 8d a5 39 e5 d1 10 bd cc 1e ec 3d 3a 4e ca 3d
       0.0003157642 -0.03535642 0.115293115 0.09878202
000310 c2 27 ce 3d b8 4d 8f 3d a8 9f af bd 0b 60 fa 3d
       0.10066177 0.069972456 -0.08575374 0.1222535
000320 5b 2a fb 3c b5 9a e4 3c 55 b2 ee 3d a3 a1 9f bd
       0.030659845 0.027905801 0.11655108 -0.07794502
000330 e6 23 67 3c 86 43 94 3d 01 c8 ba 3d 23 c4 9d bc
       0.01410768 0.072394416 0.09120179 -0.019258564
000340 cf 19 23 bb 59 20 c8 bd e8 1a cb bd 97 6c 0d be
       -0.002488721 -0.09771795 -0.09917241 -0.13810955
000350 8d 80 b1 bd 25 88 c2 bd a4 1a e2 bd 86 62 7c 3d
       -0.08667097 -0.09498624 -0.110402375 0.061617397
000360 b6 c2 17 3c 95 a9 8b bd c4 8b dd 3b e4 33 2f 3d
       0.009262731 -0.068194546 0.006761046 0.042774096
000370 6e ea b0 bd 80 ea 2f 3d 4e ec e5 bd 38 6c dd 3d
       -0.08638464 0.042948246 -0.11226712 0.10811657
000380 38 53 a2 3d dc 51 69 3d a9 24 5e bd 71 9b 03 be
       0.07926029 0.056962833 -0.05423418 -0.12852265
000390 dd 04 aa 3c 2e 44 e7 3c 06 f7 b3 bd 93 f9 ee 3d
       0.020754272 0.028230753 -0.0878735 0.11668696
0003a0 9a b7 0d bc ec f6 c1 bd 4d 1b e4 bd ca e5 fd 3c
       -0.008649731 -0.09470925 -0.1113802 0.030993361
0003b0 82 96 a1 bd a2 20 98 bd f2 f0 b9 bd 3e 36 c3 3c
       -0.07890035 -0.07428099 -0.0907916 0.023829576
0003c0 c8 37 fa bc c4 3f d6 3c f3 15 cb 3d 91 b2 2a 3d
       -0.030544177 0.026153453 0.09916296 0.0416742
0003d0 64 30 c5 3c b8 11 de bd 30 15 06 3e a0 26 21 bd
       0.024070926 -0.10843223 0.1309402 -0.039343476
0003e0 c9 a9 36 bd 8d 1d e2 bd 04 c7 0c be ac 92 c4 3c
       -0.044595513 -0.110407926 -0.13747793 0.02399572
0003f0 16 d3 06 3e d8 dd ce bd e0 be a1 3d 75 83 e6 bb
       0.1316646 -0.10100907 0.07897735 -0.007034714

lstm.bias_ih_l1 f4 [200]
000000 5b 86 70 bf 2b ec 03 bf e4 bc 52 bf ef 23 67 3d
       -0.9395501 -0.5153224 -0.82319474 0.056430753
000010 1b f5 89 bf d5 fc b7 3e 49 92 63 3e e3 6b 93 be
       -1.0777925 0.35935083 0.22223772 -0.2879325
000020 14 d7 e8 bc a6 0b a1 bf b9 e9 fc be 94 c2 91 bc
       -0.02842287 -1.258168 -0.49397066 -0.017792977
000030 50 82 c8 3e 24 7e 71 bd b4 3c 81 3e 8f da 7d bd
       0.3916192 -0.058958188 0.25241625 -0.06197601
000040 a5 0f 57 bf b1 6f e9 be 58 f8 2d be 69 c8 69 be
       -0.84008247 -0.45593026 -0.16989267 -0.22830357
000050 7a d0 76 be a1 42 21 bf 25 c8 e9 3e d3 bc 35 bf
       -0.24102965 -0.6299229 0.4566051 -0.7099125
000060 f7 61 b6 bf 25 a1 53 bf 4d df e8 3e 20 1f 74 be
       -1.4248646 -0.8266776 0.45482865 -0.23839998
000070 b7 b2 62 bf d4 7d 6b bf 70 6a bc bf 93 ca a3 3e
       -0.8855395 -0.91988873 -1.4719982 0.3199049
000080 8b f5 7f 3e c0 db 80 3d a3 cb c1 3d aa 2f 76 bf
       0.24996011 0.06291914 0.09462669 -0.9616648
000090 ba e6 9d bd b5 b9 9b 3f d7 b0 32 bf ce 13 09 bf
       -0.07710023 1.2166048 -0.69801086 -0.53545845
0000a0 c2 b8 6b bf 5f a4 93 3f 6a a7 9f 3e 21 ce 99 be
       -0.92078793 1.1534537 0.31182414 -0.30040076
0000b0 93 b0 a4 3f 68 8c 0a bf 8d 8d 8f be 23 4c a1 bf
       1.2866386 -0.5412049 -0.28037682 -1.260136
0000c0 47 01 bf be d2 bb 9e 3e 1f 97 76 bd 6c 17 81 3d
       -0.37305662 0.3100267 -0.060202714 0.063032955
0000d0 e9 93 f9 bc 97 bb 9f bd 84 02 a7 3d 08 fc f8 3d
       -0.030466037 -0.07799452 0.08154777 0.12157446
0000e0 12 2c 16 bd 91 2d 03 3e 7e 31 ab 3b d8 b2 d1 bc
       -0.036663122 0.12810351 0.005224406 -0.025597975
0000f0 cd ff de bd 7d 1c 98 3d a0 b0 db bc 2f 88 de 3d
       -0.10888634 0.07427309 -0.02681762 0.10865819
000100 10 ef c5 3c 1a 32 c1 bd 99 b3 c1 3d f5 f3 a8 3d
       0.024161845 -0.09433384 0.09458084 0.08249656
000110 21 56 f7 3d 02 38 73 bd 4a ac 2c 3c 59 80 d0 3d
       0.12076975 -0.059379585 0.010539124 0.101807304
000120 4b bf df bd d4 db d3 bd 28 03 eb 3c 61 df ea 3c
       -0.10925158 -0.10344663 0.028688028 0.028670968
000130 fc 77 07 3c e3 c3 8a bd 7b cb c3 bc 53 2a 3e bd
       0.008268353 -0.06775644 -0.023900738 -0.046427082
000140 00 8a ad bc 03 65 96 3d 94 fd d7 3d 30 a6 03 3e
       -0.021183968 0.07343485 0.10546413 0.12856364
000150 91 1d 41 bd 26 96 bf 3d 7a 7c 3a 3d 17 10 ca 3d
       -0.047147337 0.093548104 0.045528866 0.0986635
000160 07 2b 58 bb 55 b5 9d 3d 16 4b 80 bd 92 3d 2e 3c
       -0.003298463 0.07700602 -0.062643215 0.010634797
000170 51 79 02 3e 80 42 a7 bc 67 48 ea bd 51 02 d8 3d
       0.12741591 -0.020417452 -0.11439591 0.10547317
000180 7f 1b 26 bd 1a d1 f6 bd 25 ba 72 bd df c1 21 bd
       -0.040553566 -0.12051602 -0.059259553 -0.03949153
000190 52 8f 7a bd 5a 63 25 3f e2 ad 2b 3e 77 c4 8f be
       -0.061171837 0.64604723 0.1676555 -0.28079578
0001a0 3a db 05 40 59 66 9a bf 0e 4f 38 bd 7e 75 a0 be
       2.0915055 -1.2062484 -0.044997267 -0.3133964
0001b0 19 9c 2b bd 5b aa 0b bf c2 a6 c8 3d 3e 42 8d bd
       -0.041896913 -0.54556817 0.097974315 -0.068974
0001c0 81 f6 62 be bf 01 c9 be d4 99 15 3d 55 61 a4 be
       -0.22164346 -0.39259145 0.036523655 -0.32105508
0001d0 ae 9d 46 bd 6c b2 00 be bf 62 9e bd c0 ca 5f 3e
       -0.04849022 -0.12568063 -0.07733678 0.21854687
0001e0 09 86 d3 3d 0e 81 a7 bc 13 a4 81 bf 41 44 61 3d
       0.103282996 -0.02044728 -1.0128196 0.054996733
0001f0 ed 60 16 c0 0c ea ee be 0b 6f d8 3f 7d c2 0c 3d
       -2.3496659 -0.4666294 1.6908888 0.034365166
000200 40 86 11 3f 9c e4 cf 3f db e0 31 bf e6 f9 17 3f
       0.56845474 1.6241641 -0.6948373 0.5936569
000210 90 2e 90 3d 9e 69 0f be 73 55 73 3b 19 82 78 bf
       0.07040131 -0.14005134 0.003712979 -0.97073513
000220 64 33 d2 3d a0 4a a2 bd d5 98 a3 3f d7 98 7b 3e
       0.10263708 -0.0792439 1.2781016 0.24570023
000230 98 33 bd be 09 ab e2 bd fc 2f d9 be a8 6a 6c 3e
       -0.36953425 -0.110677786 -0.42419422 0.23087561
000240 92 be 94 bd 4b a1 30 be 12 60 c7 3e c6 19 6b 3f
       -0.07262911 -0.17249028 0.38940483 0.918362
000250 a5 5e f1 3c 5a e3 8a 3e 60 67 94 bf c3 ba 55 bf
       0.029464075 0.2712658 -1.1594048 -0.834881
000260 df 46 4b bf 07 6f f8 3e c0 ca a3 bf fb b6 80 bf
       -0.79405016 0.48522207 -1.2796249 -1.0055841
000270 9a 99 67 bd fd e1 3a be 62 30 84 bf e2 11 6e bf
       -0.05654297 -0.1825027 -1.0327265 -0.92996037
000280 e2 88 23 3f e5 27 be be b9 3e 6a bf 6b ca f4 be
       0.6388074 -0.37139812 -0.9150196 -0.47810683
000290 d8 a4 f4 bf 27 24 9a be 6c 7c 7a 3e c7 36 5c bf
       -1.9112806 -0.30105707 0.24461526 -0.86021084
0002a0 8b c1 8f bf 81 90 9f bf 67 79 a2 bf 42 47 a6 bc
       -1.123094 -1.2465974 -1.2693299 -0.02029765
0002b0 7b 01 a7 bf f8 b8 a5 bf 4a b7 d4 be 24 65 0b 3f
       -1.3047327 -1.2947073 -0.41546088 0.54451203
0002c0 84 00 aa bf e8 50 d6 be 57 bb 2c c0 c1 b7 b4 bf
       -1.3281407 -0.41858602 -2.6989343 -1.4118577
0002d0 d6 24 d5 bf 85 e5 5e be d2 5f 32 3e 3e 4f c3 be
       -1.6651866 -0.21767242 0.17419365 -0.38146394
0002e0 39 b6 0c 3d 45 62 35 bf ac 3d 97 3e 7d 50 52 bf
       0.03435347 -0.7085307 0.2953924 -0.82154065
0002f0 31 2c 0c c0 b4 e1 06 bf 09 3b ad bf 68 58 d2 be
       -2.1901972 -0.52688146 -1.3533641 -0.41083074
000300 0e c7 fd bf 3b 21 22 3f b3 cc 8a be d6 92 97 be
       -1.9826372 0.63331956 -0.27109298 -0.29604214
000310 26 9d 05 3e a3 6c 09 3f 9b b0 3a bf 7f 47 7c 3f
       0.13048229 0.5368139 -0.7292573 0.98546594

lstm.bias_hh_l1 f4 [200]
000000 56 13 51 bf 42 69 38 bf 72 0b 47 bf 9d ac 39 3d
       -0.8167013 -0.7203561 -0.7775184 0.045330632
000010 d3 d5 83 bf 96 08 d5 3e b0 1b 84 3e ec ef aa be
       -1.0299629 0.41608113 0.25802374 -0.3338617
000020 c7 26 68 be f9 97 98 bf b6 15 0c bf f2 b4 2f be
       -0.22671042 -1.1921378 -0.5472063 -0.17158869
000030 ad 8e 29 3e 77 b7 80 be 05 db a8 3e e5 8d 0b 3d
       0.16558333 -0.25139973 0.329796 0.034070868
000040 7f 73 21 bf e1 ba bd be 55 63 d6 bd 8b 59 a3 be
       -0.6306686 -0.3705664 -0.10468165 -0.31904253
000050 55 76 73 be af 60 38 bf 94 0f c8 3e bc c3 2e bf
       -0.23775609 -0.7202253 0.39074385 -0.68267417
000060 30 35 bd bf ab ea 6e bf b1 d6 ac 3e 15 ef 04 be
       -1.4781857 -0.93326825 0.33757547 -0.12981828
000070 d0 26 53 bf 6d 21 61 bf e5 22 db bf db 10 8b 3e
       -0.824811 -0.8794163 -1.7120024 0.27161297
000080 3a 38 2b 3e 5c ed 9e 3e ba 3d fa 3d 6c 76 86 bf
       0.16720667 0.31040466 0.12218805 -1.050489
000090 47 9a 9e bd 35 04 a4 3f 8c 17 25 bf 4a 59 05 bf
       -0.0774427 1.2813784 -0.64489055 -0.5208937
0000a0 eb e4 46 bf d7 56 a2 3f 6c 98 5c 3e 8f d3 33 be
       -0.7769305 1.2682751 0.2154252 -0.17561172
0000b0 8c 5e a1 3f fd 77 2a bf d6 14 91 bd 5a 7a 8e bf
       1.2606978 -0.6658934 -0.07084052 -1.1131089
0000c0 99 87 b6 be a7 ff a3 3e b2 67 9a 3d ce ef fa ba
       -0.35650328 0.32030985 0.075393096 -0.0019144954
0000d0 46 85 ab 3d 4b f2 89 bd 6b 96 b8 3d ab 8d 4f bd
       0.08375029 -0.06735667 0.09013065 -0.050672214
0000e0 0c d1 17 bd d9 f5 fe 3d 53 f8 10 bd 1b 2b 2f 3d
       -0.037064597 0.124492355 -0.03539307 0.042765718
0000f0 84 71 86 3d 7c fb 58 bb ba aa 3b 3d 33 41 31 3d
       0.0656462 -0.003310888 0.045817114 0.04327507
000100 54 96 bb 3d 4b 7a af bd a2 cd 19 3d 38 ae 08 3e
       0.09159532 -0.085682474 0.037549622 0.13347709
000110 df 91 92 bd 10 51 c1 bc eb d0 ec 3d a1 39 f9 bd
       -0.07156729 -0.023598224 0.115632854 -0.12169195
000120 d0 81 fe bc b2 25 f0 3d 56 fe c5 3d 87 c7 07 3e
       -0.031067759 0.1172594 0.09667651 0.13259707
000130 7a 3d ed 3d 9d ef 8d bd 4b b0 9e 3d 32 30 5d 3c
       0.11583991 -0.06930468 0.07748469 0.01350026
000140 3d f4 cb bc e8 d5 59 3d 65 9e 0b 3e b1 9b 09 3d
       -0.024896735 0.053182513 0.13634641 0.033595745
000150 f9 42 0f 3e 6c bd 3e bd 58 bd 0a be 85 9f c8 3d
       0.13990392 -0.046567366 -0.13548791 0.09796051
000160 b4 ce e7 bd 9b ba 99 3d ba b3 d9 3d 32 c6 88 bc
       -0.11318722 0.07506295 0.10629983 -0.01669607
000170 f5 6c a2 3d 0b 76 6d 3c f6 59 c3 3d e2 e2 d9 3d
       0.07930938 0.014493476 0.09538643 0.106389776
000180 73 a7 c4 3d e6 b7 87 bd d8 06 aa bc 9e c5 8f 3b
       0.09602251 -0.06626873 -0.020755216 0.0043875715
000190 a9 7e 5f bd b3 00 1b 3f e3 1f e5 3d cf 7e aa be
       -0.054564152 0.6054794 0.111877225 -0.33299872
0001a0 13 06 f6 3f 79 58 94 bf 60 80 ac bc 82 05 bd be
       1.9220604 -1.15895 -0.021057308 -0.36918265
0001b0 f0 16 52 be b6 80 37 bf df c2 a0 3d d6 58 96 3b
       -0.20516562 -0.7168077 0.07849669 0.004588227
0001c0 fa 9f 0b be 8e 87 ce be 7f ce 92 3d 01 0b 6d be
       -0.13635245 -0.40337795 0.07168292 -0.23148729
0001d0 85 56 90 be af 07 51 bd bb 64 e6 3d f3 b6 88 bc
       -0.2819101 -0.05103272 0.112496816 -0.0166888
0001e0 9a 24 8d 3e 27 07 8f 3d 88 03 51 bf 2e fd 04 be
       0.27566987 0.06983786 -0.81646013 -0.12987205
0001f0 7c 3d 0b c0 59 83 bc be 3b 91 d7 3f d5 72 26 3e
       -2.1756277 -0.3681896 1.6841196 0.16254742
000200 98 5e f9 3e fc a7 cf 3f 77 4b 33 bf c7 23 49 3f
       0.48704982 1.622314 -0.70037025 0.78570217
000210 f3 0c 47 be 22 73 78 3c c0 34 db 3d 72 95 7a bf
       -0.19438533 0.015164169 0.10703421 -0.97884285
000220 3f 12 d2 ba 74 bd 85 3d df f1 aa 3f e2 38 a2 3e
       -0.0016027166 0.06530276 1.3355063 0.31684023
000230 3c fa c7 be ad 02 56 be 9b af b8 be 1e 4c d5 3e
       -0.390581 -0.20899458 -0.36071476 0.41659635
000240 39 91 8e 3d 14 af f2 bd 68 33 e3 3e 46 63 7e 3f
       0.06961293 -0.118498 0.44375157 0.9937023
000250 30 e2 1a bc 1d 92 46 3e 96 17 b7 bf 75 1e 33 bf
       -0.009453341 0.19391675 -1.4304073 -0.6996835
000260 ce 7c 31 bf 04 b3 cb 3e cd 59 99 bf d7 22 87 bf
       -0.6933106 0.39785016 -1.198053 -1.0557507
000270 4f d7 d9 3d 70 1c c1 be cf 4e 99 bf 1c ac 73 bf
       0.1063677 -0.3771701 -1.1977175 -0.95184493
000280 d7 9c 0e 3f 31 05 cb be cc 5b 32 bf 4f be b2 be
       0.5570807 -0.39652398 -0.6967132 -0.3491082
000290 99 30 fa bf 46 33 d9 be 76 c0 b4 3e e3 35 77 bf
       -1.9546081 -0.4242193 0.35303086 -0.965666
0002a0 8d eb 7f bf 31 02 93 bf fc 9c b1 bf c8 5a 14 3d
       -0.99968797 -1.1485044 -1.3876033 0.03621939
0002b0 d6 8a b5 bf f8 15 8d bf 34 2c 01 bf 1b 7c ee 3e
       -1.4182994 -1.1022329 -0.50458074 0.4657906
0002c0 8f da 9f bf d2 da 22 bf 8f a6 24 c0 ea 9d b4 bf
       -1.2488574 -0.63615143 -2.572666 -1.4110692
0002d0 a9 49 f3 bf e9 80 9d be f4 d1 c1 3e af 2b c4 be
       -1.9006854 -0.30762413 0.37855494 -0.38314578
0002e0 5e 3f 3a 3b ac 67 3e bf fb c2 c8 3e b5 d9 58 bf
       0.0028419117 -0.7437694 0.39211258 -0.84707195
0002f0 a6 86 13 c0 24 7b 06 bf 01 23 bd bf 16 ae 53 be
       -2.3050933 -0.5253165 -1.4776307 -0.20671877
000300 2b d6 00 c0 d8 40 61 3f ca b2 90 be c5 cb 3c be
       -2.0130718 0.8798957 -0.28261405 -0.18437107
000310 af 2b 19 3e 5d e6 c6 3e af 52 4d bf bb 9d 72 3f
       0.1495807 0.38847628 -0.8020429 0.9477193
