CNN-based-IoT-Device-Identification-main/lstm_60.82.pth (torch, 68643 bytes, 6 tensors)

lstm.weight_ih_l0 f4 [200, 25]
00000000: 3eba ccc1 43b5 00c1 94a1 5bc1 22c7 03c1
00000010: c1dd 4741 3364 a2bd 43c6 32c1 dd8c 28c1
00000020: 122f 4141 834c 5a40 20a0 9141 cdc1 c2c0
00000030: c53f c5c0 a8f9 abc1 5452 0fc0 5467 f441
00000040: b655 9fc1 5b86 3a41 84d0 5d3d 32a5 3841
00000050: 9b76 adc1 b983 7cc1 2671 e940 7587 fcc0
00000060: 0e1c b5c0 1d33 97c1 f613 9cc1 cebe 2bc2
00000070: 7d3f 0941 323c fdc1 908c e4bc 9441 233f
00000080: 1ff7 283f 6353 3c42 affd 1341 92ff aec1
00000090: 33f2 5cc1 aee4 5cc1 7069 0cc3 f45f 3741
000000a0: b81c a6c1 892f dcc1 fec0 9c41 05a0 6940
000000b0: d0ac 9c41 08dc 53c1 37f2 1f41 2489 e5bf
000000c0: 8c8e 63bf f1e7 2041 cd8c 9d3f 51b9 dac1
000000d0: dcfa bcc1 3230 42c2 a33a 14c2 029f 023e
000000e0: f2f8 3ac2 ccc3 ccc1 392e b6bf efb3 6442
000000f0: e507 74c1 6df6 eac0 adff f0c0 5650 42c1
00000100: b169 7cc1 1396 8540 f2f0 0fc0 9bb3 e6c0
00000110: 18bf 90c1 773e e7c0 2ba9 e8bf aa09 80c2
00000120: a1dc ac41 05fe 3d41 d92c 8b41 d607 cbc0
00000130: 728c 21c1 e240 63c1 0cc2 f83f 6e88 20c2
00000140: a2c5 84bc e43b 4f41 4b23 11bf d98a 5142
00000150: e4bd 83c0 ca8b 9841 172e eb41 40b7 ec41
00000160: 7d53 92c0 99c5 0640 3246 fcc1 2c4a d740
00000170: 77e8 6040 7c54 13c0 62a4 6440 0429 fd40
00000180: b181 7b41 7497 0840 b0ee b0c0 500e dfc0
00000190: 50de 4240 6292 8b3f 768b 6cc0 18b7 7c41
000001a0: 9eb9 b4c0 5e10 98bd 13f7 ae41 53c4 8fbf
000001b0: 0395 4940 caaf fc41 ca7d 88c1 c375 8dc0
000001c0: a117 8bc0 ad3d 7cc0 28dc 1cc0 2316 f140
000001d0: f2ff b2c0 8bca 573e ed0b 3340 658b 01bd
000001e0: 7316 ff40 e707 cb41 f9e7 ce41 cbe2 6640
000001f0: 501d e940 b61d 49bf 71d0 75c0 c746 7c40
00000200: aeb5 2243 9c8b e4c0 698b 0bbe d72c 2543
00000210: ea68 1dc0 fb0d 44c0 e852 5f43 0e00 1ec3
00000220: 78f3 60bf a341 88bf 0781 b6c0 0390 3ec0
00000230: 2dd9 cb3f dd65 4fc0 1d27 94c0 e914 b8bf
00000240: a766 91c0 82df 3343 ff2a 1343 8de4 aa41
00000250: 67b6 41c1 1d60 79c2 ff70 62c0 70e7 6740
00000260: ec69 9ec0 d4fb a541 b3e6 c13e 587d 2d3d
00000270: 652e a641 3f18 5641 0420 d7bf 9c17 47c2
00000280: 5253 d6c2 8996 92be 6c46 05bf 678a 9b40
00000290: eb7d 3f41 10d0 85c0 4e6a 4f41 8a19 67c0
000002a0: 7ea3 a4bf 2607 59c0 3938 c23f 85ed fc41
000002b0: 572e 8b41 13d2 5ac1 829f 18c2 132a 803f
000002c0: 6b03 be3e c12e b9bf f470 ad41 cb0d 06bf
000002d0: eeee b03c 8ac9 d241 ca26 b6bf 2095 3041
000002e0: 5241 2c42 80c2 07c2 5aac 1bbf fbdf 1bbf
000002f0: 3652 813f 6a9a a7c0 8489 ca3f abd4 acc0
00000300: 18c8 05c0 bcd2 a6c0 b135 05c0 a4a1 1941
00000310: 8bad f241 bb90 e741 95bd bd40 cee8 6c40
00000320: ac2f 99c0 c7a6 ffc0 1157 8fbf 6733 5ac1
00000330: dbb3 bac0 e903 aa3c 96a9 6ec1 7c38 edc0
00000340: e829 b541 b770 ec40 2144 55c1 ac8f bfc0
00000350: 1e2c bdc0 883a 4341 f63f 84c0 3087 10bf
00000360: 4a08 573e 9c6c d63e 0f7d c140 7d19 e03e
00000370: abb9 35c1 9269 81c1 89f9 9b40 a094 bac0
00000380: 1473 cac0 d0af b1c0 a953 d7c0 1b2e 19c2
00000390: 7e24 93c1 66fa 933f 5c76 b83d ffb2 00c1
000003a0: 114b e8c1 ed76 4b3f 1c53 c5c1 78f6 7a41
000003b0: 3a53 b8c1 9798 b8c1 7fb1 4f42 e609 07c2
000003c0: aebc 1cc2 00c3 3b40 ce03 8241 7dee d740
000003d0: fa2c 8141 8dc3 a9c1 4e1e 7dc1 227f 473f
000003e0: 6939 02c0 4cce e8be 10f5 07bf 5772 52c0
000003f0: f635 49c2 d3bd 99c0 0db6 9d40 05b9 90bd
-25.590939 -8.044253 -13.726948 -8.236116 12.491639 -0.07929268 -11.173404 -10.53439
12.073992 3.41092 18.203186 -6.0861573 -6.1640344 -21.496902 -2.2394 30.550453
-19.916851 11.657802 0.054153934 11.540331 -21.682913 -15.782159 7.295062 -7.8915353
-5.6596746 -18.899958 -19.509747 -42.936333 8.578 -31.654392 -0.027899057 0.6377194
0.66002077 47.081432 9.249434 -21.87479 -13.809131 -13.80583 -140.41187 11.460926
-20.764023 -27.52321 19.594234 3.6503918 19.584381 -13.241219 9.9966345 -1.7932477
-0.88889384 10.056626 1.2308594 -27.340487 -23.62249 -48.547066 -37.057262 0.12755969
-46.74311 -25.595604 -1.4232856 57.175716 -15.251927 -7.3425813 -7.5312104 -12.144613
-15.775804 4.1745696 -2.2490811 -7.2094245 -18.093307 -7.226375 -1.8176626 -64.018875
21.607729 11.8745165 17.396898 -6.3447065 -10.096788 -14.203341 1.9434218 -40.133232
-0.01620752 12.952122 -0.5669448 52.385593 -4.11693 19.068256 29.397505 29.589478
-4.5726914 2.1058104 -31.534275 6.727804 3.5141885 -2.3020315 3.5725331 7.911257
15.719163 2.134244 -5.5291367 -6.970497 3.0448189 1.0904047 -3.696012 15.794701
-5.6476583 -0.07424997 21.870642 -1.1231788 3.14972 31.585835 -17.06142 -4.420625
-4.3466344 -3.9412644 -2.4509373 7.533952 -5.5937433 0.21073358 2.797603 -0.031627078
7.9714904 25.378859 25.863268 3.6075923 7.284828 -0.7856096 -3.8408473 3.94182
162.70969 -7.142042 -0.136274 165.17516 -2.4595284 -3.0633533 223.32385 -158.00021
-0.87871504 -1.0645031 -5.7032504 -2.9775398 1.5925652 -3.2405922 -4.6297746 -1.4381381
-4.543781 179.87308 147.16795 21.361597 -12.107032 -62.34386 -3.5381467 3.6235008
-4.95043 20.747963 0.37871322 0.042355865 20.772654 13.380919 -1.6806645 -49.773056
-107.162735 -0.28630474 -0.5206058 4.860645 11.968242 -4.1816483 12.963453 -3.6109338
-1.2862394 -3.3910613 1.5173408 31.615976 17.397627 -13.676288 -38.15577 1.001284
0.37111983 -1.4467393 21.680153 -0.52364796 0.021598306 26.348408 -1.4230587 11.036407
43.06379 -33.93994 -0.6080986 -0.6088864 1.0103214 -5.2375994 1.5823216 -5.4009604
-2.0903378 -5.2132244 -2.081402 9.601963 30.334738 28.94567 5.9293923 3.7017093
-4.7870693 -7.9891086 -1.1198446 -13.637549 -5.834455 0.020753818 -14.916403 -7.413145
22.645462 7.388759 -13.329133 -5.986288 -5.9116354 12.20179 -4.1328077 -0.5645628
0.20999256 0.41879737 6.046516 0.43769446 -11.357829 -16.176548 4.874211 -5.8306427
-6.3265476 -5.5527115 -6.7289624 -38.295025 -18.392818 1.156079 0.0900695 -8.0437
-29.036654 0.7947834 -24.66558 15.685173 -23.040638 -23.074507 51.923336 -33.759666
-39.184258 2.9337769 16.251858 6.7478623 16.146961 -21.220484 -15.819899 0.77928364
-2.034754 -0.45469892 -0.5310831 -3.2882288 -50.302696 -4.804422 4.928473 -0.0706654

lstm.weight_hh_l0 f4 [200, 50]
00000000: 2649 103e 2da9 a13d ad79 633d 87fb 41bd
00000010: 0b18 a2bd 87a3 b6bd d21c 313d f1b2 d9bd
00000020: 253c 083e 9b33 08be 2c3c b1bd 6572 ecbd
00000030: 896e 703b 4731 d7bd 5608 c3bd 23c0 b8bd
00000040: 4f58 7abd 6ced a0bd 361d fa3d 222b 79bd
00000050: 5f81 dbbd 0937 873d 9d1d 14bc 4d9a 2dbc
00000060: 25d6 d3bc e07c 7bbd 46e7 93bc 33c6 a83d
00000070: 1539 c23d b8c1 033e f7a9 953d 5df4 c83d
00000080: 7c8f c83c 3cd2 0e3e a25e 2abd 4fa9 a2bc
00000090: 4f42 4d3c 0f12 0e3e 4989 0d3a aa9b bebd
000000a0: b5f2 b8bc 5be3 873d 28e1 5c3d 2dc2 dcbd
000000b0: 9040 94bd 715d 1c3d f0cf 0bbe dde2 b1bd
000000c0: 3fb7 edbd 4ddf 04bc f17a 0a3c 6d66 793d
000000d0: 60f5 b6bd 25df 99bd 00e8 043c 0209 ae3d
000000e0: 0e47 96bd 5d4c 003e 5f57 623c bccc 073e
000000f0: 1bae d9bd 684e b13d 5ae9 013e 1d05 08be
00000100: 0484 f8bd ff7a b5bd feb2 863d 226d 0b3e
00000110: b3b0 763c bea3 f63d c4cd 4f3d 5436 dfbd
00000120: 16be 83bd d267 6339 dfdc 12bd 1cd6 d23d
00000130: df9e 073e d85b 8d3d dd46 de3d 3aa9 823c
00000140: 5ae6 743c 9f66 c0bd c8c6 bb3d b85e d8bc
00000150: e4c7 38bd 634b 063e c8ad 0bbe 0bf2 073e
00000160: 1b8a 0e3c 3d82 26bc f216 043e d173 cebd
00000170: b5a4 493d 3652 cb3d 5005 e2bd 53c5 a73d
00000180: cc9c c73d bf16 f4bd 74c5 41bc 499a 29bd
00000190: 42a3 10bd 25d5 5bbd cead 0c3e 8f08 083e
000001a0: 4c20 8d3d b273 5ebc ebb1 20bd e55a ff3d
000001b0: e554 3a3d a179 bcbd b19d b1bd b667 0ebe
000001c0: 1246 f13d 35e6 d83d 2c6e 093c da2d 9fbd
000001d0: 9b31 d53d 3fc5 a3bd 0a56 0c3e f1ac 00be
000001e0: cf0e 13bd 8710 c53d 6b6c e3bc f4f7 07bd
000001f0: 9dcc 0bbe c03b 23bb 805c b63c 61f3 aa3d
00000200: e018 8b3d 0a76 5bbd 77fa 2d3d b9c4 debd
00000210: b4ae 863c b3a0 01bd c835 dabd 8dff 6a3d
00000220: 0897 22bd 764d cfbd 40d7 473c 8809 893d
00000230: 4293 3e3b 001c 043e ae89 3cbd 3629 b33d
00000240: 2c48 a9bc 4e16 073e 2a6d 333c bd2c 743d
00000250: 82d3 a93c 209f 6dbc bf36 bbbd 81e9 f9bd
00000260: 88a0 b7bc 27d5 943d fb3c eb3d 81cf b53d
00000270: 5ef4 053e 957d 8b3d 7c12 eb3d 58e1 643c
00000280: 7148 e4bd e196 843d 77ca c0bd b3eb c0bc
00000290: f7c9 e7bd 48be 823d c0f6 49bd fcc8 afbb
000002a0: abbe a73c b12c 9f3c 51d3 9b3d bda8 a9bd
000002b0: ce28 013e eb35 b93b 7b12 a63d 6531 10be
000002c0: 6ad2 483d f0a3 483d 11f7 543c e599 6dbc
000002d0: 7c8d d73d fa1d f5bd dc38 d13d 94b0 debd
000002e0: 125d d0bd c011 8d3d f2ce 413d 9a99 183d
000002f0: 9e46 083d 3e6f fb3d 9cf5 b43c 373c 73bd
00000300: 71f9 b63b 2edc 73bd 6cc0 f93c 2cd0 033e
00000310: 1ebd 613d 0852 663c ae79 fe3d 0871 99bd
00000320: 3059 1fbd f1ed ac3d 66e0 053e a85d ee3d
00000330: e454 4b3c 5e33 f5bd e05b eb3d e189 abbd
00000340: 31e8 a63d a0ba a0bd 2676 0cbc cbce 043d
00000350: e2bf 22bd 3521 0fbe e07b d93d d9ba 913d
00000360: 6ff9 0cbe 623d 903d 01e0 cabb 9138 cfbb
00000370: 0969 b63d 7bc8 e53d 485d 93bd 5281 66bd
00000380: 41fb 983b 73f6 0b3e c867 9c3c e663 f6bd
00000390: 1381 a2bb b308 0b3d 48ca ffbd 2fe1 f13d
000003a0: c049 843c 4f8b d0bc f080 91bc 9c9d fe3d
000003b0: 8d25 023e 00fa d7bd 2666 c73c 4718 c83d
000003c0: cf6c a1bc f9eb a03d fdf3 0d3e f6aa 6cbc
000003d0: a8bc 37bd 7e31 4abc 2b82 ce3c 8d3c 00be
000003e0: c812 853c e606 6a3b 0786 7fbd 139a bdb9
000003f0: 2661 c1bd 6b4e fbbd 8dfe cd3d 2beb c9bc
0.14090404 0.07893596 0.05553596 -0.047359016 -0.07914742 -0.08917909 0.043240376 -0.106298335
0.13304193 -0.13300936 -0.08654055 -0.115452565 0.0036686978 -0.10507446 -0.09523074 -0.09021022
-0.061119374 -0.07857785 0.12212603 -0.06083215 -0.10718035 0.06602294 -0.0090402635 -0.01059587
-0.025858948 -0.061398387 -0.018054616 0.082409285 0.09483544 0.12866867 0.07307809 0.098122336
0.024482481 0.13947386 -0.041594155 -0.019856123 0.012528016 0.13874076 0.000539918 -0.09307034
-0.02257667 0.066351615 0.053925663 -0.107792236 -0.07238877 0.03817505 -0.1365354 -0.08685849
-0.11607217 -0.00810988 0.008452163 0.060888696 -0.0893352 -0.075132646 0.008111954 0.08497812
-0.07337771 0.1252913 0.013814776 0.13261694 -0.10628911 0.08657533 0.12686673 -0.132832
-0.12134555 -0.0886135 0.06577109 0.1361585 0.015056777 0.1204295 0.050733343 -0.10899034
-0.064327404 0.00021687083 -0.03585517 0.10294744 0.13244198 0.069022834 0.1085336 0.015949834
0.014947498 -0.093945734 0.09168774 -0.026412353 -0.045112506 0.13114695 -0.13640511 0.13275926
0.008699919 -0.010162887 0.12899378 -0.10080684 0.049229342 0.0992779 -0.110361695 0.081919335
0.097467035 -0.11918401 -0.011826862 -0.041406903 -0.035311945 -0.053670067 0.13738176 0.13284515
0.06890926 -0.013577389 -0.039232176 0.12468509 0.045491118 -0.092028864 -0.086726554 -0.1390675
0.11780943 0.105907835 0.008388083 -0.07772417 0.10409852 -0.07996606 0.13704696 -0.12565972
-0.035902794 0.09622293 -0.027761659 -0.03319545 -0.13652273 -0.002490744 0.022260904 0.08347202
0.06791854 -0.053579368 0.04247519 -0.108773656 0.016440727 -0.031647395 -0.10654789 0.05737262
-0.039694816 -0.101221964 0.012197316 0.06691271 0.0029079472 0.12901306 -0.04602974 0.08748095
-0.020664297 0.13192102 0.01095132 0.05961298 0.020730738 -0.01450327 -0.09141301 -0.122027405
-0.022415414 0.07267218 0.114862405 0.08877469 0.130815 0.06811062 0.11478135 0.013969742
-0.111466296 0.0647409 -0.09413617 -0.02354989 -0.113178186 0.063839495 -0.049307585 -0.0053645354
0.02047666 0.01943049 0.07608665 -0.082841374 0.12613222 0.0056521795 0.081089936 -0.14081343
0.04902879 0.048984468 0.012998358 -0.014502023 0.10525033 -0.11968608 0.10215923 -0.10873523
-0.10174002 0.06888151 0.0473165 0.03725586 0.03327047 0.12277077 0.022089772 -0.059383597
0.005583935 -0.05953615 0.030487262 0.1287238 0.055111997 0.014057644 0.12425552 -0.07492262
-0.038903415 0.08443821 0.13073882 0.11638957 0.012410376 -0.11972688 0.11492133 -0.08375908
0.08149756 -0.07848096 -0.008573091 0.032423776 -0.039733775 -0.13977511 0.106193304 0.071157165
-0.13767026 0.07042958 -0.006191254 -0.006323882 0.089067526 0.11219879 -0.07195526 -0.056275673
0.0046686237 0.13668232 0.019092456 -0.12030773 -0.0049592345 0.033943843 -0.12489754 0.118105285
0.016148448 -0.025457053 -0.017761678 0.12432405 0.12709637 -0.105457306 0.0243407 0.097702555
-0.019705204 0.07857508 0.13862605 -0.014445057 -0.04485765 -0.012340901 0.025208553 -0.12523098
0.016244307 0.0035709678 -0.062383678 -0.00036163683 -0.09442358 -0.122708164 0.10058317 -0.02464827

lstm.bias_ih_l0 f4 [200]
00000000: df5e 303f 22da 8a3e 7e6d 523e fb6d 803f
00000010: ecc1 d240 bf2e e33e 613f 52be b5b2 763f
00000020: 2933 8640 6513 3e3f b41e 963f 78e1 80bd
00000030: 6a74 f4be ec35 fd3a f286 dfbe cb65 1d3e
00000040: ed81 f23e dbf0 59bf b15a 8a40 3b6e 01bd
00000050: 2c68 3d3e 071b 2a40 949a 0cbe 685c 563c
00000060: a899 4ebf bded 1cbf 55d8 5dbd cde5 103f
00000070: 571d a1bd c24f a2be 6e90 f0bd 7631 f93f
00000080: f7d5 883f 2b36 fabe 9105 f1bf f79d 853f
00000090: ef2e 3ebf 467d 4bbf 51bf 4fbf e73a 143f
000000a0: 841f f1be 8296 d23d 0290 023f 2e0b 9d3e
000000b0: ae44 8a3d 9052 203e db38 143f 79a7 aabe
000000c0: 0620 e4bd cf7f 22bf 6555 0e3e 227a ba3d
000000d0: a53f 1bbc fb18 4bbd 3eb7 483d cb25 02bd
000000e0: a46c e0bc f38c be3d 932a 3c3d bf7e fbbd
000000f0: 301b acbc 770a 233c 6ab6 da3d 04fc a13d
00000100: a169 a73d 654c ad3d 93cc b03d f661 a23c
00000110: 2408 a13d 3749 bebd c0ab c13c 31a7 7f3d
00000120: 2875 07bc 31d8 15bd 7b67 bcbd 450f de3d
00000130: 1dae bbbd c303 d13d 458a a7bc 81ad c73d
00000140: 126e 813c d809 f1bd d10a c4bd fac0 a63d
00000150: e68b 72bd 4ddd 033e 482d fa3d 7cec d63d
00000160: e7ff cb3d a326 b43b 0596 6fbc f518 1c3d
00000170: 7836 a7bd 2331 363d 62ef 2239 7234 7d3d
00000180: dd0b e3bc 2506 8a3d 4dab 5d3a 40bf d53c
00000190: d565 ddbc 28f4 523d affd acbe 3881 60bd
000001a0: f10d 013d 7e26 9b3d a763 4bbe e0ba f83d
000001b0: b437 a1bc 49a9 32bd 7a22 0d3b d381 c33b
000001c0: 94c0 c4bd 2195 e33d 7955 f93d 29f9 a8bd
000001d0: 6515 8e3e 8028 013e 5139 053e c862 b33c
000001e0: f7eb 103e 6e5b 18be 97d4 e43e 0dfe 913d
000001f0: 8ae1 2dbe 34d7 7a3d 2927 4dbc 06bc 673c
00000200: 2178 993c 14f3 203d 26f6 783d 7c22 073e
00000210: 930e 96bc 09d0 3fbe 7ce7 b1bd 20a9 f4bc
00000220: a890 103e bbb6 c93d 45c0 c73d d779 c4bc
00000230: 491a 4d3d c42e 463e 71d6 9cbd 3a9e 4a3d
00000240: 8cf0 82be 60a5 debd 02f4 eebd eb70 883d
00000250: 32c0 f4bc d1b6 4bbc 58a7 89bf 72d1 013f
00000260: 4423 a73e 46df 4fbe d51b 1f40 a0ec cd3e
00000270: b342 08bf 8d03 933f 1cda 043d 0756 033f
00000280: 2f65 853e 6087 88bc 365c 0ebf c8db 5a3e
00000290: 702f 31bf f991 e53e d298 023f 42d8 06bf
000002a0: 0858 11c0 9cd1 b2be 4520 e53f 4425 b13f
000002b0: bfab 41bd 6d56 94be b387 47bf 9b16 1fbf
000002c0: ad55 25bf 86e8 343f e5e0 41bc 1a2c 89bf
000002d0: 20f4 2a3e d38a 843e 82ee 9fbd fbd3 c9be
000002e0: 8aa7 25c0 ede8 2c3f 2cb8 9fbe 6ce1 6abf
000002f0: 97b4 82bf 8674 d6be c8f1 0fbf aaf8 373e
00000300: 0a9d 0c3f 54b4 e63c fed2 3a3f 02ae 35be
00000310: c9fb 503f 9723 c5be da98 94be ede4 d0be
0.6889476 0.27119547 0.2054958 1.0033563 6.586172 0.44371602 -0.2053199 0.96366435
4.193745 0.74248344 1.172812 -0.06293005 -0.47745067 0.0019318438 -0.43657643 0.15370862
0.4736475 -0.8513314 4.3235707 -0.031599265 0.1849677 2.6578996 -0.13730842 0.013083555
-0.8070321 -0.6130026 -0.05416139 0.5660065 -0.07866924 -0.31701475 -0.11746298 1.9468219
1.0690297 -0.48869452 -1.8829824 1.0438832 -0.74290365 -0.7948803 -0.811513 0.5790238
-0.47094357 0.10282613 0.5100099 0.30672592 0.06751381 0.15656495 0.57899255 -0.33330896
-0.111389205 -0.6347627 0.13899763 0.09105326 -0.009475623 -0.04958437 0.04900288 -0.031774323
-0.027395554 0.09304228 0.04593904 -0.12280034 -0.021009058 0.0099512255 0.10679324 0.07909396
0.08174444 0.08461837 0.086327694 0.019822102 0.07862881 -0.092913084 0.023641467 0.062415306
-0.008267678 -0.03658313 -0.09199425 0.10842756 -0.09164069 0.102057956 -0.020451674 0.0974989
0.015799556 -0.11769456 -0.095723756 0.08142276 -0.05921545 0.12877388 0.12215668 0.104943246
0.09960919 0.00549777 -0.01462317 0.03810974 -0.08164686 0.044480454 0.00015538701 0.061817594
-0.027715618 0.06739453 0.0008456007 0.026092172 -0.027026096 0.051502377 -0.33787295 -0.054810733
0.031507436 0.07575701 -0.19862233 0.121450186 -0.019679882 -0.043618474 0.0021535442 0.005966404
-0.09607044 0.111124285 0.12174506 -0.082506485 0.27750698 0.12613106 0.13010146 0.021897689
0.14152513 -0.14878628 0.44693443 0.071285345 -0.16980568 0.06124039 -0.012521544 0.014143949
0.01873404 0.039294317 0.06078162 0.13196748 -0.018317496 -0.18731703 -0.0868673 -0.029865801
0.14117682 0.09849306 0.097534694 -0.023983879 0.050073896 0.19353777 -0.07658089 0.049467303
-0.25574148 -0.108713865 -0.116676345 0.066621624 -0.029876802 -0.012433724 -1.0754194 0.50710213
0.32644093 -0.20300016 2.4860737 0.40219593 -0.53226775 1.1485459 0.032434568 0.5130314
0.2605376 -0.016666114 -0.5560945 0.21372902 -0.6921301 0.4483793 0.51014435 -0.52673733
-2.270998 -0.34925544 1.7900473 1.3839498 -0.04728293 -0.28972188 -0.77941436 -0.6214387
-0.64583856 0.706673 -0.011833404 -1.0716584 0.16694689 0.25887164 -0.07809164 -0.3941954
-2.5883508 0.67542917 -0.311952 -0.91750216 -1.0211362 -0.41885775 -0.56228304 0.17965952
0.5492712 0.028162159 0.729782 -0.1774216 0.81634194 -0.38503715 -0.29022866 -0.40799657

lstm.bias_hh_l0 f4 [200]
00000000: 9291 5b3f 55d1 b23e 7a45 a53e 0b19 9c3f
00000010: 8272 d240 e31f d93e 646f 10be 3aab 693f
00000020: 4c3f 8340 7aeb 723f d0ec 8f3f b339 51bd
00000030: b3e9 dabe a44a 093e 281b f5be 12b3 a73d
00000040: 1cf6 903e 0515 59bf dafe 8e40 d9d9 54be
00000050: 79db f9bc 8090 3040 a623 ffbd 1340 b63d
00000060: fb6f 52bf 67e9 0abf b3b8 8cbe 4937 063f
00000070: bbcc 1dbe 4cdb e9be b54e 4cbe ff29 0340
00000080: 60db 843f 4920 aabe f534 e7bf 2276 963f
00000090: 9cd3 32bf 62b4 29bf 4821 4bbf 84be 1d3f
000000a0: f680 e8be 9bf6 a63e 49c5 e33e 60d9 9e3e
000000b0: c76c 313c 2902 573e a3d5 283f c5d2 2cbe
000000c0: 6f13 753d dce3 1abf 17d2 8ebc 960c 42bd
000000d0: db11 8c3d 1369 7bbc 3cdf ebbd 9df0 143c
000000e0: 72fe cbbd 23ab 633b 80ef d33d 2391 9fbd
000000f0: 7115 dabd cddf 40bd 344e 653d b62b a0ba
00000100: 7d56 cfbd 0f1f 2e3d df5b cd3c ac71 7e3d
00000110: aa29 04bd 93be 96bd f2cb f9bc 47f0 54bb
00000120: 3d1e 10be 6059 463d f32c e1bd 1208 0bbe
00000130: 6da8 17bd f852 833d b2c3 56bd c797 f03d
00000140: 87de ef3d d6ba 96bd 4dfa 333c 9dea 5cbc
00000150: 058c b33d 8de3 5d3d e29f 923d 6c99 fdbc
00000160: 0ce7 233d d7b7 0cbe 421c 8ebc 9143 e23d
00000170: 4285 28bd 53a3 8cbd f596 adbd f656 b23d
00000180: 55db 54bd 935c 8fbd 39e2 563c 879d 80bd
00000190: d62d 85bd a15c 08be f3d0 a5be 9822 93be
000001a0: 00da 063d ed30 4d3e 5616 b1be 6556 3a3d
000001b0: d3fa 02be 5935 4bbe 59a5 f9bd 8070 073e
000001c0: c56b 29bd efc8 d33d bea8 f33d 6f34 bdbd
000001d0: 5b67 323e aac5 553e 6ebb 0a3e e574 3fbe
000001e0: 3264 313e 5da3 1bbe 016d d93e 99e2 b3bd
000001f0: 097e 23be 0d8c c13d 7a1b 2b3e da05 14be
00000200: 3e73 efbd 075c 2d3d da9d 5cbe a6ca 3d3d
00000210: 8eeb 313d 78e9 d9bd c7dd 713c e845 533d
00000220: 0d3c 213e fb90 8f3e e796 5e3e e00f 093e
00000230: f2d6 243e a33e 8e3d dca3 29bd c3b1 9f3d
00000240: 7a4f 6bbe 8023 023e e830 b2bd 38d5 de3d
00000250: d0ba 11bd fcc1 da3c 9081 72bf ae2b 233f
00000260: 8319 a53e c83c a6be 5492 1e40 f9f9 0d3f
00000270: 434e 13bf 900c 923f dae1 41bd 01cd b73e
00000280: 7224 b7ba 93a5 083e 8b2e d0be ad7e bc3e
00000290: 8b1a 5abf ef92 003f 6ed0 ff3e a13a 16bf
000002a0: ae59 18c0 dfb0 8dbe 240d f53f 0a33 a63f
000002b0: 71e9 df3b 14de babe f8d5 18bf 416d 00bf
000002c0: b138 5bbf e2f5 233f 3445 5bbe 2732 73bf
000002d0: 9eb2 7d3e 79c3 cf3e e83a bdbb 4817 04bf
000002e0: c362 1cc0 b713 2b3f 29cd 7cbe f7bf 89bf
000002f0: ec4c 8cbf d2d6 8abe 0ae1 c7be b3c5 b13e
00000300: 40f0 ca3e a88b 1abd ba40 fa3e 728a 2fbe
00000310: 2506 5d3f 072d 79be 3049 d6bd e81f 21bf
0.85769 0.34925333 0.3227957 1.2195143 6.576478 0.4240714 -0.14104992 0.91276896
4.1014767 0.9489056 1.1244144 -0.051080417 -0.42756423 0.1340738 -0.4787228 0.08188452
0.28312767 -0.847977 4.46861 -0.20786227 -0.03050016 2.7588196 -0.12457971 0.0889894
-0.8220212 -0.54262394 -0.27484664 0.5242811 -0.1541013 -0.45675123 -0.199519 2.0494382
1.0379448 -0.33227757 -1.8063036 1.1754801 -0.6985414 -0.6629087 -0.7934766 0.6161883
-0.4541089 0.3261002 0.44486454 0.3102522 0.010829157 0.20996918 0.65950984 -0.16877277
0.059832986 -0.60503936 -0.017434163 -0.047375284 0.06839343 -0.015344876 -0.11517188 0.00909057
-0.09960641 0.0034739457 0.103484154 -0.077913545 -0.10648621 -0.047088433 0.055982783 -0.0012220058
-0.10123918 0.04251009 0.025068222 0.062120125 -0.032266296 -0.07360568 -0.030492757 -0.003249185
-0.14074035 0.04842508 -0.109949015 -0.13577297 -0.037025858 0.064123094 -0.052432723 0.11747699
0.117123656 -0.07359855 0.010984969 -0.013483671 0.08766941 0.054172087 0.071594015 -0.030956946
0.040015265 -0.13742004 -0.017347459 0.110480435 -0.04114271 -0.06867089 -0.084760584 0.08707993
-0.051966984 -0.07000079 0.013115459 -0.06280046 -0.06502883 -0.13316585 -0.32385978 -0.2873733
0.032922745 0.20038195 -0.34587353 0.04549255 -0.12790994 -0.1984457 -0.12189741 0.13226509
-0.041362543 0.103410594 0.118974194 -0.092385165 0.1742224 0.20876184 0.13548061 -0.18696935
0.17323378 -0.15199037 0.42465976 -0.087834544 -0.15966047 0.09450541 0.167097 -0.14455357
-0.116919026 0.042324092 -0.2154459 0.04633584 0.043437533 -0.10640234 0.0147623485 0.05158034
0.15745564 0.280403 0.21737252 0.13384962 0.1609762 0.06945541 -0.041416034 0.07797577
-0.22979537 0.12708855 -0.087007344 0.10880512 -0.03557855 0.026703827 -0.94728947 0.63738525
0.32246026 -0.32468247 2.4776812 0.55459553 -0.5754129 1.1410084 -0.04733453 0.35898593
-0.0013972654 0.13344412 -0.4066051 0.36815396 -0.8519675 0.502242 0.49963707 -0.5868321
-2.3804736 -0.27674004 1.9144635 1.2984326 0.0068332483 -0.36497557 -0.5970149 -0.5016671
-0.8563338 0.6404706 -0.21413118 -0.949984 0.24775168 0.4057882 -0.0057748444 -0.51598024
-2.443528 0.6682696 -0.24687637 -1.0761708 -1.0960975 -0.2711702 -0.3903888 0.34721145
0.3963642 -0.037730843 0.48877507 -0.17142656 0.863375 -0.24333583 -0.10463178 -0.6293931

fc.weight f4 [27, 50]
00000000: b6d4 15c1 c149 9940 4c55 bb3f e1de 5ac0
00000010: 7cba 27bf ae2d d140 caf0 b140 66e2 cdc0
00000020: cf50 433e bcd9 b8c0 f5a4 5dbd 0414 4f3f
00000030: c08a 5bc1 cdb6 1abf 13d2 dec1 505a 5ec0
00000040: cee8 e7be 19d3 af3f f5a1 e740 8557 8040
00000050: 262f d73f ba74 25c0 44f3 e8bf a6bf 58c0
00000060: fa66 35c0 f573 c4c0 9521 0ac1 d6f3 b640
00000070: fd36 eebe f8be bf40 65ae 44c0 41bf 3ec0
00000080: 8a3d febe 8ee2 ff3f b25b cb41 cca4 27bf
00000090: d34b a4c1 5cdf d5bf 04d7 a2bf f3ad 44c1
000000a0: abbc c0c1 81b2 c6c0 89ee 5240 5146 fcc0
000000b0: 8d63 e2bf c586 ff40 f419 e33f 31dd 8741
000000c0: eff5 a8bf 8f4c 6bbd 829b 5cc0 ab37 13c1
000000d0: aff4 993f 480b 7740 eaea 0340 a41f 3140
000000e0: 35a7 d33f b608 2d40 209c c4c0 0351 1640
000000f0: 8c0b d840 2108 743f 4c3a 2dc1 31f6 d2bf
00000100: f59b 6abf 8239 f6be 279a 1040 0979 bfc0
00000110: 2436 4a41 9b02 2e40 0469 4440 8294 1940
00000120: 2343 97bf 823f 8e40 13d2 2e41 dc91 8b40
00000130: 302e 30c1 5596 783f a83a 84c1 6b05 eb40
00000140: 5aff 9140 e18c bdbf 034e 9bc0 a4d6 3440
00000150: 4df4 dd40 5098 7140 d1c3 9840 eab0 d2be
00000160: c3da 44c0 0032 aac0 52ab cabf b375 78c0
00000170: 7e73 4ec0 1e4b 9640 0194 1340 e3b3 2ebe
00000180: 5123 b540 246b 8940 5f78 8140 8de7 1b40
00000190: a2fe 3ac0 8009 80bf 03cf 2640 b51b ac40
000001a0: 035a 1440 e66b 4dbf 7181 2640 8e21 de3f
000001b0: 71b6 b1c0 01c3 1fc0 ba58 803f df8f 163f
000001c0: 499c a6c0 c6d3 c8bf b473 aac1 0646 01c0
000001d0: b539 5dbf 739b d2bf 7e8c 8dbe 91a5 8d40
000001e0: e63a b83e 2f87 203f e3ee 00c0 de2c 1abe
000001f0: 2966 2a40 a535 89c1 a0fb f43f e957 0740
00000200: aaea 4ec0 e8d8 8840 a000 5e40 db54 ffbf
00000210: 1d6e c5be 5349 85be 8fd9 a6c0 9fdd 3b40
00000220: fa57 07c0 dc81 1ec0 515a 66c0 d34f 2f40
00000230: 313b ba40 a1ad e6c0 4063 49c0 5213 e2bf
00000240: 8397 2940 dc82 1540 b529 b9bf 0915 d1bf
00000250: 3fd4 0dc0 c50e 3940 6939 dc3f 4559 3bc1
00000260: 2e5d 44c0 9e1a 8040 c925 2140 f7f3 1d41
00000270: 464f 60bf 6983 4e40 a8da f2c0 71d6 39c0
00000280: 521c dec0 10c4 2241 d73d c0bf 3c3c 41c1
00000290: e99f 96c2 255a 2c41 414c e73f 0c54 013e
000002a0: d3b9 4e41 ca77 3740 f756 c03e 315f d240
000002b0: d8b4 bcc0 cfa9 7ac0 a5e9 22c0 7449 5ac1
000002c0: 36cb 46c2 6d20 8340 6368 7f41 f2cb fe40
000002d0: b7d1 a740 fa9e cec0 920b dcbf 5c4e 04c0
000002e0: c98c 2342 7ed4 0541 0b9e 49c1 877b 5040
000002f0: 0d77 e140 746e 1941 9243 36c1 abeb 6240
00000300: 75e1 13c0 9b09 9c41 286c b13c 6e1a e33f
00000310: acdb 2f40 9b1d e2c0 cd90 6640 ce3d 7dbd
00000320: f3af 5ec0 a349 96c0 cd73 5fc0 97a7 b4bf
00000330: 7cfe 6ebe 1df3 ec3f 0988 7940 599e 67c0
00000340: 6dce 3040 9aad 8d3f 9c8d 953f 16b4 4dc0
00000350: 929a 54c0 43fd e8bf ecfc 7641 e941 d23f
00000360: 6819 cc3e 4df7 a6bf e08c 99bf 4f05 08c0
00000370: 71b9 8840 b3ef f0bf 75ee fbbf ca4f 1340
00000380: 3785 9d3e 821c 20c0 61e5 78c1 73ae a240
00000390: 3336 dcbf 263a 6f40 16a3 95c0 df94 3440
000003a0: b18a 96bf 54b4 40c0 3f84 8ec1 a956 0c3f
000003b0: f291 9640 1b03 a9bf 8456 963d 0f55 61c0
000003c0: 22db f5bf fab9 8ebf 6b49 42c0 b464 0340
000003d0: 02cd 0240 aee4 42c0 9ae5 09c0 81ff e640
000003e0: fc3b 6640 702e 1140 1acb a3c0 5243 bac0
000003f0: c2bb 08be e587 31c0 eace 1e40 d74c 773f
-9.364431 4.790253 1.4635406 -3.4198534 -0.6551893 6.536826 5.560643 -6.4338865
0.19073795 -5.776579 -0.054112393 0.80889916 -13.7213745 -0.6043518 -27.852575 -3.4742622
-0.45294803 1.3736297 7.23852 4.0106835 1.6811264 -2.5852494 -1.8199239 -3.3866973
-2.8344102 -6.139155 -8.633199 5.717265 -0.46526328 5.9920616 -3.0731442 -2.9804232
-0.49656326 1.9991014 25.419773 -0.65485835 -20.537024 -1.6708789 -1.2721868 -12.292468
-24.092123 -6.20929 3.295809 -7.8835835 -1.768663 7.9852014 1.7742295 16.983004
-1.3200053 -0.05744606 -3.4469914 -9.201091 1.2027797 3.8600636 2.061213 2.7675562
1.6535403 2.7036567 -6.144058 2.3486946 6.7514095 0.95324904 -10.826733 -1.6481382
-0.9164422 -0.4809075 2.2594087 -5.983525 12.638218 2.718909 3.0689096 2.3996892
-1.1817364 4.4452524 10.926288 4.361555 -11.011276 0.9710439 -16.52864 7.3444114
4.562421 -1.4808618 -4.853273 2.8256006 6.936072 3.7749214 4.7739034 -0.411506
-3.0758522 -5.3186035 -1.5833533 -3.8821838 -3.225799 4.6966696 2.3059084 -0.17060809
5.660561 4.2943287 4.0459437 2.4360077 -2.9217916 -1.0002899 2.606385 5.378382
2.3179939 -0.80242765 2.6016505 1.735399 -5.5535207 -2.496277 1.0027077 0.5881328
-5.206578 -1.5689628 -21.306496 -2.019899 -0.8641618 -1.6453689 -0.2764625 4.4264607
0.35982436 0.62706274 -2.0145805 -0.15056178 2.6624854 -17.151194 1.913929 2.1147406
-3.2330728 4.276478 3.4687881 -1.9947771 -0.38560572 -0.26032504 -5.2140574 2.9354017
-2.1147447 -2.476676 -3.5992625 2.739247 5.8197255 -7.208695 -3.1466827 -1.7662146
2.6498725 2.336112 -1.4465853 -1.6334544 -2.2160795 2.8915265 1.720502 -11.709294
-3.0681872 4.003249 2.5179312 9.872062 -0.8762096 3.2267706 -7.5891914 -2.9037135
-6.940957 10.172867 -1.5018872 -12.077206 -75.312325 10.772008 1.8070146 0.12629718
12.920367 2.8666863 0.3756635 6.57412 -5.8970757 -3.9166143 -2.5455105 -13.642933
-49.69845 4.097708 15.962985 7.9623957 5.24435 -6.4569063 -1.7191031 -2.0672827
40.887486 8.364378 -12.601085 3.2575395 7.0457826 9.589466 -11.391497 3.545634
-2.3106358 19.50469 0.021658018 1.7742441 2.7477827 -7.066114 3.602588 -0.06182652
-3.479489 -4.696489 -3.491443 -1.4113644 -0.23339266 1.8511692 3.898928 -3.6190398
2.7625992 1.1068604 1.1683841 -3.2141166 -3.3219342 -1.8202289 15.4367485 1.6426364
0.39863133 -1.304422 -1.1996117 -2.125324 4.272637 -1.882315 -1.9682146 2.301745
0.30765697 -2.50174 -15.556001 5.083795 -1.720404 3.737924 -4.676158 2.8215864
-1.1761075 -3.0110064 -17.814573 0.5481973 4.7053156 -1.3204073 0.0734072 -3.5208166
-1.9207499 -1.1150506 -3.035731 2.0530214 2.0437627 -3.0452075 -2.1546388 7.2186894
3.5974112 2.2684593 -5.1185427 -5.820718 -0.13352874 -2.7739193 2.481379 0.96601623

fc.bias f4 [27]
00000000: 6fa0 c4bf 7845 c6be 43b8 c4bf 3944 e4be
00000010: 2495 b33f 2ff2 f83e fd91 073f 01da b0bd
00000020: abfb 243f 72c6 2cc0 81a5 5abf 8268 c6be
00000030: 693d 3abf bba3 f3bf fd5d 7abf dfe0 0f3f
00000040: 22ac 4d3f c9f3 4ac0 3bdb 7ebd a4f6 0bc0
00000050: 9a19 4ebe f995 89bf b2d3 803f 5aee ba3f
00000060: 1c77 8dbe d666 d3bf 8b25 59c0
-1.536146 -0.38724875 -1.5368732 -0.445833 1.4029889 0.4862227 0.52957135 -0.08635331
0.64446515 -2.6996121 -0.8540879 -0.38751608 -0.72749954 -1.9034342 -0.97799665 0.562025
0.8034078 -3.1711295 -0.062220793 -2.1869287 -0.20126954 -1.0748893 1.0064604 1.4603989
-0.27629936 -1.6515758 -3.3929164
